inputs/demo/justin/hmr4d_results.pt (torch, 115775 bytes, 25 tensors)

body_pose f4 [25, 63]
0	0xbe9e0ce4	-0.3086921
1	0xbdf2b37c	-0.1185064
2	0xbda935b2	-0.08262195
3	0x3ec2268b	0.3792003
4	0x3d22998d	0.03969722
5	0x3cc86871	0.024463864
6	0x3e374df4	0.1790083
7	0x3e1bd865	0.15219267
8	0xbd8ffd91	-0.07030786
9	0x3ea180aa	0.31543475
10	0xbd81f2d7	-0.06345146
11	0xbd50c090	-0.050964892
12	0x3ebe842f	0.37210223
13	0x3e817ac8	0.25288987
14	0xbd0cc70d	-0.034369517
15	0xbba4c152	-0.0050279284
16	0xbbf5e20b	-0.007503753
17	0x3cf5b2fc	0.029992573
18	0x3e6d8227	0.2319418
19	0x3d62e682	0.05539561
20	0xbc6c6977	-0.014429442
21	0xbdfb2c54	-0.12264314
22	0x3df101b3	0.11767902
23	0x3d32331b	0.04350577
24	0x3d37c642	0.044866808
25	0x3d6f289a	0.05838833
26	0xbd6bf6fd	-0.057608593
27	0xbb1dccd3	-0.0024078384
28	0xbcd2e032	-0.02574167
29	0x3d09aa9a	0.033609964
30	0xbd1e03f7	-0.038578
31	0x3cc4768c	0.023982309
32	0x3d7d9438	0.06190893
33	0xbd9085a5	-0.07056741
34	0x3e5b2183	0.21399502
35	0x3b31963a	0.0027097599
36	0x3d4d81f9	0.05017278
37	0xbe00287c	-0.12515444
38	0xbdeb7f68	-0.1149891
39	0xbc174858	-0.009233557
40	0x3e5d0d8a	0.21587196
41	0x3e6d6543	0.2318316
42	0x3e861e6b	0.26195082
43	0xbdaeb19e	-0.085299715
44	0xbe0833d2	-0.13301018
45	0x3eece46e	0.46268028
46	0xbe87cb64	-0.26522362
47	0xbf6351e3	-0.88796824
48	0x3ef963a6	0.48708838
49	0x3ed606eb	0.41802153
50	0x3f715539	0.94270664
51	0x3f0f9eb6	0.5610155
52	0xbf70fce4	-0.9413588
53	0xbe9d21b7	-0.30689785
54	0x3eb1009a	0.3457077
55	0x3ee58c75	0.44833723
56	0x3ea2883e	0.3174457
57	0x3de9b991	0.11412347
58	0xbec46bd9	-0.3836353
59	0x3f916764	1.1359677
60	0x3d7ea721	0.062171105
61	0x3e9f4e91	0.3111463
62	0xbf4f5bc8	-0.8099942
63	0xbe9e076b	-0.30865034
64	0xbdf2f8c7	-0.11863857
65	0xbda91430	-0.082558036
66	0x3ec228c1	0.37921718
67	0x3d2311f4	0.039812043
68	0x3ccefbef	0.025266616
69	0x3e373d34	0.17894441
70	0x3e1ba87b	0.15200989
71	0xbd907b49	-0.07054765
72	0x3ea16c34	0.31527865
73	0xbd80fcbe	-0.06298207
74	0xbd4e6cb1	-0.050396625
75	0x3ebe725d	0.37196627
76	0x3e817883	0.25287256
77	0xbd0faafe	-0.03507518
78	0xbba52ce1	-0.0050407504
79	0xbbff4b1e	-0.007790937
80	0x3cf7480e	0.030185726
81	0x3e6d2efc	0.23162454
82	0x3d643dd2	0.05572302
83	0xbc61586a	-0.01375399
84	0xbdfcc184	-0.12341598
85	0x3df109ed	0.11769471
86	0x3d2e3d9e	0.04253923
87	0x3d38d266	0.045122527
88	0x3d6efb7d	0.058345307
89	0xbd6bd045	-0.05757167
90	0xbb152612	-0.0022758287
91	0xbcd26883	-0.0256846
92	0x3d088b39	0.033335898
93	0xbd1da8ff	-0.038491245
94	0x3cc20291	0.023682864
95	0x3d80095b	0.062517844
96	0xbd8e9b3c	-0.06963202
97	0x3e5a4d1e	0.2131848
98	0x3b3d7a26	0.0028911917
99	0x3d4cdb1e	0.050013654
100	0xbdfff52d	-0.124979354
101	0xbdea1dad	-0.114314415
102	0xbc1fab00	-0.009745359
103	0x3e5cc442	0.21559241
104	0x3e6c68e1	0.23086883
105	0x3e8654fd	0.26236716
106	0xbdaeb260	-0.08530116
107	0xbe07862f	-0.1323478
108	0x3eec9978	0.46210837
109	0xbe87ea44	-0.26545918
110	0xbf638229	-0.88870484
111	0x3ef9218b	0.48658404
112	0x3ed63427	0.41836664
113	0x3f716fb6	0.9431108
114	0x3f0f749a	0.56037295
115	0xbf70fff7	-0.9414057
116	0xbe9d5044	-0.307253
117	0x3eb0bb82	0.34518057
118	0x3ee59deb	0.44847044
119	0x3ea27e62	0.31737047
120	0x3dea66f4	0.11445418
121	0xbec43ff2	-0.38330036
122	0x3f917d94	1.1366448
123	0x3d8198f9	0.06328005
124	0x3e9fa121	0.3117762
125	0xbf4f04ce	-0.80866706
126	0xbe9e4607	-0.30912802
127	0xbdf37236	-0.118870184
128	0xbda92191	-0.082583554
129	0x3ec281be	0.3798961
130	0x3d22c4a7	0.039738324
131	0x3cd65014	0.026161231
132	0x3e37bdd9	0.17943515
133	0x3e1bce52	0.15215424
134	0xbd90b8c1	-0.07066489
135	0x3ea1ac4f	0.31576774
136	0xbd8292e1	-0.06375671
137	0xbd4c51b0	-0.04988259
138	0x3ebdec83	0.37094507
139	0x3e8208e2	0.25397402
140	0xbd143916	-0.036187254
141	0xbba158af	-0.004923902
142	0xbc043b38	-0.0080707595
143	0x3cf7acc3	0.030233746
144	0x3e6d1b3c	0.2315492
145	0x3d663285	0.056200523
146	0xbc569db2	-0.013099121
147	0xbe007764	-0.12545544
148	0x3df03984	0.1172972
149	0x3d28e7bb	0.04123662
150	0x3d3acbb5	0.045604426
151	0x3d6f1717	0.05837163
152	0xbd6a61d4	-0.057222202
153	0xbb1544b8	-0.0022776555
154	0xbcd43b0e	-0.025907066
155	0x3d0864d0	0.033299267
156	0xbd1d7254	-0.03843911
157	0x3cbfbceb	0.023405513
158	0x3d80c39b	0.06287309
159	0xbd8e150b	-0.069376074
160	0x3e59c088	0.21264851
161	0x3b266d80	0.0025394857
162	0x3d4a399b	0.049371343
163	0xbe00526f	-0.12531446
164	0xbde90f26	-0.113798425
165	0xbc24c78a	-0.010057339
166	0x3e5d28be	0.21597573
167	0x3e6bc695	0.23024972
168	0x3e86157d	0.2618827
169	0xbdaeb0c5	-0.0852981
170	0xbe0756b6	-0.13216671
171	0x3eec6148	0.4616797
172	0xbe88196b	-0.26581892
173	0xbf63b9f6	-0.8895563
174	0x3ef8d09a	0.4859665
175	0x3ed679dc	0.41889846
176	0x3f717c45	0.94330245
177	0x3f0f542d	0.5598782
178	0xbf71198e	-0.9417962
179	0xbe9d5484	-0.30728543
180	0x3eb0d39e	0.3453645
181	0x3ee5d274	0.44887125
182	0x3ea2231c	0.3166741
183	0x3deb4ca0	0.114892244
184	0xbec3fa9c	-0.38277137
185	0x3f918151	1.1367589
186	0x3d832571	0.06403626
187	0x3e9f8ee6	0.3116371
188	0xbf4e8910	-0.8067789
189	0xbe9de755	-0.30840555
190	0xbdf3a1ef	-0.11896121
191	0xbda81f2f	-0.08209073
192	0x3ec32d46	0.38120478
193	0x3d21bc33	0.03948612
194	0x3cdd4c81	0.027014019
195	0x3e37fbb4	0.17967111
196	0x3e1bb92c	0.15207356
197	0xbd9036c9	-0.070416994
198	0x3ea03673	0.3129154
199	0xbd8689d9	-0.06569261
200	0xbd488b99	-0.048961256
201	0x3ebc6f70	0.3680377
202	0x3e831164	0.25599205
203	0xbd17f6ef	-0.03710073
204	0xbba57f2d	-0.005050561
205	0xbc055fe9	-0.008140543
206	0x3cf6ecf5	0.030142287
207	0x3e6c9258	0.231027
208	0x3d6eee41	0.058332685
209	0xbc451c8d	-0.012030733
210	0xbe02cda0	-0.12773752
211	0x3dee3d73	0.11632814
212	0x3d2788ac	0.040901825
213	0x3d3c1049	0.04591397
214	0x3d6e8fb1	0.058242504
215	0xbd69c9ef	-0.057077345
216	0xbb1797b5	-0.0023131196
217	0xbcd4d726	-0.025981497
218	0x3d08a664	0.033361807
219	0xbd1cb337	-0.03825685
220	0x3cbfa0ca	0.0233921
221	0x3d7fc727	0.062445786
222	0xbd8cf7f0	-0.06883228
223	0x3e58ff22	0.21191075
224	0x3b2d9fa3	0.0026492856
225	0x3d4923c7	0.049106386
226	0xbe001f0b	-0.12511842
227	0xbde9f020	-0.11422753
228	0xbc2ac027	-0.010421789
229	0x3e5d468d	0.21608944
230	0x3e6c18d1	0.23056342
231	0x3e862569	0.26200417
232	0xbdaea7f2	-0.08528127
233	0xbe07047e	-0.13185307
234	0x3eec8ff6	0.46203583
235	0xbe87f90f	-0.26557204
236	0xbf63a195	-0.8891843
237	0x3ef8c5dd	0.48588458
238	0x3ed60132	0.41797787
239	0x3f713762	0.9422513
240	0x3f0f5d23	0.5600149
241	0xbf7140fb	-0.9423978
242	0xbe9d39ef	-0.30708262
243	0x3eb12a55	0.3460261
244	0x3ee6bd73	0.45066413
245	0x3ea1d477	0.3160741
246	0x3decb6b6	0.11558287
247	0xbec420bd	-0.38306227
248	0x3f916bfa	1.1361077
249	0x3d8558a7	0.0651105
250	0x3e9fa790	0.31182528
251	0xbf4e3fe4	-0.8056624
252	0xbe9ced0a	-0.30649596
253	0xbdf16b72	-0.11788072
254	0xbda7dfde	-0.08196996
255	0x3ec3750b	0.38175234

betas f4 [25, 10]
0	0x3f3c85e1	0.73641783
1	0x3fa79ad3	1.3094124
2	0x3ee2ffa8	0.44335675
3	0xbdafb799	-0.0857994
4	0xbf48dd7f	-0.78462976
5	0x3e2de840	0.16983128
6	0xbef6cc6e	-0.48202842
7	0xbe000f6a	-0.1250588
8	0xbf0d9f6f	-0.553214
9	0x3efd67b0	0.4949317
10	0x3f3c85e1	0.73641783
11	0x3fa79ad3	1.3094124
12	0x3ee2ffa8	0.44335675
13	0xbdafb799	-0.0857994
14	0xbf48dd7f	-0.78462976
15	0x3e2de840	0.16983128
16	0xbef6cc6e	-0.48202842
17	0xbe000f6a	-0.1250588
18	0xbf0d9f6f	-0.553214
19	0x3efd67b0	0.4949317
20	0x3f3c85e1	0.73641783
21	0x3fa79ad3	1.3094124
22	0x3ee2ffa8	0.44335675
23	0xbdafb799	-0.0857994
24	0xbf48dd7f	-0.78462976
25	0x3e2de840	0.16983128
26	0xbef6cc6e	-0.48202842
27	0xbe000f6a	-0.1250588
28	0xbf0d9f6f	-0.553214
29	0x3efd67b0	0.4949317
30	0x3f3c85e1	0.73641783
31	0x3fa79ad3	1.3094124
32	0x3ee2ffa8	0.44335675
33	0xbdafb799	-0.0857994
34	0xbf48dd7f	-0.78462976
35	0x3e2de840	0.16983128
36	0xbef6cc6e	-0.48202842
37	0xbe000f6a	-0.1250588
38	0xbf0d9f6f	-0.553214
39	0x3efd67b0	0.4949317
40	0x3f3c85e1	0.73641783
41	0x3fa79ad3	1.3094124
42	0x3ee2ffa8	0.44335675
43	0xbdafb799	-0.0857994
44	0xbf48dd7f	-0.78462976
45	0x3e2de840	0.16983128
46	0xbef6cc6e	-0.48202842
47	0xbe000f6a	-0.1250588
48	0xbf0d9f6f	-0.553214
49	0x3efd67b0	0.4949317
50	0x3f3c85e1	0.73641783
51	0x3fa79ad3	1.3094124
52	0x3ee2ffa8	0.44335675
53	0xbdafb799	-0.0857994
54	0xbf48dd7f	-0.78462976
55	0x3e2de840	0.16983128
56	0xbef6cc6e	-0.48202842
57	0xbe000f6a	-0.1250588
58	0xbf0d9f6f	-0.553214
59	0x3efd67b0	0.4949317
60	0x3f3c85e1	0.73641783
61	0x3fa79ad3	1.3094124
62	0x3ee2ffa8	0.44335675
63	0xbdafb799	-0.0857994
64	0xbf48dd7f	-0.78462976
65	0x3e2de840	0.16983128
66	0xbef6cc6e	-0.48202842
67	0xbe000f6a	-0.1250588
68	0xbf0d9f6f	-0.553214
69	0x3efd67b0	0.4949317
70	0x3f3c85e1	0.73641783
71	0x3fa79ad3	1.3094124
72	0x3ee2ffa8	0.44335675
73	0xbdafb799	-0.0857994
74	0xbf48dd7f	-0.78462976
75	0x3e2de840	0.16983128
76	0xbef6cc6e	-0.48202842
77	0xbe000f6a	-0.1250588
78	0xbf0d9f6f	-0.553214
79	0x3efd67b0	0.4949317
80	0x3f3c85e1	0.73641783
81	0x3fa79ad3	1.3094124
82	0x3ee2ffa8	0.44335675
83	0xbdafb799	-0.0857994
84	0xbf48dd7f	-0.78462976
85	0x3e2de840	0.16983128
86	0xbef6cc6e	-0.48202842
87	0xbe000f6a	-0.1250588
88	0xbf0d9f6f	-0.553214
89	0x3efd67b0	0.4949317
90	0x3f3c85e1	0.73641783
91	0x3fa79ad3	1.3094124
92	0x3ee2ffa8	0.44335675
93	0xbdafb799	-0.0857994
94	0xbf48dd7f	-0.78462976
95	0x3e2de840	0.16983128
96	0xbef6cc6e	-0.48202842
97	0xbe000f6a	-0.1250588
98	0xbf0d9f6f	-0.553214
99	0x3efd67b0	0.4949317
100	0x3f3c85e1	0.73641783
101	0x3fa79ad3	1.3094124
102	0x3ee2ffa8	0.44335675
103	0xbdafb799	-0.0857994
104	0xbf48dd7f	-0.78462976
105	0x3e2de840	0.16983128
106	0xbef6cc6e	-0.48202842
107	0xbe000f6a	-0.1250588
108	0xbf0d9f6f	-0.553214
109	0x3efd67b0	0.4949317
110	0x3f3c85e1	0.73641783
111	0x3fa79ad3	1.3094124
112	0x3ee2ffa8	0.44335675
113	0xbdafb799	-0.0857994
114	0xbf48dd7f	-0.78462976
115	0x3e2de840	0.16983128
116	0xbef6cc6e	-0.48202842
117	0xbe000f6a	-0.1250588
118	0xbf0d9f6f	-0.553214
119	0x3efd67b0	0.4949317
120	0x3f3c85e1	0.73641783
121	0x3fa79ad3	1.3094124
122	0x3ee2ffa8	0.44335675
123	0xbdafb799	-0.0857994
124	0xbf48dd7f	-0.78462976
125	0x3e2de840	0.16983128
126	0xbef6cc6e	-0.48202842
127	0xbe000f6a	-0.1250588
128	0xbf0d9f6f	-0.553214
129	0x3efd67b0	0.4949317
130	0x3f3c85e1	0.73641783
131	0x3fa79ad3	1.3094124
132	0x3ee2ffa8	0.44335675
133	0xbdafb799	-0.0857994
134	0xbf48dd7f	-0.78462976
135	0x3e2de840	0.16983128
136	0xbef6cc6e	-0.48202842
137	0xbe000f6a	-0.1250588
138	0xbf0d9f6f	-0.553214
139	0x3efd67b0	0.4949317
140	0x3f3c85e1	0.73641783
141	0x3fa79ad3	1.3094124
142	0x3ee2ffa8	0.44335675
143	0xbdafb799	-0.0857994
144	0xbf48dd7f	-0.78462976
145	0x3e2de840	0.16983128
146	0xbef6cc6e	-0.48202842
147	0xbe000f6a	-0.1250588
148	0xbf0d9f6f	-0.553214
149	0x3efd67b0	0.4949317
150	0x3f3c85e1	0.73641783
151	0x3fa79ad3	1.3094124
152	0x3ee2ffa8	0.44335675
153	0xbdafb799	-0.0857994
154	0xbf48dd7f	-0.78462976
155	0x3e2de840	0.16983128
156	0xbef6cc6e	-0.48202842
157	0xbe000f6a	-0.1250588
158	0xbf0d9f6f	-0.553214
159	0x3efd67b0	0.4949317
160	0x3f3c85e1	0.73641783
161	0x3fa79ad3	1.3094124
162	0x3ee2ffa8	0.44335675
163	0xbdafb799	-0.0857994
164	0xbf48dd7f	-0.78462976
165	0x3e2de840	0.16983128
166	0xbef6cc6e	-0.48202842
167	0xbe000f6a	-0.1250588
168	0xbf0d9f6f	-0.553214
169	0x3efd67b0	0.4949317
170	0x3f3c85e1	0.73641783
171	0x3fa79ad3	1.3094124
172	0x3ee2ffa8	0.44335675
173	0xbdafb799	-0.0857994
174	0xbf48dd7f	-0.78462976
175	0x3e2de840	0.16983128
176	0xbef6cc6e	-0.48202842
177	0xbe000f6a	-0.1250588
178	0xbf0d9f6f	-0.553214
179	0x3efd67b0	0.4949317
180	0x3f3c85e1	0.73641783
181	0x3fa79ad3	1.3094124
182	0x3ee2ffa8	0.44335675
183	0xbdafb799	-0.0857994
184	0xbf48dd7f	-0.78462976
185	0x3e2de840	0.16983128
186	0xbef6cc6e	-0.48202842
187	0xbe000f6a	-0.1250588
188	0xbf0d9f6f	-0.553214
189	0x3efd67b0	0.4949317
190	0x3f3c85e1	0.73641783
191	0x3fa79ad3	1.3094124
192	0x3ee2ffa8	0.44335675
193	0xbdafb799	-0.0857994
194	0xbf48dd7f	-0.78462976
195	0x3e2de840	0.16983128
196	0xbef6cc6e	-0.48202842
197	0xbe000f6a	-0.1250588
198	0xbf0d9f6f	-0.553214
199	0x3efd67b0	0.4949317
200	0x3f3c85e1	0.73641783
201	0x3fa79ad3	1.3094124
202	0x3ee2ffa8	0.44335675
203	0xbdafb799	-0.0857994
204	0xbf48dd7f	-0.78462976
205	0x3e2de840	0.16983128
206	0xbef6cc6e	-0.48202842
207	0xbe000f6a	-0.1250588
208	0xbf0d9f6f	-0.553214
209	0x3efd67b0	0.4949317
210	0x3f3c85e1	0.73641783
211	0x3fa79ad3	1.3094124
212	0x3ee2ffa8	0.44335675
213	0xbdafb799	-0.0857994
214	0xbf48dd7f	-0.78462976
215	0x3e2de840	0.16983128
216	0xbef6cc6e	-0.48202842
217	0xbe000f6a	-0.1250588
218	0xbf0d9f6f	-0.553214
219	0x3efd67b0	0.4949317
220	0x3f3c85e1	0.73641783
221	0x3fa79ad3	1.3094124
222	0x3ee2ffa8	0.44335675
223	0xbdafb799	-0.0857994
224	0xbf48dd7f	-0.78462976
225	0x3e2de840	0.16983128
226	0xbef6cc6e	-0.48202842
227	0xbe000f6a	-0.1250588
228	0xbf0d9f6f	-0.553214
229	0x3efd67b0	0.4949317
230	0x3f3c85e1	0.73641783
231	0x3fa79ad3	1.3094124
232	0x3ee2ffa8	0.44335675
233	0xbdafb799	-0.0857994
234	0xbf48dd7f	-0.78462976
235	0x3e2de840	0.16983128
236	0xbef6cc6e	-0.48202842
237	0xbe000f6a	-0.1250588
238	0xbf0d9f6f	-0.553214
239	0x3efd67b0	0.4949317
240	0x3f3c85e1	0.73641783
241	0x3fa79ad3	1.3094124
242	0x3ee2ffa8	0.44335675
243	0xbdafb799	-0.0857994
244	0xbf48dd7f	-0.78462976
245	0x3e2de840	0.16983128
246	0xbef6cc6e	-0.48202842
247	0xbe000f6a	-0.1250588
248	0xbf0d9f6f	-0.553214
249	0x3efd67b0	0.4949317

global_orient f4 [25, 3]
0	0x3dc55911	0.09636129
1	0x40442295	3.0646107
2	0x3ea88658	0.32914996
3	0x3dc4370f	0.09580814
4	0x40441e4a	3.0643487
5	0x3ea8b457	0.32950088
6	0x3dc32ee4	0.09530428
7	0x40441af2	3.0641446
8	0x3ea8d6b9	0.3297632
9	0x3dc07e76	0.093991205
10	0x40440f19	3.0634215
11	0x3ea863da	0.3288868
12	0x3dbf60e1	0.0934465
13	0x40440f15	3.0634205
14	0x3ea8322d	0.3285078
15	0x3dbe2826	0.092850015
16	0x40440cae	3.063274
17	0x3ea80ade	0.3282079
18	0x3dbc02e1	0.091802366
19	0x4044098c	3.0630827
20	0x3ea7a4de	0.3274297
21	0x3dbae63c	0.09125945
22	0x40440a7c	3.06314
23	0x3ea77402	0.32705694
24	0x3dba2f72	0.09091081
25	0x4044073c	3.0629416
26	0x3ea708a1	0.3262377
27	0x3db9c9bf	0.09071683
28	0x40440ae8	3.0631657
29	0x3ea6bc01	0.3256531
30	0x3db9a5de	0.0906484
31	0x40440c56	3.063253
32	0x3ea6bd38	0.32566237
33	0x3db973fd	0.09055326
34	0x40440c17	3.063238
35	0x3ea6a430	0.3254714
36	0x3db97470	0.09055412
37	0x40440c91	3.063267
38	0x3ea6a497	0.32547447
39	0x3db8ec21	0.09029413
40	0x40440cce	3.0632815
41	0x3ea6a4cc	0.32547605
42	0x3db90f59	0.090361305
43	0x40440aaa	3.063151
44	0x3ea6bbcd	0.32565156
45	0x3db89cf0	0.090143085
46	0x404407cc	3.062976
47	0x3ea6a08a	0.32544357
48	0x3db8c17f	0.090212815
49	0x40440714	3.062932
50	0x3ea69fed	0.3254389
51	0x3db84dc1	0.089992054
52	0x404402c7	3.0626695
53	0x3ea66aa2	0.3250323
54	0x3db871db	0.09006091
55	0x40440194	3.0625963
56	0x3ea650cc	0.32483518
57	0x3db8303a	0.089935735
58	0x4043fdc4	3.0623636
59	0x3ea64d90	0.3248105
60	0x3db861dc	0.0900304
61	0x4043fdc4	3.0623636
62	0x3ea64d90	0.3248105
63	0x3db822ec	0.08991036
64	0x4043fcd0	3.0623055
65	0x3ea64cc1	0.32480434
66	0x3db8215b	0.08990737
67	0x4043fb25	3.0622036
68	0x3ea64b56	0.32479352
69	0x3db7e113	0.089784764
70	0x4043f8c2	3.062058
71	0x3ea64950	0.32477808
72	0x3db7c3cb	0.089728914
73	0x4043f3fe	3.061767
74	0x3ea64545	0.32474723

body_pose f4 [25, 63]
0	0xbe9e0ce4	-0.3086921
1	0xbdf2b37c	-0.1185064
2	0xbda935b2	-0.08262195
3	0x3ec2268b	0.3792003
4	0x3d22998d	0.03969722
5	0x3cc86871	0.024463864
6	0x3e374df4	0.1790083
7	0x3e1bd865	0.15219267
8	0xbd8ffd91	-0.07030786
9	0x3ea180aa	0.31543475
10	0xbd81f2d7	-0.06345146
11	0xbd50c090	-0.050964892
12	0x3ebe842f	0.37210223
13	0x3e817ac8	0.25288987
14	0xbd0cc70d	-0.034369517
15	0xbba4c152	-0.0050279284
16	0xbbf5e20b	-0.007503753
17	0x3cf5b2fc	0.029992573
18	0x3e6d8227	0.2319418
19	0x3d62e682	0.05539561
20	0xbc6c6977	-0.014429442
21	0xbdfb2c54	-0.12264314
22	0x3df101b3	0.11767902
23	0x3d32331b	0.04350577
24	0x3d37c642	0.044866808
25	0x3d6f289a	0.05838833
26	0xbd6bf6fd	-0.057608593
27	0xbb1dccd3	-0.0024078384
28	0xbcd2e032	-0.02574167
29	0x3d09aa9a	0.033609964
30	0xbd1e03f7	-0.038578
31	0x3cc4768c	0.023982309
32	0x3d7d9438	0.06190893
33	0xbd9085a5	-0.07056741
34	0x3e5b2183	0.21399502
35	0x3b31963a	0.0027097599
36	0x3d4d81f9	0.05017278
37	0xbe00287c	-0.12515444
38	0xbdeb7f68	-0.1149891
39	0xbc174858	-0.009233557
40	0x3e5d0d8a	0.21587196
41	0x3e6d6543	0.2318316
42	0x3e861e6b	0.26195082
43	0xbdaeb19e	-0.085299715
44	0xbe0833d2	-0.13301018
45	0x3eece46e	0.46268028
46	0xbe87cb64	-0.26522362
47	0xbf6351e3	-0.88796824
48	0x3ef963a6	0.48708838
49	0x3ed606eb	0.41802153
50	0x3f715539	0.94270664
51	0x3f0f9eb6	0.5610155
52	0xbf70fce4	-0.9413588
53	0xbe9d21b7	-0.30689785
54	0x3eb1009a	0.3457077
55	0x3ee58c75	0.44833723
56	0x3ea2883e	0.3174457
57	0x3de9b991	0.11412347
58	0xbec46bd9	-0.3836353
59	0x3f916764	1.1359677
60	0x3d7ea721	0.062171105
61	0x3e9f4e91	0.3111463
62	0xbf4f5bc8	-0.8099942
63	0xbe9e076b	-0.30865034
64	0xbdf2f8c7	-0.11863857
65	0xbda91430	-0.082558036
66	0x3ec228c1	0.37921718
67	0x3d2311f4	0.039812043
68	0x3ccefbef	0.025266616
69	0x3e373d34	0.17894441
70	0x3e1ba87b	0.15200989
71	0xbd907b49	-0.07054765
72	0x3ea16c34	0.31527865
73	0xbd80fcbe	-0.06298207
74	0xbd4e6cb1	-0.050396625
75	0x3ebe725d	0.37196627
76	0x3e817883	0.25287256
77	0xbd0faafe	-0.03507518
78	0xbba52ce1	-0.0050407504
79	0xbbff4b1e	-0.007790937
80	0x3cf7480e	0.030185726
81	0x3e6d2efc	0.23162454
82	0x3d643dd2	0.05572302
83	0xbc61586a	-0.01375399
84	0xbdfcc184	-0.12341598
85	0x3df109ed	0.11769471
86	0x3d2e3d9e	0.04253923
87	0x3d38d266	0.045122527
88	0x3d6efb7d	0.058345307
89	0xbd6bd045	-0.05757167
90	0xbb152612	-0.0022758287
91	0xbcd26883	-0.0256846
92	0x3d088b39	0.033335898
93	0xbd1da8ff	-0.038491245
94	0x3cc20291	0.023682864
95	0x3d80095b	0.062517844
96	0xbd8e9b3c	-0.06963202
97	0x3e5a4d1e	0.2131848
98	0x3b3d7a26	0.0028911917
99	0x3d4cdb1e	0.050013654
100	0xbdfff52d	-0.124979354
101	0xbdea1dad	-0.114314415
102	0xbc1fab00	-0.009745359
103	0x3e5cc442	0.21559241
104	0x3e6c68e1	0.23086883
105	0x3e8654fd	0.26236716
106	0xbdaeb260	-0.08530116
107	0xbe07862f	-0.1323478
108	0x3eec9978	0.46210837
109	0xbe87ea44	-0.26545918
110	0xbf638229	-0.88870484
111	0x3ef9218b	0.48658404
112	0x3ed63427	0.41836664
113	0x3f716fb6	0.9431108
114	0x3f0f749a	0.56037295
115	0xbf70fff7	-0.9414057
116	0xbe9d5044	-0.307253
117	0x3eb0bb82	0.34518057
118	0x3ee59deb	0.44847044
119	0x3ea27e62	0.31737047
120	0x3dea66f4	0.11445418
121	0xbec43ff2	-0.38330036
122	0x3f917d94	1.1366448
123	0x3d8198f9	0.06328005
124	0x3e9fa121	0.3117762
125	0xbf4f04ce	-0.80866706
126	0xbe9e4607	-0.30912802
127	0xbdf37236	-0.118870184
128	0xbda92191	-0.082583554
129	0x3ec281be	0.3798961
130	0x3d22c4a7	0.039738324
131	0x3cd65014	0.026161231
132	0x3e37bdd9	0.17943515
133	0x3e1bce52	0.15215424
134	0xbd90b8c1	-0.07066489
135	0x3ea1ac4f	0.31576774
136	0xbd8292e1	-0.06375671
137	0xbd4c51b0	-0.04988259
138	0x3ebdec83	0.37094507
139	0x3e8208e2	0.25397402
140	0xbd143916	-0.036187254
141	0xbba158af	-0.004923902
142	0xbc043b38	-0.0080707595
143	0x3cf7acc3	0.030233746
144	0x3e6d1b3c	0.2315492
145	0x3d663285	0.056200523
146	0xbc569db2	-0.013099121
147	0xbe007764	-0.12545544
148	0x3df03984	0.1172972
149	0x3d28e7bb	0.04123662
150	0x3d3acbb5	0.045604426
151	0x3d6f1717	0.05837163
152	0xbd6a61d4	-0.057222202
153	0xbb1544b8	-0.0022776555
154	0xbcd43b0e	-0.025907066
155	0x3d0864d0	0.033299267
156	0xbd1d7254	-0.03843911
157	0x3cbfbceb	0.023405513
158	0x3d80c39b	0.06287309
159	0xbd8e150b	-0.069376074
160	0x3e59c088	0.21264851
161	0x3b266d80	0.0025394857
162	0x3d4a399b	0.049371343
163	0xbe00526f	-0.12531446
164	0xbde90f26	-0.113798425
165	0xbc24c78a	-0.010057339
166	0x3e5d28be	0.21597573
167	0x3e6bc695	0.23024972
168	0x3e86157d	0.2618827
169	0xbdaeb0c5	-0.0852981
170	0xbe0756b6	-0.13216671
171	0x3eec6148	0.4616797
172	0xbe88196b	-0.26581892
173	0xbf63b9f6	-0.8895563
174	0x3ef8d09a	0.4859665
175	0x3ed679dc	0.41889846
176	0x3f717c45	0.94330245
177	0x3f0f542d	0.5598782
178	0xbf71198e	-0.9417962
179	0xbe9d5484	-0.30728543
180	0x3eb0d39e	0.3453645
181	0x3ee5d274	0.44887125
182	0x3ea2231c	0.3166741
183	0x3deb4ca0	0.114892244
184	0xbec3fa9c	-0.38277137
185	0x3f918151	1.1367589
186	0x3d832571	0.06403626
187	0x3e9f8ee6	0.3116371
188	0xbf4e8910	-0.8067789
189	0xbe9de755	-0.30840555
190	0xbdf3a1ef	-0.11896121
191	0xbda81f2f	-0.08209073
192	0x3ec32d46	0.38120478
193	0x3d21bc33	0.03948612
194	0x3cdd4c81	0.027014019
195	0x3e37fbb4	0.17967111
196	0x3e1bb92c	0.15207356
197	0xbd9036c9	-0.070416994
198	0x3ea03673	0.3129154
199	0xbd8689d9	-0.06569261
200	0xbd488b99	-0.048961256
201	0x3ebc6f70	0.3680377
202	0x3e831164	0.25599205
203	0xbd17f6ef	-0.03710073
204	0xbba57f2d	-0.005050561
205	0xbc055fe9	-0.008140543
206	0x3cf6ecf5	0.030142287
207	0x3e6c9258	0.231027
208	0x3d6eee41	0.058332685
209	0xbc451c8d	-0.012030733
210	0xbe02cda0	-0.12773752
211	0x3dee3d73	0.11632814
212	0x3d2788ac	0.040901825
213	0x3d3c1049	0.04591397
214	0x3d6e8fb1	0.058242504
215	0xbd69c9ef	-0.057077345
216	0xbb1797b5	-0.0023131196
217	0xbcd4d726	-0.025981497
218	0x3d08a664	0.033361807
219	0xbd1cb337	-0.03825685
220	0x3cbfa0ca	0.0233921
221	0x3d7fc727	0.062445786
222	0xbd8cf7f0	-0.06883228
223	0x3e58ff22	0.21191075
224	0x3b2d9fa3	0.0026492856
225	0x3d4923c7	0.049106386
226	0xbe001f0b	-0.12511842
227	0xbde9f020	-0.11422753
228	0xbc2ac027	-0.010421789
229	0x3e5d468d	0.21608944
230	0x3e6c18d1	0.23056342
231	0x3e862569	0.26200417
232	0xbdaea7f2	-0.08528127
233	0xbe07047e	-0.13185307
234	0x3eec8ff6	0.46203583
235	0xbe87f90f	-0.26557204
236	0xbf63a195	-0.8891843
237	0x3ef8c5dd	0.48588458
238	0x3ed60132	0.41797787
239	0x3f713762	0.9422513
240	0x3f0f5d23	0.5600149
241	0xbf7140fb	-0.9423978
242	0xbe9d39ef	-0.30708262
243	0x3eb12a55	0.3460261
244	0x3ee6bd73	0.45066413
245	0x3ea1d477	0.3160741
246	0x3decb6b6	0.11558287
247	0xbec420bd	-0.38306227
248	0x3f916bfa	1.1361077
249	0x3d8558a7	0.0651105
250	0x3e9fa790	0.31182528
251	0xbf4e3fe4	-0.8056624
252	0xbe9ced0a	-0.30649596
253	0xbdf16b72	-0.11788072
254	0xbda7dfde	-0.08196996
255	0x3ec3750b	0.38175234

betas f4 [25, 10]
0	0x3f3c85e1	0.73641783
1	0x3fa79ad3	1.3094124
2	0x3ee2ffa8	0.44335675
3	0xbdafb799	-0.0857994
4	0xbf48dd7f	-0.78462976
5	0x3e2de840	0.16983128
6	0xbef6cc6e	-0.48202842
7	0xbe000f6a	-0.1250588
8	0xbf0d9f6f	-0.553214
9	0x3efd67b0	0.4949317
10	0x3f3c85e1	0.73641783
11	0x3fa79ad3	1.3094124
12	0x3ee2ffa8	0.44335675
13	0xbdafb799	-0.0857994
14	0xbf48dd7f	-0.78462976
15	0x3e2de840	0.16983128
16	0xbef6cc6e	-0.48202842
17	0xbe000f6a	-0.1250588
18	0xbf0d9f6f	-0.553214
19	0x3efd67b0	0.4949317
20	0x3f3c85e1	0.73641783
21	0x3fa79ad3	1.3094124
22	0x3ee2ffa8	0.44335675
23	0xbdafb799	-0.0857994
24	0xbf48dd7f	-0.78462976
25	0x3e2de840	0.16983128
26	0xbef6cc6e	-0.48202842
27	0xbe000f6a	-0.1250588
28	0xbf0d9f6f	-0.553214
29	0x3efd67b0	0.4949317
30	0x3f3c85e1	0.73641783
31	0x3fa79ad3	1.3094124
32	0x3ee2ffa8	0.44335675
33	0xbdafb799	-0.0857994
34	0xbf48dd7f	-0.78462976
35	0x3e2de840	0.16983128
36	0xbef6cc6e	-0.48202842
37	0xbe000f6a	-0.1250588
38	0xbf0d9f6f	-0.553214
39	0x3efd67b0	0.4949317
40	0x3f3c85e1	0.73641783
41	0x3fa79ad3	1.3094124
42	0x3ee2ffa8	0.44335675
43	0xbdafb799	-0.0857994
44	0xbf48dd7f	-0.78462976
45	0x3e2de840	0.16983128
46	0xbef6cc6e	-0.48202842
47	0xbe000f6a	-0.1250588
48	0xbf0d9f6f	-0.553214
49	0x3efd67b0	0.4949317
50	0x3f3c85e1	0.73641783
51	0x3fa79ad3	1.3094124
52	0x3ee2ffa8	0.44335675
53	0xbdafb799	-0.0857994
54	0xbf48dd7f	-0.78462976
55	0x3e2de840	0.16983128
56	0xbef6cc6e	-0.48202842
57	0xbe000f6a	-0.1250588
58	0xbf0d9f6f	-0.553214
59	0x3efd67b0	0.4949317
60	0x3f3c85e1	0.73641783
61	0x3fa79ad3	1.3094124
62	0x3ee2ffa8	0.44335675
63	0xbdafb799	-0.0857994
64	0xbf48dd7f	-0.78462976
65	0x3e2de840	0.16983128
66	0xbef6cc6e	-0.48202842
67	0xbe000f6a	-0.1250588
68	0xbf0d9f6f	-0.553214
69	0x3efd67b0	0.4949317
70	0x3f3c85e1	0.73641783
71	0x3fa79ad3	1.3094124
72	0x3ee2ffa8	0.44335675
73	0xbdafb799	-0.0857994
74	0xbf48dd7f	-0.78462976
75	0x3e2de840	0.16983128
76	0xbef6cc6e	-0.48202842
77	0xbe000f6a	-0.1250588
78	0xbf0d9f6f	-0.553214
79	0x3efd67b0	0.4949317
80	0x3f3c85e1	0.73641783
81	0x3fa79ad3	1.3094124
82	0x3ee2ffa8	0.44335675
83	0xbdafb799	-0.0857994
84	0xbf48dd7f	-0.78462976
85	0x3e2de840	0.16983128
86	0xbef6cc6e	-0.48202842
87	0xbe000f6a	-0.1250588
88	0xbf0d9f6f	-0.553214
89	0x3efd67b0	0.4949317
90	0x3f3c85e1	0.73641783
91	0x3fa79ad3	1.3094124
92	0x3ee2ffa8	0.44335675
93	0xbdafb799	-0.0857994
94	0xbf48dd7f	-0.78462976
95	0x3e2de840	0.16983128
96	0xbef6cc6e	-0.48202842
97	0xbe000f6a	-0.1250588
98	0xbf0d9f6f	-0.553214
99	0x3efd67b0	0.4949317
100	0x3f3c85e1	0.73641783
101	0x3fa79ad3	1.3094124
102	0x3ee2ffa8	0.44335675
103	0xbdafb799	-0.0857994
104	0xbf48dd7f	-0.78462976
105	0x3e2de840	0.16983128
106	0xbef6cc6e	-0.48202842
107	0xbe000f6a	-0.1250588
108	0xbf0d9f6f	-0.553214
109	0x3efd67b0	0.4949317
110	0x3f3c85e1	0.73641783
111	0x3fa79ad3	1.3094124
112	0x3ee2ffa8	0.44335675
113	0xbdafb799	-0.0857994
114	0xbf48dd7f	-0.78462976
115	0x3e2de840	0.16983128
116	0xbef6cc6e	-0.48202842
117	0xbe000f6a	-0.1250588
118	0xbf0d9f6f	-0.553214
119	0x3efd67b0	0.4949317
120	0x3f3c85e1	0.73641783
121	0x3fa79ad3	1.3094124
122	0x3ee2ffa8	0.44335675
123	0xbdafb799	-0.0857994
124	0xbf48dd7f	-0.78462976
125	0x3e2de840	0.16983128
126	0xbef6cc6e	-0.48202842
127	0xbe000f6a	-0.1250588
128	0xbf0d9f6f	-0.553214
129	0x3efd67b0	0.4949317
130	0x3f3c85e1	0.73641783
131	0x3fa79ad3	1.3094124
132	0x3ee2ffa8	0.44335675
133	0xbdafb799	-0.0857994
134	0xbf48dd7f	-0.78462976
135	0x3e2de840	0.16983128
136	0xbef6cc6e	-0.48202842
137	0xbe000f6a	-0.1250588
138	0xbf0d9f6f	-0.553214
139	0x3efd67b0	0.4949317
140	0x3f3c85e1	0.73641783
141	0x3fa79ad3	1.3094124
142	0x3ee2ffa8	0.44335675
143	0xbdafb799	-0.0857994
144	0xbf48dd7f	-0.78462976
145	0x3e2de840	0.16983128
146	0xbef6cc6e	-0.48202842
147	0xbe000f6a	-0.1250588
148	0xbf0d9f6f	-0.553214
149	0x3efd67b0	0.4949317
150	0x3f3c85e1	0.73641783
151	0x3fa79ad3	1.3094124
152	0x3ee2ffa8	0.44335675
153	0xbdafb799	-0.0857994
154	0xbf48dd7f	-0.78462976
155	0x3e2de840	0.16983128
156	0xbef6cc6e	-0.48202842
157	0xbe000f6a	-0.1250588
158	0xbf0d9f6f	-0.553214
159	0x3efd67b0	0.4949317
160	0x3f3c85e1	0.73641783
161	0x3fa79ad3	1.3094124
162	0x3ee2ffa8	0.44335675
163	0xbdafb799	-0.0857994
164	0xbf48dd7f	-0.78462976
165	0x3e2de840	0.16983128
166	0xbef6cc6e	-0.48202842
167	0xbe000f6a	-0.1250588
168	0xbf0d9f6f	-0.553214
169	0x3efd67b0	0.4949317
170	0x3f3c85e1	0.73641783
171	0x3fa79ad3	1.3094124
172	0x3ee2ffa8	0.44335675
173	0xbdafb799	-0.0857994
174	0xbf48dd7f	-0.78462976
175	0x3e2de840	0.16983128
176	0xbef6cc6e	-0.48202842
177	0xbe000f6a	-0.1250588
178	0xbf0d9f6f	-0.553214
179	0x3efd67b0	0.4949317
180	0x3f3c85e1	0.73641783
181	0x3fa79ad3	1.3094124
182	0x3ee2ffa8	0.44335675
183	0xbdafb799	-0.0857994
184	0xbf48dd7f	-0.78462976
185	0x3e2de840	0.16983128
186	0xbef6cc6e	-0.48202842
187	0xbe000f6a	-0.1250588
188	0xbf0d9f6f	-0.553214
189	0x3efd67b0	0.4949317
190	0x3f3c85e1	0.73641783
191	0x3fa79ad3	1.3094124
192	0x3ee2ffa8	0.44335675
193	0xbdafb799	-0.0857994
194	0xbf48dd7f	-0.78462976
195	0x3e2de840	0.16983128
196	0xbef6cc6e	-0.48202842
197	0xbe000f6a	-0.1250588
198	0xbf0d9f6f	-0.553214
199	0x3efd67b0	0.4949317
200	0x3f3c85e1	0.73641783
201	0x3fa79ad3	1.3094124
202	0x3ee2ffa8	0.44335675
203	0xbdafb799	-0.0857994
204	0xbf48dd7f	-0.78462976
205	0x3e2de840	0.16983128
206	0xbef6cc6e	-0.48202842
207	0xbe000f6a	-0.1250588
208	0xbf0d9f6f	-0.553214
209	0x3efd67b0	0.4949317
210	0x3f3c85e1	0.73641783
211	0x3fa79ad3	1.3094124
212	0x3ee2ffa8	0.44335675
213	0xbdafb799	-0.0857994
214	0xbf48dd7f	-0.78462976
215	0x3e2de840	0.16983128
216	0xbef6cc6e	-0.48202842
217	0xbe000f6a	-0.1250588
218	0xbf0d9f6f	-0.553214
219	0x3efd67b0	0.4949317
220	0x3f3c85e1	0.73641783
221	0x3fa79ad3	1.3094124
222	0x3ee2ffa8	0.44335675
223	0xbdafb799	-0.0857994
224	0xbf48dd7f	-0.78462976
225	0x3e2de840	0.16983128
226	0xbef6cc6e	-0.48202842
227	0xbe000f6a	-0.1250588
228	0xbf0d9f6f	-0.553214
229	0x3efd67b0	0.4949317
230	0x3f3c85e1	0.73641783
231	0x3fa79ad3	1.3094124
232	0x3ee2ffa8	0.44335675
233	0xbdafb799	-0.0857994
234	0xbf48dd7f	-0.78462976
235	0x3e2de840	0.16983128
236	0xbef6cc6e	-0.48202842
237	0xbe000f6a	-0.1250588
238	0xbf0d9f6f	-0.553214
239	0x3efd67b0	0.4949317
240	0x3f3c85e1	0.73641783
241	0x3fa79ad3	1.3094124
242	0x3ee2ffa8	0.44335675
243	0xbdafb799	-0.0857994
244	0xbf48dd7f	-0.78462976
245	0x3e2de840	0.16983128
246	0xbef6cc6e	-0.48202842
247	0xbe000f6a	-0.1250588
248	0xbf0d9f6f	-0.553214
249	0x3efd67b0	0.4949317

global_orient f4 [25, 3]
0	0xc0484c2e	-3.1296496
1	0x3d3bb5d5	0.045827705
2	0x3db7604a	0.089539126
3	0xc04852a8	-3.130045
4	0x3d3a92ca	0.045550145
5	0x3db818ca	0.08989103
6	0xc048601f	-3.1308668
7	0x3d3a9374	0.04555078
8	0x3db8216e	0.08990751
9	0xc0486a7a	-3.1314988
10	0x3d380ee8	0.04493609
11	0x3db93350	0.0904299
12	0xc0486f1f	-3.1317823
13	0x3d35918f	0.04432827
14	0x3db8470b	0.08997925
15	0xc0487500	-3.132141
16	0x3d33db8a	0.04391054
17	0x3db847dd	0.08998082
18	0xc04875c4	-3.1321878
19	0x3d3118c9	0.043236528
20	0x3db7e1b8	0.08978599
21	0xc04877bd	-3.1323082
22	0x3d2ea929	0.042641792
23	0x3db7612f	0.08954083
24	0xc04875ce	-3.1321902
25	0x3d2d1f5d	0.04226624
26	0x3db82018	0.089904964
27	0xc04875e3	-3.1321952
28	0x3d2c2184	0.04202415
29	0x3db7b0a8	0.089692414
30	0xc048790c	-3.132388
31	0x3d2ba296	0.0419031
32	0x3db738e2	0.089463964
33	0xc04877f0	-3.1323204
34	0x3d2ab91c	0.04168044
35	0x3db6f338	0.08933109
36	0xc0487a96	-3.132482
37	0x3d2a53ad	0.041583706
38	0x3db6b53b	0.08921286
39	0xc0487cbd	-3.1326134
40	0x3d296f4d	0.04136591
41	0x3db65042	0.08902027
42	0xc0487fd1	-3.1328013
43	0x3d298dd2	0.041395016
44	0x3db656e2	0.0890329
45	0xc0488084	-3.132844
46	0x3d28c4c8	0.04120329
47	0x3db6a238	0.089176595
48	0xc04881a5	-3.1329129
49	0x3d294534	0.041325763
50	0x3db65d29	0.08904488
51	0xc0488118	-3.1328793
52	0x3d291516	0.041279875
53	0x3db6aa44	0.08919194
54	0xc0487f62	-3.1327748
55	0x3d28e123	0.041230332
56	0x3db6c98e	0.08925162
57	0xc0487e08	-3.1326923
58	0x3d28742d	0.04112642
59	0x3db6dc17	0.089286976
60	0xc0487fa7	-3.1327913
61	0x3d285b29	0.041102562
62	0x3db691fe	0.089145645
63	0xc0487fbb	-3.132796
64	0x3d2836ce	0.04106789
65	0x3db64c6c	0.08901295
66	0xc04880d6	-3.1328635
67	0x3d2882b7	0.041140284
68	0x3db63d5e	0.088984236
69	0xc04881cd	-3.1329224
70	0x3d2862c4	0.041109815
71	0x3db5f095	0.08883778
72	0xc0488116	-3.1328788
73	0x3d280218	0.04101762
74	0x3db61db9	0.08892388

transl f4 [25, 3]
0	0xbed6152e	-0.41813034
1	0x3e5a7719	0.21334495
2	0x40285c52	2.6306348
3	0xbed5fdb3	-0.4179512
4	0x3e5b25b8	0.21401107
5	0x40283747	2.6283739
6	0xbed5e733	-0.41777954
7	0x3e5bd867	0.2146927
8	0x40281a76	2.626615
9	0xbed5d910	-0.41767168
10	0x3e5c32d8	0.2150377
11	0x40280796	2.625463
12	0xbed5bff0	-0.41748
13	0x3e5c987f	0.21542548
14	0x4027f155	2.6241047
15	0xbed5b152	-0.41736847
16	0x3e5c95b9	0.2154149
17	0x4027ee69	2.6239264
18	0xbed5b3ea	-0.41738826
19	0x3e5c9448	0.2154094
20	0x4027f011	2.6240275
21	0xbed5bdea	-0.41746455
22	0x3e5c6353	0.21522264
23	0x4027f7e9	2.6245062
24	0xbed5c53f	-0.4175205
25	0x3e5c2c28	0.2150122
26	0x40280175	2.625089
27	0xbed5c484	-0.41751492
28	0x3e5c3188	0.2150327
29	0x402801c5	2.625108
30	0xbed5c5d0	-0.4175248
31	0x3e5c2860	0.21499777
32	0x4028025b	2.6251438
33	0xbed5c942	-0.4175511
34	0x3e5c12ec	0.21491593
35	0x402807ad	2.6254685
36	0xbed5c411	-0.4175115
37	0x3e5c0e18	0.21489751
38	0x4028099c	2.6255865
39	0xbed5cf77	-0.41759846
40	0x3e5c019e	0.21484992
41	0x40280da2	2.625832
42	0xbed5cc32	-0.4175735
43	0x3e5bfe0f	0.21483634
44	0x40280d7e	2.6258235
45	0xbed5d28c	-0.41762197
46	0x3e5bed94	0.21477348
47	0x402811c7	2.626085
48	0xbed5d274	-0.41762125
49	0x3e5bf206	0.21479043
50	0x40281150	2.6260567
51	0xbed5d473	-0.41763648
52	0x3e5be5e4	0.21474415
53	0x402813f6	2.6262183
54	0xbed5db1a	-0.41768724
55	0x3e5bdb0e	0.21470281
56	0x40281588	2.6263142
57	0xbed5defd	-0.4177169
58	0x3e5bc83e	0.21463105
59	0x40281a8d	2.6266205
60	0xbed5e4e1	-0.41776183
61	0x3e5bc418	0.21461523
62	0x40281b3c	2.6266623
63	0xbed5e6cc	-0.41777647
64	0x3e5bbf08	0.21459591
65	0x40281b5b	2.6266696
66	0xbed5e72f	-0.41777942
67	0x3e5bbe8d	0.21459408
68	0x40281ba7	2.6266878
69	0xbed5e2c2	-0.41774565
70	0x3e5bbcba	0.21458712
71	0x40281cc3	2.6267555
72	0xbed5ec6b	-0.41781935
73	0x3e5bb614	0.21456176
74	0x40281d58	2.626791

K_fullimg f4 [25, 3, 3]
0	0x44d75353	1722.6039
1	0x00000000	0.0
2	0x44070000	540.0
3	0x00000000	0.0
4	0x44d75353	1722.6039
5	0x4427c000	671.0
6	0x00000000	0.0
7	0x00000000	0.0
8	0x3f800000	1.0
9	0x44d75353	1722.6039
10	0x00000000	0.0
11	0x44070000	540.0
12	0x00000000	0.0
13	0x44d75353	1722.6039
14	0x4427c000	671.0
15	0x00000000	0.0
16	0x00000000	0.0
17	0x3f800000	1.0
18	0x44d75353	1722.6039
19	0x00000000	0.0
20	0x44070000	540.0
21	0x00000000	0.0
22	0x44d75353	1722.6039
23	0x4427c000	671.0
24	0x00000000	0.0
25	0x00000000	0.0
26	0x3f800000	1.0
27	0x44d75353	1722.6039
28	0x00000000	0.0
29	0x44070000	540.0
30	0x00000000	0.0
31	0x44d75353	1722.6039
32	0x4427c000	671.0
33	0x00000000	0.0
34	0x00000000	0.0
35	0x3f800000	1.0
36	0x44d75353	1722.6039
37	0x00000000	0.0
38	0x44070000	540.0
39	0x00000000	0.0
40	0x44d75353	1722.6039
41	0x4427c000	671.0
42	0x00000000	0.0
43	0x00000000	0.0
44	0x3f800000	1.0
45	0x44d75353	1722.6039
46	0x00000000	0.0
47	0x44070000	540.0
48	0x00000000	0.0
49	0x44d75353	1722.6039
50	0x4427c000	671.0
51	0x00000000	0.0
52	0x00000000	0.0
53	0x3f800000	1.0
54	0x44d75353	1722.6039
55	0x00000000	0.0
56	0x44070000	540.0
57	0x00000000	0.0
58	0x44d75353	1722.6039
59	0x4427c000	671.0
60	0x00000000	0.0
61	0x00000000	0.0
62	0x3f800000	1.0
63	0x44d75353	1722.6039
64	0x00000000	0.0
65	0x44070000	540.0
66	0x00000000	0.0
67	0x44d75353	1722.6039
68	0x4427c000	671.0
69	0x00000000	0.0
70	0x00000000	0.0
71	0x3f800000	1.0
72	0x44d75353	1722.6039
73	0x00000000	0.0
74	0x44070000	540.0
75	0x00000000	0.0
76	0x44d75353	1722.6039
77	0x4427c000	671.0
78	0x00000000	0.0
79	0x00000000	0.0
80	0x3f800000	1.0
81	0x44d75353	1722.6039
82	0x00000000	0.0
83	0x44070000	540.0
84	0x00000000	0.0
85	0x44d75353	1722.6039
86	0x4427c000	671.0
87	0x00000000	0.0
88	0x00000000	0.0
89	0x3f800000	1.0
90	0x44d75353	1722.6039
91	0x00000000	0.0
92	0x44070000	540.0
93	0x00000000	0.0
94	0x44d75353	1722.6039
95	0x4427c000	671.0
96	0x00000000	0.0
97	0x00000000	0.0
98	0x3f800000	1.0
99	0x44d75353	1722.6039
100	0x00000000	0.0
101	0x44070000	540.0
102	0x00000000	0.0
103	0x44d75353	1722.6039
104	0x4427c000	671.0
105	0x00000000	0.0
106	0x00000000	0.0
107	0x3f800000	1.0
108	0x44d75353	1722.6039
109	0x00000000	0.0
110	0x44070000	540.0
111	0x00000000	0.0
112	0x44d75353	1722.6039
113	0x4427c000	671.0
114	0x00000000	0.0
115	0x00000000	0.0
116	0x3f800000	1.0
117	0x44d75353	1722.6039
118	0x00000000	0.0
119	0x44070000	540.0
120	0x00000000	0.0
121	0x44d75353	1722.6039
122	0x4427c000	671.0
123	0x00000000	0.0
124	0x00000000	0.0
125	0x3f800000	1.0
126	0x44d75353	1722.6039
127	0x00000000	0.0
128	0x44070000	540.0
129	0x00000000	0.0
130	0x44d75353	1722.6039
131	0x4427c000	671.0
132	0x00000000	0.0
133	0x00000000	0.0
134	0x3f800000	1.0
135	0x44d75353	1722.6039
136	0x00000000	0.0
137	0x44070000	540.0
138	0x00000000	0.0
139	0x44d75353	1722.6039
140	0x4427c000	671.0
141	0x00000000	0.0
142	0x00000000	0.0
143	0x3f800000	1.0
144	0x44d75353	1722.6039
145	0x00000000	0.0
146	0x44070000	540.0
147	0x00000000	0.0
148	0x44d75353	1722.6039
149	0x4427c000	671.0
150	0x00000000	0.0
151	0x00000000	0.0
152	0x3f800000	1.0
153	0x44d75353	1722.6039
154	0x00000000	0.0
155	0x44070000	540.0
156	0x00000000	0.0
157	0x44d75353	1722.6039
158	0x4427c000	671.0
159	0x00000000	0.0
160	0x00000000	0.0
161	0x3f800000	1.0
162	0x44d75353	1722.6039
163	0x00000000	0.0
164	0x44070000	540.0
165	0x00000000	0.0
166	0x44d75353	1722.6039
167	0x4427c000	671.0
168	0x00000000	0.0
169	0x00000000	0.0
170	0x3f800000	1.0
171	0x44d75353	1722.6039
172	0x00000000	0.0
173	0x44070000	540.0
174	0x00000000	0.0
175	0x44d75353	1722.6039
176	0x4427c000	671.0
177	0x00000000	0.0
178	0x00000000	0.0
179	0x3f800000	1.0
180	0x44d75353	1722.6039
181	0x00000000	0.0
182	0x44070000	540.0
183	0x00000000	0.0
184	0x44d75353	1722.6039
185	0x4427c000	671.0
186	0x00000000	0.0
187	0x00000000	0.0
188	0x3f800000	1.0
189	0x44d75353	1722.6039
190	0x00000000	0.0
191	0x44070000	540.0
192	0x00000000	0.0
193	0x44d75353	1722.6039
194	0x4427c000	671.0
195	0x00000000	0.0
196	0x00000000	0.0
197	0x3f800000	1.0
198	0x44d75353	1722.6039
199	0x00000000	0.0
200	0x44070000	540.0
201	0x00000000	0.0
202	0x44d75353	1722.6039
203	0x4427c000	671.0
204	0x00000000	0.0
205	0x00000000	0.0
206	0x3f800000	1.0
207	0x44d75353	1722.6039
208	0x00000000	0.0
209	0x44070000	540.0
210	0x00000000	0.0
211	0x44d75353	1722.6039
212	0x4427c000	671.0
213	0x00000000	0.0
214	0x00000000	0.0
215	0x3f800000	1.0
216	0x44d75353	1722.6039
217	0x00000000	0.0
218	0x44070000	540.0
219	0x00000000	0.0
220	0x44d75353	1722.6039
221	0x4427c000	671.0
222	0x00000000	0.0
223	0x00000000	0.0
224	0x3f800000	1.0

pred_context f4 [1, 25, 512]
0	0xbec8e661	-0.39238265
1	0x3e8c6f0f	0.2742848
2	0xbf5659d9	-0.83730847
3	0xbea6e9db	-0.32600293
4	0x3fb15090	1.3852711
5	0x3f02fff8	0.5117183
6	0xbf7a7be0	-0.9784527
7	0x3f27316a	0.65309775
8	0xbf36546d	-0.71222574
9	0xbfe4fef3	-1.7890304
10	0x3f1e05e1	0.6172772
11	0xbf599378	-0.84990644
12	0x3f91f367	1.1402406
13	0xbe81e146	-0.25367182
14	0x3caf28e7	0.021381808
15	0x3f84d090	1.0376148
16	0xc00c9496	-2.196569
17	0xbe870320	-0.26369572
18	0x3edadbc3	0.4274579
19	0x3e6337cf	0.22189258
20	0xc072676e	-3.7875628
21	0xbef643d4	-0.48098624
22	0xbf445ebc	-0.76707053
23	0xbf5c74b4	-0.86115575
24	0xbfe67bdc	-1.8006549
25	0xbfc68a53	-1.5510963
26	0xbe749596	-0.23885188
27	0x3eb06849	0.34454563
28	0x3e9def59	0.3084667
29	0x3f24be3e	0.64352787
30	0xbf5883ae	-0.8457593
31	0x3ed4c9f9	0.41560343
32	0x3e9c4e18	0.3052833
33	0xbf75bdae	-0.95992553
34	0x3f64eda6	0.8942512
35	0xbe134718	-0.14382589
36	0x3e977d76	0.29587907
37	0xbe1cb432	-0.15303114
38	0xbfbe54c4	-1.4869618
39	0xbee9c24f	-0.45656058
40	0xbf6bb5d4	-0.9207432
41	0x3f580361	0.84380156
42	0xbdcf06b5	-0.10108701
43	0xbdfd006f	-0.12353598
44	0xbf00e206	-0.50344884
45	0xbf5bc4aa	-0.8584696
46	0x3f9804ae	1.1876428
47	0xbfd4051c	-1.6564059
48	0x3ecdf527	0.402261
49	0xbf2075af	-0.6267957
50	0x3e5d1a50	0.21592069
51	0x3f0295df	0.51009935
52	0x3e36c106	0.1784707
53	0x3c82f5c4	0.01598633
54	0xbe948a28	-0.29011655
55	0xbe4b79ee	-0.19870731
56	0xbedd68a0	-0.43243885
57	0xbf0ec996	-0.55776346
58	0x3ec3d07e	0.38245004
59	0x3fb7d985	1.4363257
60	0xbf2d5175	-0.6770242
61	0xc00f5ec8	-2.24016
62	0x4077ca0f	3.8717077
63	0x3f527745	0.8221324
64	0x3fa8a607	1.3175668
65	0x3d37ed62	0.04490412
66	0xbe7a79a3	-0.24460463
67	0x3ec48930	0.38385916
68	0x3e2ac2e2	0.16675904
69	0x3f8f83ae	1.121206
70	0xbd56c9a1	-0.052438382
71	0xbede85f5	-0.43461576
72	0x3f5a2720	0.8521595
73	0xbf77f3f6	-0.9685663
74	0x3f377989	0.7166982
75	0xbf012a73	-0.504554
76	0x3fcc0663	1.5939449
77	0xbf7cb880	-0.98719025
78	0xbf2661c4	-0.6499293
79	0xbf74c5a4	-0.95614076
80	0x3fb1f3e1	1.3902551
81	0xbf25bd1a	-0.6474167
82	0xbf21abfc	-0.6315305
83	0x3e70efb7	0.23528944
84	0xbef5d8d8	-0.48017
85	0xbfd64894	-1.6740899
86	0xbe99386a	-0.29925853
87	0x3e7795b2	0.24178198
88	0x3fbdce61	1.4828607
89	0x3f2645fb	0.6495053
90	0xc004196d	-2.0640519
91	0x3fde2a05	1.7356573
92	0xbef657ac	-0.48113763
93	0x3f968f44	1.1762471
94	0xbf1d04e8	-0.6133561
95	0xbef4aed3	-0.4778963
96	0xbf74b409	-0.9558721
97	0x40154215	2.3321583
98	0xbfb55358	-1.416606
99	0xbf597e00	-0.84957886
100	0x400f9926	2.2437224
101	0x3f8b982c	1.0905814
102	0xbfad345a	-1.3531601
103	0x3ecab719	0.39592817
104	0xbf69bc79	-0.9130321
105	0xbf347168	-0.70485544
106	0xbf27471b	-0.65342873
107	0x3e44f6e7	0.19234811
108	0xbf55c41a	-0.8350235
109	0x3f1b2e80	0.6061783
110	0xbe28e903	-0.16495137
111	0xbf0e12c7	-0.554974
112	0x3e924d5c	0.28574646
113	0xbfce7fbf	-1.6132735
114	0xbd287ec0	-0.041136503
115	0x3ef9b69f	0.4877214
116	0xbf9a2f44	-1.2045674
117	0xbeacbf72	-0.3373981
118	0x3f47f1a3	0.78103083
119	0xbec624ff	-0.387001
120	0x3f9f344c	1.2437835
121	0x3dc45f09	0.09588439
122	0x3edd7cdc	0.43259323
123	0xbeef669e	-0.46757978
124	0xbf111b87	-0.5668263
125	0x3f340921	0.7032643
126	0xbddadf7b	-0.10687157
127	0xbf18db98	-0.59710073
128	0xc0209b0a	-2.5094628
129	0x3f2efc92	0.6835414
130	0xbe3484ad	-0.17628737
131	0x3c3e4120	0.011612207
132	0x3f707ab4	0.9393723
133	0xbf822390	-1.0167103
134	0xbe64ce62	-0.22344354
135	0x3f9f83e9	1.2462131
136	0xbff63fb8	-1.9238195
137	0x3f5f52f3	0.87235945
138	0xc0175e0e	-2.3651156
139	0x3ffad728	1.959691
140	0x3e918420	0.28421116
141	0x3f1041b4	0.56350255
142	0xbff83ab2	-1.9392912
143	0xbfffb86e	-1.9978158
144	0x3f4bc3f3	0.7959587
145	0xbe8faca3	-0.280614
146	0x3ed3af1d	0.41344538
147	0xbf36c5a9	-0.71395355
148	0x3f2e85e6	0.6817306
149	0xc03fb49e	-2.995399
150	0x3e903d42	0.28171736
151	0x3e8828e6	0.26593703
152	0xbf6439c8	-0.8915067
153	0xbe0b8d03	-0.1362801
154	0xbf2f6f35	-0.68529063
155	0xbf923418	-1.1422148
156	0xbd97685c	-0.07392952
157	0x3f27a79f	0.65490144
158	0x3c9052d4	0.01761762
159	0xbf1f5500	-0.62239075
160	0xc00dcca2	-2.2156148
161	0x3e3c19ea	0.1836926
162	0xbde70375	-0.11279956
163	0xbf6874ca	-0.90803206
164	0x3eb872a6	0.3602497
165	0xbece886a	-0.4033845
166	0xbfa51952	-1.2898352
167	0xbf03079c	-0.51183486
168	0xbf3cdf63	-0.7377836
169	0x3f90aaf5	1.1302172
170	0xbe9f721d	-0.3114175
171	0x3f916687	1.1359414
172	0x3ce812d0	0.028329283
173	0xc01e7ef2	-2.4764981
174	0x3f7466ff	0.9546966
175	0xbecba93f	-0.39777562
176	0x3b2e918c	0.0026637046
177	0xbf53c077	-0.82715553
178	0x3ed2d9c1	0.41181758
179	0x3f722403	0.945862
180	0x3e4326b8	0.19057739
181	0x3e3f9469	0.18708958
182	0xbf9ad32a	-1.2095692
183	0xbe280696	-0.16408762
184	0xbf6e11d5	-0.9299596
185	0x3d30e53c	0.043187365
186	0x3e482ced	0.19548388
187	0x3ffdda3e	1.9832227
188	0xbe7a267b	-0.24428742
189	0x3e90dcea	0.28293544
190	0x3e987de1	0.29783538
191	0x3f00d8bd	0.50330716
192	0xbf283932	-0.65712273
193	0xbf8b0fc9	-1.0864192
194	0xbdb32517	-0.08747309
195	0x3e9dc993	0.3081785
196	0xbfa1ab82	-1.2630465
197	0xbd328c21	-0.04359067
198	0xbdcc7be6	-0.09984569
199	0xbdb14dc1	-0.086574085
200	0xbf1bf9a5	-0.609278
201	0x3f9a046b	1.2032598
202	0xbd6eb885	-0.05828144
203	0x3e753a96	0.2394813
204	0x3e6dcf5c	0.23223633
205	0x3e3843e5	0.1799465
206	0x3faf22fb	1.368255
207	0xbd4d2002	-0.050079353
208	0xbf7bfd40	-0.98433304
209	0x3e9a0f29	0.3008969
210	0x3f68323e	0.90701663
211	0x3d75824e	0.05993872
212	0x3eace6cb	0.3376983
213	0xbef7f202	-0.48426825
214	0x3ebd58c0	0.36981773
215	0x3e33f1c0	0.17572689
216	0xbf71e0db	-0.9448373
217	0x3f3ebd10	0.74507236
218	0x3fd9426a	1.6973393
219	0xc059b21b	-3.4014957
220	0x3d77c564	0.06049098
221	0xbeacfe3c	-0.33787715
222	0x40326148	2.7871876
223	0x3faffaee	1.3748453
224	0x3fc75bbe	1.5574872
225	0xbf898987	-1.0745095
226	0xbefee4a0	-0.49783802
227	0xbf039e4c	-0.51413417
228	0x3df6407d	0.12024019
229	0x3e78b6bc	0.24288458
230	0x3d3139cc	0.04326801
231	0xbe421217	-0.18952213
232	0xbf8829bc	-1.0637736
233	0x3f7df365	0.99199516
234	0xbf969997	-1.1765622
235	0xbf8b4ce8	-1.0882845
236	0x3d31429a	0.043276407
237	0x3eca1e8e	0.39476436
238	0x3fb69c51	1.4266454
239	0xbf0ff5e9	-0.56234604
240	0xbef98e46	-0.4874136
241	0x3e7456f0	0.23861289
242	0x3ea3a454	0.3196131
243	0x3e37bc5d	0.17942949
244	0xbdf53a0c	-0.11973962
245	0xbf66279c	-0.8990419
246	0x3c420210	0.011841312
247	0x3fb22866	1.3918579
248	0xbfd1f9ee	-1.6404397
249	0xbf2c39b6	-0.6727556
250	0x3ddb2616	0.10700624
251	0xbc5abde0	-0.013350934
252	0xbfd8bc78	-1.6932516
253	0x3f22af6e	0.63548934
254	0xbfa4d7b4	-1.2878327
255	0xbf80fb38	-1.0076666

pred_x f4 [1, 25, 151]
0	0x3e8a7ef9	0.27049997
1	0x3f91f067	1.140149
2	0xbebc9550	-0.36832666
3	0xbf4498fd	-0.7679594
4	0xbd9e38ee	-0.07725702
5	0x3f0c0ba8	0.54705286
6	0x3eb80016	0.35937566
7	0xbedd4752	-0.43218476
8	0x3e8091cf	0.25111243
9	0x3e9912ab	0.29897055
10	0xbd23b9b4	-0.039972022
11	0xbfc46a91	-1.5345021
12	0xbeb2c1b8	-0.3491342
13	0x3f7efb8c	0.9960258
14	0x3fc056b6	1.5026462
15	0xbf59ede9	-0.8512865
16	0x3e1e9d8c	0.15489787
17	0x3e7feb50	0.24992108
18	0x3e80ecc3	0.25180635
19	0xbdf0cb67	-0.11757546
20	0x3e0f8e63	0.1401916
21	0xbe6eda42	-0.23325446
22	0x3e94543c	0.28970516
23	0xbe2764da	-0.16347066
24	0xbee06ad1	-0.43831494
25	0x3f8a3acf	1.0799197
26	0x3fbd4eb8	1.4789648
27	0x3e6414ca	0.22273555
28	0x3d85a7bb	0.06526133
29	0xbd0ee4dc	-0.034886226
30	0xbc9e1f22	-0.019301955
31	0xbea0a882	-0.3137856
32	0x3f06f135	0.527118
33	0x3eb14302	0.34621435
34	0x3ed3612b	0.4128507
35	0x3d102a7c	0.035196766
36	0x3f1305ca	0.5743071
37	0x3ef6a541	0.48172954
38	0xbf6f9ff5	-0.9360345
39	0x3d87cd2e	0.06630932
40	0xbd77ee9e	-0.060530297
41	0xbfddb9af	-1.7322291
42	0x3efb19a4	0.49043
43	0xbd16c0da	-0.03680501
44	0x3fccf578	1.6012411
45	0x3e4d1cbe	0.20030496
46	0x3e96fd4a	0.2949012
47	0x3c96b79a	0.018398095
48	0xbe8d231a	-0.27565843
49	0x3fcf4682	1.6193392
50	0x3f91ed48	1.1400537
51	0xbfc5faaa	-1.5467122
52	0xbcd590ac	-0.026069961
53	0xbddaf4b1	-0.106912024
54	0x3eee0f88	0.46496224
55	0xbea4ad30	-0.32163382
56	0xbf1fd5ba	-0.62435496
57	0x3f0346a6	0.51279676
58	0x3de9cb64	0.11415747
59	0xbe462e5f	-0.19353627
60	0x3e534186	0.20630464
61	0xbf3d6baf	-0.7399244
62	0x3e96194e	0.2931618
63	0x3f3a4506	0.7276157
64	0x3e1daf71	0.15398957
65	0x3f01ec4f	0.50751203
66	0xbcdc09d9	-0.026860164
67	0xbe9a223b	-0.3010424
68	0x3f93a960	1.1536064
69	0x3e53ac06	0.2067109
70	0x3df6d59e	0.12052463
71	0x3f3a84ac	0.7285869
72	0x3f2e1d80	0.68013763
73	0xbf43aec8	-0.7643857
74	0xbeb8bf40	-0.36083412
75	0x3f2ffec3	0.6874811
76	0x3f5dad96	0.86592996
77	0xbf2fdc61	-0.68695647
78	0x3d953b02	0.072866455
79	0xbd735faa	-0.059417404
80	0x3f056959	0.5211387
81	0x3dfe3b39	0.124136396
82	0x3e1d3383	0.15351681
83	0x3d81882a	0.06324799
84	0xbe2052f6	-0.15656647
85	0x3fc20888	1.5158854
86	0xbf12cfec	-0.57348514
87	0xbfbecc17	-1.4906033
88	0xbf801308	-1.0005808
89	0xbfa698f2	-1.3015425
90	0xbebe4530	-0.3716216
91	0x3df5676b	0.11982616
92	0xbf359edc	-0.70945525
93	0xbf06f958	-0.5272422
94	0xbf67a581	-0.90486914
95	0xbfd81e3d	-1.6884228
96	0xbf66cbf2	-0.90154946
97	0xbe33f066	-0.17572173
98	0x3fa9abf4	1.3255601
99	0x3f0a88c3	0.5411493
100	0xbf999c3f	-1.2000808
101	0xbf95d629	-1.1705981
102	0xbef8c0cf	-0.485846
103	0x3f4789b1	0.77944475
104	0xbf55aed7	-0.8346991
105	0xc044ec22	-3.0769124
106	0xbf854cf8	-1.0414114
107	0xbf14eba0	-0.58172035
108	0x3f215f85	0.63036376
109	0xc011f4ee	-2.2805743
110	0xbe293aa2	-0.16526273
111	0x402716a2	2.6107564
112	0xbf82f885	-1.0232092
113	0xbe9c970b	-0.30583987
114	0xc09177a1	-4.545853
115	0xc053959c	-3.3060064
116	0xbf8a039f	-1.0782355
117	0x404273ce	3.0383182
118	0xc01a3152	-2.4092603
119	0xbf9c1e0b	-1.2196668
120	0xc025cbd2	-2.5905652
121	0x400565f8	2.0843487
122	0x3f991cd4	1.1961923
123	0xbff82e24	-1.9389081
124	0xbfc9209b	-1.5713075
125	0xbf2ffe73	-0.68747634
126	0x3f1283b7	0.5723223
127	0x3fb64db6	1.4242465
128	0x3e0d2bed	0.13786288
129	0x3dade929	0.084917374
130	0x3e8c04e3	0.27347478
131	0x3f930169	1.1484805
132	0xbe6b4c69	-0.22978367
133	0xbed7302a	-0.42028934
134	0xbf8b8a36	-1.0901554
135	0x3e3b5f1f	0.18298005
136	0x3fc0046c	1.500135
137	0xbe351026	-0.17681941
138	0xbdae9ec8	-0.08526379
139	0xbe6db57c	-0.23213762
140	0xbdd5e33a	-0.10443731
141	0x3e8413f7	0.25796482
142	0x3fd26882	1.6438143
143	0xbdd52ff8	-0.1040954
144	0xbde7d0ab	-0.11319097
145	0x3cc4d860	0.024028957
146	0x3e15172d	0.14559622
147	0xbecb4bcd	-0.3970627
148	0xbb3537d0	-0.0027651675
149	0x3da0fad6	0.07860343
150	0xbf119630	-0.5686979
151	0x3e8ae054	0.27124274
152	0x3f92009e	1.1406438
153	0xbebd09be	-0.36921495
154	0xbf448cf0	-0.76777554
155	0xbda11e24	-0.07867077
156	0x3f0c254b	0.54744405
157	0x3eb98fce	0.36242527
158	0xbee10c89	-0.43954876
159	0x3e8181f0	0.25294447
160	0x3e9c52f1	0.3053203
161	0xbd2275ac	-0.039663002
162	0xbfc45158	-1.5337324
163	0xbeb32e9f	-0.34996507
164	0x3f7fabe1	0.9987164
165	0x3fc00910	1.5002766
166	0xbf5a7ca0	-0.8534641
167	0x3e1fcdfe	0.15605924
168	0x3e800c52	0.250094
169	0x3e813e67	0.25242922
170	0xbdf8fbb3	-0.12157383
171	0x3e128a4d	0.1431057
172	0xbe661d22	-0.22472051
173	0x3e9475ad	0.2899603
174	0xbe257534	-0.1615799
175	0xbede8f8f	-0.43468902
176	0x3f8ad70e	1.084688
177	0x3fbd535b	1.4791063
178	0x3e5a501c	0.21319622
179	0x3d845f7b	0.06463524
180	0xbd09c19c	-0.033631906
181	0xbcc112fe	-0.023568626
182	0xbea227e3	-0.31671056
183	0x3f05b00f	0.5222177
184	0x3eb2af9b	0.348996
185	0x3ed2a606	0.4114229
186	0x3d10664c	0.035253808
187	0x3f13243e	0.57477176
188	0x3ef6c0d2	0.48193985
189	0xbf6f29a3	-0.9342291
190	0x3d8e25ea	0.06940825
191	0xbd6c6bec	-0.05772011
192	0xbfde64de	-1.7374532
193	0x3efbfc62	0.4921599
194	0xbd0425a2	-0.032262452
195	0x3fcd0774	1.60179
196	0x3e471511	0.1944163
197	0x3e97acc7	0.29624006
198	0x3c6a0498	0.014283322
199	0xbe8cd141	-0.27503398
200	0x3fcf2fcf	1.6186465
201	0x3f91cce2	1.139065
202	0xbfc5ef64	-1.5463681
203	0xbcda1694	-0.026622094
204	0xbde07321	-0.10959459
205	0x3eee4d7a	0.46543485
206	0xbea2bbca	-0.31783897
207	0xbf1f9562	-0.62337315
208	0x3f0247d6	0.5089086
209	0x3de73cf2	0.11290921
210	0xbe478b7a	-0.194868
211	0x3e4e3766	0.2013832
212	0xbf3f07e1	-0.746214
213	0x3e937988	0.28803658
214	0x3f3bbab4	0.7333176
215	0x3e1a909a	0.15094224
216	0x3f019676	0.5062021
217	0xbcbb44eb	-0.022860011
218	0xbe9a6718	-0.3015678
219	0x3f931b55	1.1492716
220	0x3e551415	0.20808442
221	0x3dfb4b33	0.122702025
222	0x3f3943d0	0.723691
223	0x3f2ef711	0.68345743
224	0xbf44934f	-0.76787275
225	0xbeb7a48d	-0.3586773
226	0x3f30a261	0.6899777
227	0x3f5e4746	0.86827505
228	0xbf31212f	-0.6919126
229	0x3d9da930	0.076982856
230	0xbd5c76e7	-0.05382433
231	0x3f048b78	0.5177531
232	0x3df4b9d9	0.1194951
233	0x3e23d338	0.15998542
234	0x3d73e27e	0.05954217
235	0xbe1ef9aa	-0.15524927
236	0x3fc1394c	1.5095611
237	0xbf12b99d	-0.57314473
238	0xbfbe1758	-1.4850874
239	0xbf803237	-1.0015324
240	0xbfa6df5d	-1.3036915
241	0xbebfb923	-0.37445936
242	0x3df94627	0.121715836
243	0xbf359dca	-0.7094389
244	0xbf075e14	-0.52877927
245	0xbf68edea	-0.9098803
246	0xbfd7f27e	-1.6870878
247	0xbf67bb34	-0.90520024
248	0xbe350f50	-0.17681623
249	0x3fa99557	1.32487
250	0x3f0a9915	0.54139835
251	0xbf9a149d	-1.2037541
252	0xbf958ec2	-1.1684191
253	0xbef84494	-0.4848982
254	0x3f48fad4	0.78507733
255	0xbf547f87	-0.8300709
