inputs/demo/taylor/hmr4d_results.pt (torch, 115775 bytes, 25 tensors)

body_pose f4 [25, 63]
0	0xbe9fb16b	-0.31190047
1	0xbd400f6a	-0.0468897
2	0xbc758916	-0.014986297
3	0x3e60760f	0.21920036
4	0xbe0c5171	-0.13702942
5	0x3e208021	0.15673877
6	0x3db66c9c	0.08907434
7	0x3e0ab8ce	0.1354706
8	0x3bdeb4db	0.006796462
9	0x3e48b861	0.19601585
10	0xbcef7128	-0.029228762
11	0xbd99e3d9	-0.075141616
12	0x3e089db9	0.13341416
13	0xbd250737	-0.040290084
14	0x3dae1f0e	0.08502017
15	0x3d5704de	0.052494876
16	0x3d0afc98	0.0339323
17	0xbd298c4a	-0.041393556
18	0x3cea5302	0.028604034
19	0x3ddcdd15	0.107843556
20	0xbd8eea8a	-0.069783285
21	0xbe902bac	-0.2815832
22	0xbdd9696a	-0.10615809
23	0xbd81364d	-0.06309185
24	0xbd1f3c0a	-0.038875617
25	0x3d415cf7	0.0472078
26	0xbd441fe2	-0.04788197
27	0x3d1ece52	0.03877098
28	0x3c2000a4	0.009765778
29	0x3d8c050f	0.06836902
30	0x3a475f8f	0.0007605487
31	0xbd11db69	-0.035609636
32	0x3da342b5	0.07971708
33	0x3daeef40	0.08541727
34	0x3ea28888	0.3174479
35	0xbe018817	-0.1264957
36	0x3a3ff666	0.0007322788
37	0x3de23601	0.11045457
38	0xbeb188ea	-0.3467477
39	0x3c0fc6c9	0.008775421
40	0xbbce02d7	-0.0062869596
41	0x3e7586ee	0.23977253
42	0x3de218ad	0.11039863
43	0x3e9aa084	0.3020059
44	0xbd4482fc	-0.04797648
45	0x3d89469b	0.0670292
46	0xbe0d6c9a	-0.1381096
47	0xbf5846ad	-0.8448284
48	0x3e8e48fc	0.27790058
49	0x3e1d0079	0.15332212
50	0x3f755d34	0.9584534
51	0x3dcee68e	0.101025686
52	0xbe73a0d0	-0.23791814
53	0x3d6ad667	0.057333376
54	0x3e838b0e	0.25692028
55	0x3ef0f49c	0.47061622
56	0xbd11167c	-0.035421833
57	0xbdd17179	-0.10226721
58	0xbde81e21	-0.11333872
59	0x3ce4c12e	0.027924147
60	0xbdff8a3b	-0.12477537
61	0x3d4bf8f7	0.04979798
62	0x3d82e9ab	0.06392225
63	0xbe9facdd	-0.31186572
64	0xbd40453f	-0.04694104
65	0xbc72d985	-0.0148223685
66	0x3e608115	0.21924241
67	0xbe0c2fd0	-0.13690114
68	0x3e2087c8	0.15676796
69	0x3db64d3b	0.08901449
70	0x3e0ab919	0.13547172
71	0x3bddf06f	0.0067730467
72	0x3e488cf9	0.19585027
73	0xbcf0414a	-0.029328007
74	0xbd99ce16	-0.07510011
75	0x3e087a6d	0.13327952
76	0xbd256ded	-0.040388037
77	0x3dadb2fa	0.08481403
78	0x3d56fa18	0.0524846
79	0x3d0ae930	0.03391379
80	0xbd2979c3	-0.041375887
81	0x3cee6c16	0.029104274
82	0x3dde29a1	0.10847784
83	0xbd8e5e5c	-0.06951591
84	0xbe9008fd	-0.28131858
85	0xbdd85fab	-0.10565122
86	0xbd8084d0	-0.06275332
87	0xbd1f06f7	-0.038825
88	0x3d4168b2	0.047218986
89	0xbd43f500	-0.047841072
90	0x3d1ed429	0.03877655
91	0x3c200b68	0.009768344
92	0x3d8c04d5	0.06836859
93	0x3a4aba4d	0.00077334495
94	0xbd11c74e	-0.035590462
95	0x3da341a3	0.079715036
96	0x3daf0d8a	0.08547504
97	0x3ea274a1	0.31729606
98	0xbe018c14	-0.12651092
99	0x3a52bf63	0.0008039383
100	0x3de3954d	0.11112461
101	0xbeb18db4	-0.34678423
102	0x3c0edb72	0.008719312
103	0xbbc877d6	-0.006117801
104	0x3e75bbad	0.23997374
105	0x3de20726	0.1103652
106	0x3e9a9a25	0.30195728
107	0xbd448252	-0.047975846
108	0x3d89e8c7	0.06733852
109	0xbe0dad11	-0.13835551
110	0xbf584676	-0.84482515
111	0x3e8e57a8	0.2780125
112	0x3e1cb2d4	0.15302593
113	0x3f755103	0.9582674
114	0x3dcf7787	0.1013022
115	0xbe73e84a	-0.2381908
116	0x3d67505f	0.056473132
117	0x3e8397ab	0.2570165
118	0x3ef0f7b7	0.4706399
119	0xbd12c6e0	-0.035834193
120	0xbdd17764	-0.1022785
121	0xbde814e6	-0.11332111
122	0x3ce5dc8a	0.028059263
123	0xbdff1853	-0.12455811
124	0x3d4bf5e1	0.049795035
125	0x3d82aac1	0.06380225
126	0xbe9fa2d7	-0.31178924
127	0xbd3fc530	-0.046818912
128	0xbc75692f	-0.014978691
129	0x3e609533	0.21931915
130	0xbe0b8226	-0.13623866
131	0x3e207d30	0.15672755
132	0x3db61701	0.088911064
133	0x3e0ac1c0	0.13550472
134	0x3bddfeda	0.0067747654
135	0x3e48ba24	0.19602257
136	0xbced8476	-0.028993826
137	0xbd99c643	-0.075085185
138	0x3e081a23	0.1329122
139	0xbd24ce8e	-0.04023605
140	0x3dae3781	0.0850668
141	0x3d57456d	0.052556444
142	0x3d0af706	0.033926986
143	0xbd295073	-0.041336488
144	0x3cf2419f	0.029572306
145	0x3ddfa9d0	0.10921061
146	0xbd8e89fd	-0.06959913
147	0xbe8faaa4	-0.28059876
148	0xbdd92cf4	-0.10604277
149	0xbd80966c	-0.06278691
150	0xbd1f42d6	-0.0388821
151	0x3d4152fe	0.04719829
152	0xbd441c33	-0.047878455
153	0x3d1ee328	0.03879085
154	0x3c20595c	0.00978693
155	0x3d8c1766	0.068404004
156	0x3a4b74d0	0.0007761242
157	0xbd11d5e9	-0.03560439
158	0x3da34275	0.0797166
159	0x3daf5490	0.08561051
160	0x3ea284d9	0.3174198
161	0xbe017d23	-0.12645392
162	0x3a38d7fa	0.0007051226
163	0x3de2fc3d	0.11083267
164	0xbeb191c6	-0.3468153
165	0x3c114275	0.008865942
166	0xbbd479be	-0.0064842394
167	0x3e75e862	0.24014428
168	0x3de24756	0.110487625
169	0x3e9a8a13	0.30183467
170	0xbd44c2e0	-0.04803741
171	0x3d8a1e56	0.06744067
172	0xbe0dab98	-0.13834989
173	0xbf584af8	-0.84489393
174	0x3e8e33e4	0.27773964
175	0x3e1ce8f5	0.15323241
176	0x3f754d2a	0.9582087
177	0x3dd05783	0.101729415
178	0xbe73bf89	-0.23803534
179	0x3d67a2e1	0.056551818
180	0x3e83868b	0.25688586
181	0x3ef0d857	0.47040054
182	0xbd11f3e5	-0.035632987
183	0xbdd1689b	-0.1022503
184	0xbde8077c	-0.113295525
185	0x3ce5587d	0.027996296
186	0xbdff513a	-0.124666646
187	0x3d4c170b	0.049826663
188	0x3d826491	0.06366838
189	0xbe9fb202	-0.31190497
190	0xbd405c91	-0.04696328
191	0xbc73a224	-0.0148702
192	0x3e60901f	0.21929978
193	0xbe0bf160	-0.13666296
194	0x3e20963b	0.15682308
195	0x3db633a3	0.08896568
196	0x3e0ab7d9	0.13546695
197	0x3bddcd7c	0.0067688804
198	0x3e48e890	0.19619966
199	0xbcedacf6	-0.029013138
200	0xbd996444	-0.07489827
201	0x3e082ad4	0.13297588
202	0xbd246861	-0.040138606
203	0x3dae31e6	0.08505611
204	0x3d5770de	0.052597873
205	0x3d0aeeba	0.033919074
206	0xbd297438	-0.0413706
207	0x3cf1ee6f	0.02953264
208	0x3ddeed96	0.1088516
209	0xbd8eb48c	-0.0696803
210	0xbe8f8a41	-0.28035167
211	0xbdd9a92e	-0.106279716
212	0xbd8085a5	-0.06275491
213	0xbd1f1e85	-0.038847465
214	0x3d414230	0.047182262
215	0xbd43fca9	-0.047848377
216	0x3d1eddc0	0.038785696
217	0x3c202a97	0.009775779
218	0x3d8c1c4e	0.06841336
219	0x3a4bd721	0.0007775892
220	0xbd11ca55	-0.03559335
221	0x3da34618	0.07972354
222	0x3daf333d	0.08554695
223	0x3ea28236	0.31739968
224	0xbe017cec	-0.1264531
225	0x3a43e90e	0.00074733875
226	0x3de3905e	0.1111152
227	0xbeb1a0ca	-0.34692985
228	0x3c0ea8d2	0.008707242
229	0xbbd38b0c	-0.0064557847
230	0x3e75cbb1	0.24003483
231	0x3de200ee	0.110353336
232	0x3e9a8899	0.3018234
233	0xbd44a5c1	-0.048009638
234	0x3d8994a3	0.06717803
235	0xbe0db939	-0.13840188
236	0xbf584ca0	-0.8449192
237	0x3e8e09a9	0.27741745
238	0x3e1d68d1	0.15372016
239	0x3f754d32	0.95820916
240	0x3dd00393	0.10156932
241	0xbe737bfa	-0.23777762
242	0x3d684039	0.056701872
243	0x3e838e35	0.25694433
244	0x3ef0cbc6	0.47030467
245	0xbd11fd45	-0.035641927
246	0xbdd11858	-0.10209721
247	0xbde815ed	-0.11332307
248	0x3ce4de93	0.027938163
249	0xbdff54aa	-0.1246732
250	0x3d4c3757	0.049857464
251	0x3d829b8a	0.06377323
252	0xbe9f976c	-0.31170213
253	0xbd404284	-0.046938434
254	0xbc73ee42	-0.014888348
255	0x3e607b26	0.21921977

betas f4 [25, 10]
0	0xbd3a5a08	-0.045496017
1	0xbfd04372	-1.6270583
2	0xbd9a3100	-0.07528877
3	0x3e73b3bc	0.23799032
4	0x3e8ad020	0.27111912
5	0x3efd4428	0.49466062
6	0x3e889015	0.26672426
7	0x3eeabd44	0.45847523
8	0x3e6f415f	0.23364781
9	0x3f257f86	0.6464771
10	0xbd3a5a08	-0.045496017
11	0xbfd04372	-1.6270583
12	0xbd9a3100	-0.07528877
13	0x3e73b3bc	0.23799032
14	0x3e8ad020	0.27111912
15	0x3efd4428	0.49466062
16	0x3e889015	0.26672426
17	0x3eeabd44	0.45847523
18	0x3e6f415f	0.23364781
19	0x3f257f86	0.6464771
20	0xbd3a5a08	-0.045496017
21	0xbfd04372	-1.6270583
22	0xbd9a3100	-0.07528877
23	0x3e73b3bc	0.23799032
24	0x3e8ad020	0.27111912
25	0x3efd4428	0.49466062
26	0x3e889015	0.26672426
27	0x3eeabd44	0.45847523
28	0x3e6f415f	0.23364781
29	0x3f257f86	0.6464771
30	0xbd3a5a08	-0.045496017
31	0xbfd04372	-1.6270583
32	0xbd9a3100	-0.07528877
33	0x3e73b3bc	0.23799032
34	0x3e8ad020	0.27111912
35	0x3efd4428	0.49466062
36	0x3e889015	0.26672426
37	0x3eeabd44	0.45847523
38	0x3e6f415f	0.23364781
39	0x3f257f86	0.6464771
40	0xbd3a5a08	-0.045496017
41	0xbfd04372	-1.6270583
42	0xbd9a3100	-0.07528877
43	0x3e73b3bc	0.23799032
44	0x3e8ad020	0.27111912
45	0x3efd4428	0.49466062
46	0x3e889015	0.26672426
47	0x3eeabd44	0.45847523
48	0x3e6f415f	0.23364781
49	0x3f257f86	0.6464771
50	0xbd3a5a08	-0.045496017
51	0xbfd04372	-1.6270583
52	0xbd9a3100	-0.07528877
53	0x3e73b3bc	0.23799032
54	0x3e8ad020	0.27111912
55	0x3efd4428	0.49466062
56	0x3e889015	0.26672426
57	0x3eeabd44	0.45847523
58	0x3e6f415f	0.23364781
59	0x3f257f86	0.6464771
60	0xbd3a5a08	-0.045496017
61	0xbfd04372	-1.6270583
62	0xbd9a3100	-0.07528877
63	0x3e73b3bc	0.23799032
64	0x3e8ad020	0.27111912
65	0x3efd4428	0.49466062
66	0x3e889015	0.26672426
67	0x3eeabd44	0.45847523
68	0x3e6f415f	0.23364781
69	0x3f257f86	0.6464771
70	0xbd3a5a08	-0.045496017
71	0xbfd04372	-1.6270583
72	0xbd9a3100	-0.07528877
73	0x3e73b3bc	0.23799032
74	0x3e8ad020	0.27111912
75	0x3efd4428	0.49466062
76	0x3e889015	0.26672426
77	0x3eeabd44	0.45847523
78	0x3e6f415f	0.23364781
79	0x3f257f86	0.6464771
80	0xbd3a5a08	-0.045496017
81	0xbfd04372	-1.6270583
82	0xbd9a3100	-0.07528877
83	0x3e73b3bc	0.23799032
84	0x3e8ad020	0.27111912
85	0x3efd4428	0.49466062
86	0x3e889015	0.26672426
87	0x3eeabd44	0.45847523
88	0x3e6f415f	0.23364781
89	0x3f257f86	0.6464771
90	0xbd3a5a08	-0.045496017
91	0xbfd04372	-1.6270583
92	0xbd9a3100	-0.07528877
93	0x3e73b3bc	0.23799032
94	0x3e8ad020	0.27111912
95	0x3efd4428	0.49466062
96	0x3e889015	0.26672426
97	0x3eeabd44	0.45847523
98	0x3e6f415f	0.23364781
99	0x3f257f86	0.6464771
100	0xbd3a5a08	-0.045496017
101	0xbfd04372	-1.6270583
102	0xbd9a3100	-0.07528877
103	0x3e73b3bc	0.23799032
104	0x3e8ad020	0.27111912
105	0x3efd4428	0.49466062
106	0x3e889015	0.26672426
107	0x3eeabd44	0.45847523
108	0x3e6f415f	0.23364781
109	0x3f257f86	0.6464771
110	0xbd3a5a08	-0.045496017
111	0xbfd04372	-1.6270583
112	0xbd9a3100	-0.07528877
113	0x3e73b3bc	0.23799032
114	0x3e8ad020	0.27111912
115	0x3efd4428	0.49466062
116	0x3e889015	0.26672426
117	0x3eeabd44	0.45847523
118	0x3e6f415f	0.23364781
119	0x3f257f86	0.6464771
120	0xbd3a5a08	-0.045496017
121	0xbfd04372	-1.6270583
122	0xbd9a3100	-0.07528877
123	0x3e73b3bc	0.23799032
124	0x3e8ad020	0.27111912
125	0x3efd4428	0.49466062
126	0x3e889015	0.26672426
127	0x3eeabd44	0.45847523
128	0x3e6f415f	0.23364781
129	0x3f257f86	0.6464771
130	0xbd3a5a08	-0.045496017
131	0xbfd04372	-1.6270583
132	0xbd9a3100	-0.07528877
133	0x3e73b3bc	0.23799032
134	0x3e8ad020	0.27111912
135	0x3efd4428	0.49466062
136	0x3e889015	0.26672426
137	0x3eeabd44	0.45847523
138	0x3e6f415f	0.23364781
139	0x3f257f86	0.6464771
140	0xbd3a5a08	-0.045496017
141	0xbfd04372	-1.6270583
142	0xbd9a3100	-0.07528877
143	0x3e73b3bc	0.23799032
144	0x3e8ad020	0.27111912
145	0x3efd4428	0.49466062
146	0x3e889015	0.26672426
147	0x3eeabd44	0.45847523
148	0x3e6f415f	0.23364781
149	0x3f257f86	0.6464771
150	0xbd3a5a08	-0.045496017
151	0xbfd04372	-1.6270583
152	0xbd9a3100	-0.07528877
153	0x3e73b3bc	0.23799032
154	0x3e8ad020	0.27111912
155	0x3efd4428	0.49466062
156	0x3e889015	0.26672426
157	0x3eeabd44	0.45847523
158	0x3e6f415f	0.23364781
159	0x3f257f86	0.6464771
160	0xbd3a5a08	-0.045496017
161	0xbfd04372	-1.6270583
162	0xbd9a3100	-0.07528877
163	0x3e73b3bc	0.23799032
164	0x3e8ad020	0.27111912
165	0x3efd4428	0.49466062
166	0x3e889015	0.26672426
167	0x3eeabd44	0.45847523
168	0x3e6f415f	0.23364781
169	0x3f257f86	0.6464771
170	0xbd3a5a08	-0.045496017
171	0xbfd04372	-1.6270583
172	0xbd9a3100	-0.07528877
173	0x3e73b3bc	0.23799032
174	0x3e8ad020	0.27111912
175	0x3efd4428	0.49466062
176	0x3e889015	0.26672426
177	0x3eeabd44	0.45847523
178	0x3e6f415f	0.23364781
179	0x3f257f86	0.6464771
180	0xbd3a5a08	-0.045496017
181	0xbfd04372	-1.6270583
182	0xbd9a3100	-0.07528877
183	0x3e73b3bc	0.23799032
184	0x3e8ad020	0.27111912
185	0x3efd4428	0.49466062
186	0x3e889015	0.26672426
187	0x3eeabd44	0.45847523
188	0x3e6f415f	0.23364781
189	0x3f257f86	0.6464771
190	0xbd3a5a08	-0.045496017
191	0xbfd04372	-1.6270583
192	0xbd9a3100	-0.07528877
193	0x3e73b3bc	0.23799032
194	0x3e8ad020	0.27111912
195	0x3efd4428	0.49466062
196	0x3e889015	0.26672426
197	0x3eeabd44	0.45847523
198	0x3e6f415f	0.23364781
199	0x3f257f86	0.6464771
200	0xbd3a5a08	-0.045496017
201	0xbfd04372	-1.6270583
202	0xbd9a3100	-0.07528877
203	0x3e73b3bc	0.23799032
204	0x3e8ad020	0.27111912
205	0x3efd4428	0.49466062
206	0x3e889015	0.26672426
207	0x3eeabd44	0.45847523
208	0x3e6f415f	0.23364781
209	0x3f257f86	0.6464771
210	0xbd3a5a08	-0.045496017
211	0xbfd04372	-1.6270583
212	0xbd9a3100	-0.07528877
213	0x3e73b3bc	0.23799032
214	0x3e8ad020	0.27111912
215	0x3efd4428	0.49466062
216	0x3e889015	0.26672426
217	0x3eeabd44	0.45847523
218	0x3e6f415f	0.23364781
219	0x3f257f86	0.6464771
220	0xbd3a5a08	-0.045496017
221	0xbfd04372	-1.6270583
222	0xbd9a3100	-0.07528877
223	0x3e73b3bc	0.23799032
224	0x3e8ad020	0.27111912
225	0x3efd4428	0.49466062
226	0x3e889015	0.26672426
227	0x3eeabd44	0.45847523
228	0x3e6f415f	0.23364781
229	0x3f257f86	0.6464771
230	0xbd3a5a08	-0.045496017
231	0xbfd04372	-1.6270583
232	0xbd9a3100	-0.07528877
233	0x3e73b3bc	0.23799032
234	0x3e8ad020	0.27111912
235	0x3efd4428	0.49466062
236	0x3e889015	0.26672426
237	0x3eeabd44	0.45847523
238	0x3e6f415f	0.23364781
239	0x3f257f86	0.6464771
240	0xbd3a5a08	-0.045496017
241	0xbfd04372	-1.6270583
242	0xbd9a3100	-0.07528877
243	0x3e73b3bc	0.23799032
244	0x3e8ad020	0.27111912
245	0x3efd4428	0.49466062
246	0x3e889015	0.26672426
247	0x3eeabd44	0.45847523
248	0x3e6f415f	0.23364781
249	0x3f257f86	0.6464771

global_orient f4 [25, 3]
0	0xbddb9dd6	-0.10723464
1	0x40080652	2.1253858
2	0x3e164b7e	0.14677235
3	0xbddbd0dd	-0.10733197
4	0x4007fb9e	2.1247325
5	0x3e161f52	0.14660385
6	0xbddbe9cd	-0.10737953
7	0x4007ff5b	2.1249607
8	0x3e1649f6	0.14676651
9	0xbddc24a9	-0.1074918
10	0x4007fba0	2.124733
11	0x3e1608fb	0.14651863
12	0xbddc2a59	-0.10750265
13	0x4007fbb0	2.1247368
14	0x3e16626d	0.14685984
15	0xbddbd449	-0.107338496
16	0x4007f28f	2.1241796
17	0x3e160b50	0.14652753
18	0xbddc03eb	-0.10742935
19	0x4007f0ec	2.1240797
20	0x3e1603eb	0.14649932
21	0xbddc3bd8	-0.10753602
22	0x4007f0f7	2.1240823
23	0x3e162b12	0.14664868
24	0xbddc41f4	-0.10754767
25	0x4007e991	2.1236308
26	0x3e1629a7	0.14664327
27	0xbddc235a	-0.1074893
28	0x4007e7eb	2.1235301
29	0x3e1627d4	0.1466363
30	0xbddc31f6	-0.10751717
31	0x4007dede	2.1229777
32	0x3e16196a	0.14658132
33	0xbddc31f3	-0.107517146
34	0x4007dedc	2.1229773
35	0x3e160e3b	0.14653866
36	0xbddc0b48	-0.10744339
37	0x4007d767	2.122522
38	0x3e15cf4b	0.14629857
39	0xbddc0c22	-0.10744502
40	0x4007ccc2	2.1218724
41	0x3e15fc92	0.14647129
42	0xbddc11b5	-0.10745565
43	0x4007ccc0	2.121872
44	0x3e15f163	0.14642863
45	0xbddc25ec	-0.107494205
46	0x4007c3b3	2.1213195
47	0x3e15dd63	0.14635234
48	0xbddc126f	-0.107457034
49	0x4007c205	2.121217
50	0x3e15a93f	0.14615344
51	0xbddc189e	-0.10746883
52	0x4007baa9	2.1207678
53	0x3e15dfbe	0.14636132
54	0xbddc10c5	-0.10745386
55	0x4007b3ae	2.1203418
56	0x3e15d89e	0.14633414
57	0xbddc0e3c	-0.107449025
58	0x4007aff9	2.1201155
59	0x3e15d51c	0.14632076
60	0xbddc439a	-0.107550815
61	0x4007ac46	2.1198897
62	0x3e15cc06	0.1462861
63	0xbddc32c6	-0.10751872
64	0x4007ac3d	2.1198876
65	0x3e1599af	0.14609407
66	0xbddc764b	-0.1076475
67	0x4007a6ef	2.1195638
68	0x3e15b059	0.14618053
69	0xbddc332d	-0.107519485
70	0x4007a6e6	2.1195617
71	0x3e15945d	0.14607377
72	0xbddc6508	-0.10761458
73	0x4007ac36	2.119886
74	0x3e1561c5	0.14588077

body_pose f4 [25, 63]
0	0xbe9fb16b	-0.31190047
1	0xbd400f6a	-0.0468897
2	0xbc758916	-0.014986297
3	0x3e60760f	0.21920036
4	0xbe0c5171	-0.13702942
5	0x3e208021	0.15673877
6	0x3db66c9c	0.08907434
7	0x3e0ab8ce	0.1354706
8	0x3bdeb4db	0.006796462
9	0x3e48b861	0.19601585
10	0xbcef7128	-0.029228762
11	0xbd99e3d9	-0.075141616
12	0x3e089db9	0.13341416
13	0xbd250737	-0.040290084
14	0x3dae1f0e	0.08502017
15	0x3d5704de	0.052494876
16	0x3d0afc98	0.0339323
17	0xbd298c4a	-0.041393556
18	0x3cea5302	0.028604034
19	0x3ddcdd15	0.107843556
20	0xbd8eea8a	-0.069783285
21	0xbe902bac	-0.2815832
22	0xbdd9696a	-0.10615809
23	0xbd81364d	-0.06309185
24	0xbd1f3c0a	-0.038875617
25	0x3d415cf7	0.0472078
26	0xbd441fe2	-0.04788197
27	0x3d1ece52	0.03877098
28	0x3c2000a4	0.009765778
29	0x3d8c050f	0.06836902
30	0x3a475f8f	0.0007605487
31	0xbd11db69	-0.035609636
32	0x3da342b5	0.07971708
33	0x3daeef40	0.08541727
34	0x3ea28888	0.3174479
35	0xbe018817	-0.1264957
36	0x3a3ff666	0.0007322788
37	0x3de23601	0.11045457
38	0xbeb188ea	-0.3467477
39	0x3c0fc6c9	0.008775421
40	0xbbce02d7	-0.0062869596
41	0x3e7586ee	0.23977253
42	0x3de218ad	0.11039863
43	0x3e9aa084	0.3020059
44	0xbd4482fc	-0.04797648
45	0x3d89469b	0.0670292
46	0xbe0d6c9a	-0.1381096
47	0xbf5846ad	-0.8448284
48	0x3e8e48fc	0.27790058
49	0x3e1d0079	0.15332212
50	0x3f755d34	0.9584534
51	0x3dcee68e	0.101025686
52	0xbe73a0d0	-0.23791814
53	0x3d6ad667	0.057333376
54	0x3e838b0e	0.25692028
55	0x3ef0f49c	0.47061622
56	0xbd11167c	-0.035421833
57	0xbdd17179	-0.10226721
58	0xbde81e21	-0.11333872
59	0x3ce4c12e	0.027924147
60	0xbdff8a3b	-0.12477537
61	0x3d4bf8f7	0.04979798
62	0x3d82e9ab	0.06392225
63	0xbe9facdd	-0.31186572
64	0xbd40453f	-0.04694104
65	0xbc72d985	-0.0148223685
66	0x3e608115	0.21924241
67	0xbe0c2fd0	-0.13690114
68	0x3e2087c8	0.15676796
69	0x3db64d3b	0.08901449
70	0x3e0ab919	0.13547172
71	0x3bddf06f	0.0067730467
72	0x3e488cf9	0.19585027
73	0xbcf0414a	-0.029328007
74	0xbd99ce16	-0.07510011
75	0x3e087a6d	0.13327952
76	0xbd256ded	-0.040388037
77	0x3dadb2fa	0.08481403
78	0x3d56fa18	0.0524846
79	0x3d0ae930	0.03391379
80	0xbd2979c3	-0.041375887
81	0x3cee6c16	0.029104274
82	0x3dde29a1	0.10847784
83	0xbd8e5e5c	-0.06951591
84	0xbe9008fd	-0.28131858
85	0xbdd85fab	-0.10565122
86	0xbd8084d0	-0.06275332
87	0xbd1f06f7	-0.038825
88	0x3d4168b2	0.047218986
89	0xbd43f500	-0.047841072
90	0x3d1ed429	0.03877655
91	0x3c200b68	0.009768344
92	0x3d8c04d5	0.06836859
93	0x3a4aba4d	0.00077334495
94	0xbd11c74e	-0.035590462
95	0x3da341a3	0.079715036
96	0x3daf0d8a	0.08547504
97	0x3ea274a1	0.31729606
98	0xbe018c14	-0.12651092
99	0x3a52bf63	0.0008039383
100	0x3de3954d	0.11112461
101	0xbeb18db4	-0.34678423
102	0x3c0edb72	0.008719312
103	0xbbc877d6	-0.006117801
104	0x3e75bbad	0.23997374
105	0x3de20726	0.1103652
106	0x3e9a9a25	0.30195728
107	0xbd448252	-0.047975846
108	0x3d89e8c7	0.06733852
109	0xbe0dad11	-0.13835551
110	0xbf584676	-0.84482515
111	0x3e8e57a8	0.2780125
112	0x3e1cb2d4	0.15302593
113	0x3f755103	0.9582674
114	0x3dcf7787	0.1013022
115	0xbe73e84a	-0.2381908
116	0x3d67505f	0.056473132
117	0x3e8397ab	0.2570165
118	0x3ef0f7b7	0.4706399
119	0xbd12c6e0	-0.035834193
120	0xbdd17764	-0.1022785
121	0xbde814e6	-0.11332111
122	0x3ce5dc8a	0.028059263
123	0xbdff1853	-0.12455811
124	0x3d4bf5e1	0.049795035
125	0x3d82aac1	0.06380225
126	0xbe9fa2d7	-0.31178924
127	0xbd3fc530	-0.046818912
128	0xbc75692f	-0.014978691
129	0x3e609533	0.21931915
130	0xbe0b8226	-0.13623866
131	0x3e207d30	0.15672755
132	0x3db61701	0.088911064
133	0x3e0ac1c0	0.13550472
134	0x3bddfeda	0.0067747654
135	0x3e48ba24	0.19602257
136	0xbced8476	-0.028993826
137	0xbd99c643	-0.075085185
138	0x3e081a23	0.1329122
139	0xbd24ce8e	-0.04023605
140	0x3dae3781	0.0850668
141	0x3d57456d	0.052556444
142	0x3d0af706	0.033926986
143	0xbd295073	-0.041336488
144	0x3cf2419f	0.029572306
145	0x3ddfa9d0	0.10921061
146	0xbd8e89fd	-0.06959913
147	0xbe8faaa4	-0.28059876
148	0xbdd92cf4	-0.10604277
149	0xbd80966c	-0.06278691
150	0xbd1f42d6	-0.0388821
151	0x3d4152fe	0.04719829
152	0xbd441c33	-0.047878455
153	0x3d1ee328	0.03879085
154	0x3c20595c	0.00978693
155	0x3d8c1766	0.068404004
156	0x3a4b74d0	0.0007761242
157	0xbd11d5e9	-0.03560439
158	0x3da34275	0.0797166
159	0x3daf5490	0.08561051
160	0x3ea284d9	0.3174198
161	0xbe017d23	-0.12645392
162	0x3a38d7fa	0.0007051226
163	0x3de2fc3d	0.11083267
164	0xbeb191c6	-0.3468153
165	0x3c114275	0.008865942
166	0xbbd479be	-0.0064842394
167	0x3e75e862	0.24014428
168	0x3de24756	0.110487625
169	0x3e9a8a13	0.30183467
170	0xbd44c2e0	-0.04803741
171	0x3d8a1e56	0.06744067
172	0xbe0dab98	-0.13834989
173	0xbf584af8	-0.84489393
174	0x3e8e33e4	0.27773964
175	0x3e1ce8f5	0.15323241
176	0x3f754d2a	0.9582087
177	0x3dd05783	0.101729415
178	0xbe73bf89	-0.23803534
179	0x3d67a2e1	0.056551818
180	0x3e83868b	0.25688586
181	0x3ef0d857	0.47040054
182	0xbd11f3e5	-0.035632987
183	0xbdd1689b	-0.1022503
184	0xbde8077c	-0.113295525
185	0x3ce5587d	0.027996296
186	0xbdff513a	-0.124666646
187	0x3d4c170b	0.049826663
188	0x3d826491	0.06366838
189	0xbe9fb202	-0.31190497
190	0xbd405c91	-0.04696328
191	0xbc73a224	-0.0148702
192	0x3e60901f	0.21929978
193	0xbe0bf160	-0.13666296
194	0x3e20963b	0.15682308
195	0x3db633a3	0.08896568
196	0x3e0ab7d9	0.13546695
197	0x3bddcd7c	0.0067688804
198	0x3e48e890	0.19619966
199	0xbcedacf6	-0.029013138
200	0xbd996444	-0.07489827
201	0x3e082ad4	0.13297588
202	0xbd246861	-0.040138606
203	0x3dae31e6	0.08505611
204	0x3d5770de	0.052597873
205	0x3d0aeeba	0.033919074
206	0xbd297438	-0.0413706
207	0x3cf1ee6f	0.02953264
208	0x3ddeed96	0.1088516
209	0xbd8eb48c	-0.0696803
210	0xbe8f8a41	-0.28035167
211	0xbdd9a92e	-0.106279716
212	0xbd8085a5	-0.06275491
213	0xbd1f1e85	-0.038847465
214	0x3d414230	0.047182262
215	0xbd43fca9	-0.047848377
216	0x3d1eddc0	0.038785696
217	0x3c202a97	0.009775779
218	0x3d8c1c4e	0.06841336
219	0x3a4bd721	0.0007775892
220	0xbd11ca55	-0.03559335
221	0x3da34618	0.07972354
222	0x3daf333d	0.08554695
223	0x3ea28236	0.31739968
224	0xbe017cec	-0.1264531
225	0x3a43e90e	0.00074733875
226	0x3de3905e	0.1111152
227	0xbeb1a0ca	-0.34692985
228	0x3c0ea8d2	0.008707242
229	0xbbd38b0c	-0.0064557847
230	0x3e75cbb1	0.24003483
231	0x3de200ee	0.110353336
232	0x3e9a8899	0.3018234
233	0xbd44a5c1	-0.048009638
234	0x3d8994a3	0.06717803
235	0xbe0db939	-0.13840188
236	0xbf584ca0	-0.8449192
237	0x3e8e09a9	0.27741745
238	0x3e1d68d1	0.15372016
239	0x3f754d32	0.95820916
240	0x3dd00393	0.10156932
241	0xbe737bfa	-0.23777762
242	0x3d684039	0.056701872
243	0x3e838e35	0.25694433
244	0x3ef0cbc6	0.47030467
245	0xbd11fd45	-0.035641927
246	0xbdd11858	-0.10209721
247	0xbde815ed	-0.11332307
248	0x3ce4de93	0.027938163
249	0xbdff54aa	-0.1246732
250	0x3d4c3757	0.049857464
251	0x3d829b8a	0.06377323
252	0xbe9f976c	-0.31170213
253	0xbd404284	-0.046938434
254	0xbc73ee42	-0.014888348
255	0x3e607b26	0.21921977

betas f4 [25, 10]
0	0xbd3a5a08	-0.045496017
1	0xbfd04372	-1.6270583
2	0xbd9a3100	-0.07528877
3	0x3e73b3bc	0.23799032
4	0x3e8ad020	0.27111912
5	0x3efd4428	0.49466062
6	0x3e889015	0.26672426
7	0x3eeabd44	0.45847523
8	0x3e6f415f	0.23364781
9	0x3f257f86	0.6464771
10	0xbd3a5a08	-0.045496017
11	0xbfd04372	-1.6270583
12	0xbd9a3100	-0.07528877
13	0x3e73b3bc	0.23799032
14	0x3e8ad020	0.27111912
15	0x3efd4428	0.49466062
16	0x3e889015	0.26672426
17	0x3eeabd44	0.45847523
18	0x3e6f415f	0.23364781
19	0x3f257f86	0.6464771
20	0xbd3a5a08	-0.045496017
21	0xbfd04372	-1.6270583
22	0xbd9a3100	-0.07528877
23	0x3e73b3bc	0.23799032
24	0x3e8ad020	0.27111912
25	0x3efd4428	0.49466062
26	0x3e889015	0.26672426
27	0x3eeabd44	0.45847523
28	0x3e6f415f	0.23364781
29	0x3f257f86	0.6464771
30	0xbd3a5a08	-0.045496017
31	0xbfd04372	-1.6270583
32	0xbd9a3100	-0.07528877
33	0x3e73b3bc	0.23799032
34	0x3e8ad020	0.27111912
35	0x3efd4428	0.49466062
36	0x3e889015	0.26672426
37	0x3eeabd44	0.45847523
38	0x3e6f415f	0.23364781
39	0x3f257f86	0.6464771
40	0xbd3a5a08	-0.045496017
41	0xbfd04372	-1.6270583
42	0xbd9a3100	-0.07528877
43	0x3e73b3bc	0.23799032
44	0x3e8ad020	0.27111912
45	0x3efd4428	0.49466062
46	0x3e889015	0.26672426
47	0x3eeabd44	0.45847523
48	0x3e6f415f	0.23364781
49	0x3f257f86	0.6464771
50	0xbd3a5a08	-0.045496017
51	0xbfd04372	-1.6270583
52	0xbd9a3100	-0.07528877
53	0x3e73b3bc	0.23799032
54	0x3e8ad020	0.27111912
55	0x3efd4428	0.49466062
56	0x3e889015	0.26672426
57	0x3eeabd44	0.45847523
58	0x3e6f415f	0.23364781
59	0x3f257f86	0.6464771
60	0xbd3a5a08	-0.045496017
61	0xbfd04372	-1.6270583
62	0xbd9a3100	-0.07528877
63	0x3e73b3bc	0.23799032
64	0x3e8ad020	0.27111912
65	0x3efd4428	0.49466062
66	0x3e889015	0.26672426
67	0x3eeabd44	0.45847523
68	0x3e6f415f	0.23364781
69	0x3f257f86	0.6464771
70	0xbd3a5a08	-0.045496017
71	0xbfd04372	-1.6270583
72	0xbd9a3100	-0.07528877
73	0x3e73b3bc	0.23799032
74	0x3e8ad020	0.27111912
75	0x3efd4428	0.49466062
76	0x3e889015	0.26672426
77	0x3eeabd44	0.45847523
78	0x3e6f415f	0.23364781
79	0x3f257f86	0.6464771
80	0xbd3a5a08	-0.045496017
81	0xbfd04372	-1.6270583
82	0xbd9a3100	-0.07528877
83	0x3e73b3bc	0.23799032
84	0x3e8ad020	0.27111912
85	0x3efd4428	0.49466062
86	0x3e889015	0.26672426
87	0x3eeabd44	0.45847523
88	0x3e6f415f	0.23364781
89	0x3f257f86	0.6464771
90	0xbd3a5a08	-0.045496017
91	0xbfd04372	-1.6270583
92	0xbd9a3100	-0.07528877
93	0x3e73b3bc	0.23799032
94	0x3e8ad020	0.27111912
95	0x3efd4428	0.49466062
96	0x3e889015	0.26672426
97	0x3eeabd44	0.45847523
98	0x3e6f415f	0.23364781
99	0x3f257f86	0.6464771
100	0xbd3a5a08	-0.045496017
101	0xbfd04372	-1.6270583
102	0xbd9a3100	-0.07528877
103	0x3e73b3bc	0.23799032
104	0x3e8ad020	0.27111912
105	0x3efd4428	0.49466062
106	0x3e889015	0.26672426
107	0x3eeabd44	0.45847523
108	0x3e6f415f	0.23364781
109	0x3f257f86	0.6464771
110	0xbd3a5a08	-0.045496017
111	0xbfd04372	-1.6270583
112	0xbd9a3100	-0.07528877
113	0x3e73b3bc	0.23799032
114	0x3e8ad020	0.27111912
115	0x3efd4428	0.49466062
116	0x3e889015	0.26672426
117	0x3eeabd44	0.45847523
118	0x3e6f415f	0.23364781
119	0x3f257f86	0.6464771
120	0xbd3a5a08	-0.045496017
121	0xbfd04372	-1.6270583
122	0xbd9a3100	-0.07528877
123	0x3e73b3bc	0.23799032
124	0x3e8ad020	0.27111912
125	0x3efd4428	0.49466062
126	0x3e889015	0.26672426
127	0x3eeabd44	0.45847523
128	0x3e6f415f	0.23364781
129	0x3f257f86	0.6464771
130	0xbd3a5a08	-0.045496017
131	0xbfd04372	-1.6270583
132	0xbd9a3100	-0.07528877
133	0x3e73b3bc	0.23799032
134	0x3e8ad020	0.27111912
135	0x3efd4428	0.49466062
136	0x3e889015	0.26672426
137	0x3eeabd44	0.45847523
138	0x3e6f415f	0.23364781
139	0x3f257f86	0.6464771
140	0xbd3a5a08	-0.045496017
141	0xbfd04372	-1.6270583
142	0xbd9a3100	-0.07528877
143	0x3e73b3bc	0.23799032
144	0x3e8ad020	0.27111912
145	0x3efd4428	0.49466062
146	0x3e889015	0.26672426
147	0x3eeabd44	0.45847523
148	0x3e6f415f	0.23364781
149	0x3f257f86	0.6464771
150	0xbd3a5a08	-0.045496017
151	0xbfd04372	-1.6270583
152	0xbd9a3100	-0.07528877
153	0x3e73b3bc	0.23799032
154	0x3e8ad020	0.27111912
155	0x3efd4428	0.49466062
156	0x3e889015	0.26672426
157	0x3eeabd44	0.45847523
158	0x3e6f415f	0.23364781
159	0x3f257f86	0.6464771
160	0xbd3a5a08	-0.045496017
161	0xbfd04372	-1.6270583
162	0xbd9a3100	-0.07528877
163	0x3e73b3bc	0.23799032
164	0x3e8ad020	0.27111912
165	0x3efd4428	0.49466062
166	0x3e889015	0.26672426
167	0x3eeabd44	0.45847523
168	0x3e6f415f	0.23364781
169	0x3f257f86	0.6464771
170	0xbd3a5a08	-0.045496017
171	0xbfd04372	-1.6270583
172	0xbd9a3100	-0.07528877
173	0x3e73b3bc	0.23799032
174	0x3e8ad020	0.27111912
175	0x3efd4428	0.49466062
176	0x3e889015	0.26672426
177	0x3eeabd44	0.45847523
178	0x3e6f415f	0.23364781
179	0x3f257f86	0.6464771
180	0xbd3a5a08	-0.045496017
181	0xbfd04372	-1.6270583
182	0xbd9a3100	-0.07528877
183	0x3e73b3bc	0.23799032
184	0x3e8ad020	0.27111912
185	0x3efd4428	0.49466062
186	0x3e889015	0.26672426
187	0x3eeabd44	0.45847523
188	0x3e6f415f	0.23364781
189	0x3f257f86	0.6464771
190	0xbd3a5a08	-0.045496017
191	0xbfd04372	-1.6270583
192	0xbd9a3100	-0.07528877
193	0x3e73b3bc	0.23799032
194	0x3e8ad020	0.27111912
195	0x3efd4428	0.49466062
196	0x3e889015	0.26672426
197	0x3eeabd44	0.45847523
198	0x3e6f415f	0.23364781
199	0x3f257f86	0.6464771
200	0xbd3a5a08	-0.045496017
201	0xbfd04372	-1.6270583
202	0xbd9a3100	-0.07528877
203	0x3e73b3bc	0.23799032
204	0x3e8ad020	0.27111912
205	0x3efd4428	0.49466062
206	0x3e889015	0.26672426
207	0x3eeabd44	0.45847523
208	0x3e6f415f	0.23364781
209	0x3f257f86	0.6464771
210	0xbd3a5a08	-0.045496017
211	0xbfd04372	-1.6270583
212	0xbd9a3100	-0.07528877
213	0x3e73b3bc	0.23799032
214	0x3e8ad020	0.27111912
215	0x3efd4428	0.49466062
216	0x3e889015	0.26672426
217	0x3eeabd44	0.45847523
218	0x3e6f415f	0.23364781
219	0x3f257f86	0.6464771
220	0xbd3a5a08	-0.045496017
221	0xbfd04372	-1.6270583
222	0xbd9a3100	-0.07528877
223	0x3e73b3bc	0.23799032
224	0x3e8ad020	0.27111912
225	0x3efd4428	0.49466062
226	0x3e889015	0.26672426
227	0x3eeabd44	0.45847523
228	0x3e6f415f	0.23364781
229	0x3f257f86	0.6464771
230	0xbd3a5a08	-0.045496017
231	0xbfd04372	-1.6270583
232	0xbd9a3100	-0.07528877
233	0x3e73b3bc	0.23799032
234	0x3e8ad020	0.27111912
235	0x3efd4428	0.49466062
236	0x3e889015	0.26672426
237	0x3eeabd44	0.45847523
238	0x3e6f415f	0.23364781
239	0x3f257f86	0.6464771
240	0xbd3a5a08	-0.045496017
241	0xbfd04372	-1.6270583
242	0xbd9a3100	-0.07528877
243	0x3e73b3bc	0.23799032
244	0x3e8ad020	0.27111912
245	0x3efd4428	0.49466062
246	0x3e889015	0.26672426
247	0x3eeabd44	0.45847523
248	0x3e6f415f	0.23364781
249	0x3f257f86	0.6464771

global_orient f4 [25, 3]
0	0x40255bf3	2.5837371
1	0xbcb619a7	-0.022229029
2	0xbfba7f28	-1.4570055
3	0x40255b66	2.5837035
4	0xbcb5dc3a	-0.022199739
5	0xbfba832d	-1.4571282
6	0x40255cf2	2.583798
7	0xbcb60c4c	-0.02222266
8	0xbfba7df9	-1.4569694
9	0x40255b78	2.5837078
10	0xbcb4db57	-0.022077246
11	0xbfba8390	-1.45714
12	0x40255d88	2.5838337
13	0xbcb53793	-0.022121226
14	0xbfba7beb	-1.4569067
15	0x40255a8f	2.5836523
16	0xbcb52a3c	-0.022114865
17	0xbfba84d3	-1.4571785
18	0x40255b1d	2.583686
19	0xbcb4dca6	-0.02207787
20	0xbfba8581	-1.4571992
21	0x40255c3e	2.583755
22	0xbcb461ee	-0.022019353
23	0xbfba81e6	-1.4570892
24	0x40255d0e	2.5838046
25	0xbcb474e2	-0.02202839
26	0xbfba7cf1	-1.4569379
27	0x40255d10	2.583805
28	0xbcb4e01e	-0.022079524
29	0xbfba7db2	-1.4569609
30	0x40255ee1	2.583916
31	0xbcb5db2d	-0.022199238
32	0xbfba76e5	-1.4567534
33	0x40255e6b	2.5838878
34	0xbcb4cf22	-0.022071425
35	0xbfba7cc7	-1.4569329
36	0x40255e9b	2.5838993
37	0xbcb5fefa	-0.022216309
38	0xbfba77c8	-1.4567804
39	0x40255da0	2.5838394
40	0xbcb6f111	-0.022331746
41	0xbfba7aca	-1.4568722
42	0x40255efa	2.583922
43	0xbcb6d0bc	-0.02231633
44	0xbfba7a63	-1.45686
45	0x40255eb6	2.5839057
46	0xbcb6a5d0	-0.022295862
47	0xbfba7aee	-1.4568765
48	0x40255f4c	2.5839415
49	0xbcb629e6	-0.022236776
50	0xbfba7825	-1.4567915
51	0x40255db5	2.5838444
52	0xbcb63b9b	-0.022245219
53	0xbfba7e05	-1.4569708
54	0x40255ec3	2.5839088
55	0xbcb6ba7f	-0.022305725
56	0xbfba7958	-1.4568281
57	0x40255df9	2.5838606
58	0xbcb6b9c0	-0.02230537
59	0xbfba7c5a	-1.4569199
60	0x40255dff	2.583862
61	0xbcb67055	-0.022270361
62	0xbfba7c4a	-1.456918
63	0x40255efa	2.583922
64	0xbcb6f275	-0.02233241
65	0xbfba763d	-1.4567333
66	0x40255dd3	2.5838516
67	0xbcb65d8b	-0.022261402
68	0xbfba7823	-1.4567913
69	0x40255efc	2.5839224
70	0xbcb5ceed	-0.022193396
71	0xbfba77df	-1.4567832
72	0x40255ee0	2.5839157
73	0xbcb5e0cf	-0.022201924
74	0xbfba73d4	-1.4566598

transl f4 [25, 3]
0	0xbd005504	-0.031331077
1	0x3e6c625a	0.23084393
2	0x4017a46e	2.369411
3	0xbd003ae2	-0.031306155
4	0x3e6c586a	0.23080602
5	0x4017a5d2	2.3694959
6	0xbd0038b4	-0.031304076
7	0x3e6c5439	0.23079003
8	0x4017a6a3	2.3695457
9	0xbd001a4c	-0.03127508
10	0x3e6c50fe	0.23077771
11	0x4017a785	2.3695996
12	0xbd005293	-0.03132875
13	0x3e6c44e7	0.23073159
14	0x4017a95f	2.3697126
15	0xbd005658	-0.031332344
16	0x3e6c4b5a	0.2307562
17	0x4017a7d0	2.3696175
18	0xbd0058de	-0.03133475
19	0x3e6c4af5	0.23075469
20	0x4017a970	2.3697166
21	0xbd006226	-0.0313436
22	0x3e6c46e9	0.23073925
23	0x4017a9b7	2.3697336
24	0xbd003a38	-0.03130552
25	0x3e6c4aec	0.23075455
26	0x4017a803	2.3696296
27	0xbd00473c	-0.031317934
28	0x3e6c45bf	0.23073481
29	0x4017a830	2.3696404
30	0xbd004e6e	-0.031324796
31	0x3e6c4c6f	0.23076032
32	0x4017a7e3	2.369622
33	0xbd0060be	-0.03134226
34	0x3e6c4cba	0.23076144
35	0x4017a7ec	2.3696241
36	0xbd005859	-0.031334255
37	0x3e6c5298	0.23078382
38	0x4017a66e	2.369533
39	0xbd005da0	-0.031339288
40	0x3e6c54ef	0.23079275
41	0x4017a5a3	2.3694847
42	0xbd003eb6	-0.031309806
43	0x3e6c5572	0.2307947
44	0x4017a63c	2.3695211
45	0xbd0063f0	-0.031345308
46	0x3e6c4ff0	0.23077369
47	0x4017a68a	2.3695397
48	0xbd00466c	-0.03131716
49	0x3e6c58b9	0.2308072
50	0x4017a5a5	2.3694851
51	0xbd003c96	-0.03130778
52	0x3e6c4c82	0.2307606
53	0x4017a730	2.3695793
54	0xbd00247e	-0.0312848
55	0x3e6c4c5b	0.23076002
56	0x4017a8a8	2.369669
57	0xbd0027b6	-0.03128787
58	0x3e6c48b6	0.23074612
59	0x4017a81d	2.3696358
60	0xbd0037f0	-0.031303346
61	0x3e6c4eb9	0.23076905
62	0x4017a7dd	2.3696206
63	0xbd001e6e	-0.03127902
64	0x3e6c4d4b	0.2307636
65	0x4017a7e2	2.3696218
66	0xbd00314c	-0.031297013
67	0x3e6c4dea	0.23076597
68	0x4017a8dd	2.3696816
69	0xbd00218d	-0.031281997
70	0x3e6c54b5	0.23079188
71	0x4017a8a2	2.3696675
72	0xbd002ec4	-0.0312946
73	0x3e6c52ee	0.2307851
74	0x4017a856	2.3696494

K_fullimg f4 [25, 3, 3]
0	0x44ca5cca	1618.8997
1	0x00000000	0.0
2	0x44070000	540.0
3	0x00000000	0.0
4	0x44ca5cca	1618.8997
5	0x4416c000	603.0
6	0x00000000	0.0
7	0x00000000	0.0
8	0x3f800000	1.0
9	0x44ca5cca	1618.8997
10	0x00000000	0.0
11	0x44070000	540.0
12	0x00000000	0.0
13	0x44ca5cca	1618.8997
14	0x4416c000	603.0
15	0x00000000	0.0
16	0x00000000	0.0
17	0x3f800000	1.0
18	0x44ca5cca	1618.8997
19	0x00000000	0.0
20	0x44070000	540.0
21	0x00000000	0.0
22	0x44ca5cca	1618.8997
23	0x4416c000	603.0
24	0x00000000	0.0
25	0x00000000	0.0
26	0x3f800000	1.0
27	0x44ca5cca	1618.8997
28	0x00000000	0.0
29	0x44070000	540.0
30	0x00000000	0.0
31	0x44ca5cca	1618.8997
32	0x4416c000	603.0
33	0x00000000	0.0
34	0x00000000	0.0
35	0x3f800000	1.0
36	0x44ca5cca	1618.8997
37	0x00000000	0.0
38	0x44070000	540.0
39	0x00000000	0.0
40	0x44ca5cca	1618.8997
41	0x4416c000	603.0
42	0x00000000	0.0
43	0x00000000	0.0
44	0x3f800000	1.0
45	0x44ca5cca	1618.8997
46	0x00000000	0.0
47	0x44070000	540.0
48	0x00000000	0.0
49	0x44ca5cca	1618.8997
50	0x4416c000	603.0
51	0x00000000	0.0
52	0x00000000	0.0
53	0x3f800000	1.0
54	0x44ca5cca	1618.8997
55	0x00000000	0.0
56	0x44070000	540.0
57	0x00000000	0.0
58	0x44ca5cca	1618.8997
59	0x4416c000	603.0
60	0x00000000	0.0
61	0x00000000	0.0
62	0x3f800000	1.0
63	0x44ca5cca	1618.8997
64	0x00000000	0.0
65	0x44070000	540.0
66	0x00000000	0.0
67	0x44ca5cca	1618.8997
68	0x4416c000	603.0
69	0x00000000	0.0
70	0x00000000	0.0
71	0x3f800000	1.0
72	0x44ca5cca	1618.8997
73	0x00000000	0.0
74	0x44070000	540.0
75	0x00000000	0.0
76	0x44ca5cca	1618.8997
77	0x4416c000	603.0
78	0x00000000	0.0
79	0x00000000	0.0
80	0x3f800000	1.0
81	0x44ca5cca	1618.8997
82	0x00000000	0.0
83	0x44070000	540.0
84	0x00000000	0.0
85	0x44ca5cca	1618.8997
86	0x4416c000	603.0
87	0x00000000	0.0
88	0x00000000	0.0
89	0x3f800000	1.0
90	0x44ca5cca	1618.8997
91	0x00000000	0.0
92	0x44070000	540.0
93	0x00000000	0.0
94	0x44ca5cca	1618.8997
95	0x4416c000	603.0
96	0x00000000	0.0
97	0x00000000	0.0
98	0x3f800000	1.0
99	0x44ca5cca	1618.8997
100	0x00000000	0.0
101	0x44070000	540.0
102	0x00000000	0.0
103	0x44ca5cca	1618.8997
104	0x4416c000	603.0
105	0x00000000	0.0
106	0x00000000	0.0
107	0x3f800000	1.0
108	0x44ca5cca	1618.8997
109	0x00000000	0.0
110	0x44070000	540.0
111	0x00000000	0.0
112	0x44ca5cca	1618.8997
113	0x4416c000	603.0
114	0x00000000	0.0
115	0x00000000	0.0
116	0x3f800000	1.0
117	0x44ca5cca	1618.8997
118	0x00000000	0.0
119	0x44070000	540.0
120	0x00000000	0.0
121	0x44ca5cca	1618.8997
122	0x4416c000	603.0
123	0x00000000	0.0
124	0x00000000	0.0
125	0x3f800000	1.0
126	0x44ca5cca	1618.8997
127	0x00000000	0.0
128	0x44070000	540.0
129	0x00000000	0.0
130	0x44ca5cca	1618.8997
131	0x4416c000	603.0
132	0x00000000	0.0
133	0x00000000	0.0
134	0x3f800000	1.0
135	0x44ca5cca	1618.8997
136	0x00000000	0.0
137	0x44070000	540.0
138	0x00000000	0.0
139	0x44ca5cca	1618.8997
140	0x4416c000	603.0
141	0x00000000	0.0
142	0x00000000	0.0
143	0x3f800000	1.0
144	0x44ca5cca	1618.8997
145	0x00000000	0.0
146	0x44070000	540.0
147	0x00000000	0.0
148	0x44ca5cca	1618.8997
149	0x4416c000	603.0
150	0x00000000	0.0
151	0x00000000	0.0
152	0x3f800000	1.0
153	0x44ca5cca	1618.8997
154	0x00000000	0.0
155	0x44070000	540.0
156	0x00000000	0.0
157	0x44ca5cca	1618.8997
158	0x4416c000	603.0
159	0x00000000	0.0
160	0x00000000	0.0
161	0x3f800000	1.0
162	0x44ca5cca	1618.8997
163	0x00000000	0.0
164	0x44070000	540.0
165	0x00000000	0.0
166	0x44ca5cca	1618.8997
167	0x4416c000	603.0
168	0x00000000	0.0
169	0x00000000	0.0
170	0x3f800000	1.0
171	0x44ca5cca	1618.8997
172	0x00000000	0.0
173	0x44070000	540.0
174	0x00000000	0.0
175	0x44ca5cca	1618.8997
176	0x4416c000	603.0
177	0x00000000	0.0
178	0x00000000	0.0
179	0x3f800000	1.0
180	0x44ca5cca	1618.8997
181	0x00000000	0.0
182	0x44070000	540.0
183	0x00000000	0.0
184	0x44ca5cca	1618.8997
185	0x4416c000	603.0
186	0x00000000	0.0
187	0x00000000	0.0
188	0x3f800000	1.0
189	0x44ca5cca	1618.8997
190	0x00000000	0.0
191	0x44070000	540.0
192	0x00000000	0.0
193	0x44ca5cca	1618.8997
194	0x4416c000	603.0
195	0x00000000	0.0
196	0x00000000	0.0
197	0x3f800000	1.0
198	0x44ca5cca	1618.8997
199	0x00000000	0.0
200	0x44070000	540.0
201	0x00000000	0.0
202	0x44ca5cca	1618.8997
203	0x4416c000	603.0
204	0x00000000	0.0
205	0x00000000	0.0
206	0x3f800000	1.0
207	0x44ca5cca	1618.8997
208	0x00000000	0.0
209	0x44070000	540.0
210	0x00000000	0.0
211	0x44ca5cca	1618.8997
212	0x4416c000	603.0
213	0x00000000	0.0
214	0x00000000	0.0
215	0x3f800000	1.0
216	0x44ca5cca	1618.8997
217	0x00000000	0.0
218	0x44070000	540.0
219	0x00000000	0.0
220	0x44ca5cca	1618.8997
221	0x4416c000	603.0
222	0x00000000	0.0
223	0x00000000	0.0
224	0x3f800000	1.0

pred_context f4 [1, 25, 512]
0	0xbd96be2a	-0.0736049
1	0x3e94dbc4	0.29073918
2	0xc03cb052	-2.9482617
3	0x3e852f20	0.26012516
4	0x3f759dba	0.95943797
5	0x3e09ca7f	0.13456152
6	0xbf9badb8	-1.216239
7	0xbda3ca77	-0.079976015
8	0x3f05c57d	0.5225447
9	0xbf4562cc	-0.7710388
10	0xbdca7bc2	-0.09886886
11	0x3e780f44	0.24224573
12	0xbe14c021	-0.14526416
13	0xbed087eb	-0.40728697
14	0xbe1efc14	-0.15525848
15	0xbe866c62	-0.26254565
16	0xbf51ac94	-0.8190396
17	0xbe00bf07	-0.12572871
18	0xbf452200	-0.77005005
19	0x3eb19afb	0.34688553
20	0x3eca7670	0.39543486
21	0xbeeb5bbf	-0.45968434
22	0xbf41680a	-0.75549376
23	0x3f3899cd	0.7210968
24	0xbefd27fb	-0.49444565
25	0xbf65d050	-0.89770985
26	0x3bfc3e40	0.0076978505
27	0xbf88899f	-1.0666999
28	0x3f40ec4f	0.7536058
29	0xbe659802	-0.22421268
30	0xbd3fe80e	-0.046852164
31	0x3e245526	0.16048107
32	0xbf995f77	-1.1982259
33	0xbe8edf11	-0.2790456
34	0x3e53b244	0.20673472
35	0xbee77537	-0.45206615
36	0xbe57f2bd	-0.21088691
37	0xbf7517cd	-0.9573944
38	0x3e92a8fe	0.28644556
39	0x3dd62d8a	0.10457905
40	0xbefc9826	-0.4933483
41	0x3e61a115	0.22034104
42	0xbf03744b	-0.51349324
43	0x3daf17b6	0.085494444
44	0x3ed07caf	0.40720126
45	0xbf8ae8e6	-1.0852325
46	0xbfa5a538	-1.2941046
47	0xbf71b998	-0.9442382
48	0x3dbfcde9	0.09365446
49	0xbef9c62a	-0.48784
50	0xbeff5915	-0.49872652
51	0x3f8db527	1.1070908
52	0x3f93a346	1.1534202
53	0x3f414385	0.7549365
54	0xbea32113	-0.3186117
55	0xbf1ee769	-0.62071854
56	0x3ea46821	0.32110694
57	0x3e3515d4	0.17684108
58	0x3f58ae49	0.8464094
59	0x3f77eb66	0.96843565
60	0xbee9bb6c	-0.45650804
61	0xbf63b53e	-0.8894843
62	0xbe57870d	-0.21047612
63	0x3e967dc7	0.29392835
64	0x3f4a168a	0.7894064
65	0x3d93f436	0.07224314
66	0xbf9f85d8	-1.2462721
67	0xbe8faf85	-0.28063598
68	0x3f9ddb0d	1.2332474
69	0x3fa7d7e0	1.3112755
70	0xbf3677ec	-0.71276736
71	0xbf4d964c	-0.8030746
72	0xbded3ebc	-0.11584231
73	0xbfa33e05	-1.2753302
74	0x3ecbe491	0.3982282
75	0xbfd449ab	-1.6584982
76	0xbf21fe0b	-0.63278264
77	0xbf2417d1	-0.6409884
78	0xc005f779	-2.0932295
79	0xbd63211a	-0.05545149
80	0xbe35d0ce	-0.17755434
81	0x3f198485	0.59967834
82	0xbf187bd3	-0.5956394
83	0xbf298066	-0.66211545
84	0x3ea4b133	0.32166442
85	0xbf61d156	-0.88210046
86	0xbf8a457f	-1.0802459
87	0x3f4ea2fc	0.80717444
88	0x3e9c2750	0.30498743
89	0xbe8b078a	-0.2715419
90	0x3e52783e	0.20553681
91	0x3ef3e036	0.47631997
92	0xbed11772	-0.408382
93	0xbdf2baf4	-0.11852065
94	0x3eadda63	0.33955678
95	0xbe1e6e83	-0.15471844
96	0x3f7b1ed4	0.98093915
97	0xbe2e5b2a	-0.17026964
98	0xbf92b0b5	-1.1460177
99	0xbfb21d74	-1.3915238
100	0xbf109608	-0.5647893
101	0x3ee4b835	0.4467179
102	0x3f6e1b26	0.93010175
103	0xbfa7926a	-1.3091557
104	0xbf0b7d4c	-0.5448806
105	0xba8f1070	-0.0010914933
106	0xbf8a4920	-1.0803566
107	0xbf25998a	-0.64687407
108	0x3d6974cc	0.05699615
109	0xbc241440	-0.010014594
110	0xbf1bbeac	-0.6083782
111	0x3f67a9b9	0.9049335
112	0xbdc6dd89	-0.09710223
113	0xbf13da16	-0.5775465
114	0xbf944052	-1.1582129
115	0x3f071016	0.5275892
116	0x3f3e915d	0.74440557
117	0xbfaf9fd7	-1.3720654
118	0x3faa0948	1.3284082
119	0x3ec14cc8	0.37753892
120	0x3fbcde02	1.4755251
121	0xbeadf9ab	-0.33979544
122	0x3f5f3234	0.8718598
123	0xbfd69e83	-1.6767124
124	0xbf999b4a	-1.2000515
125	0x3e861c6c	0.2619356
126	0xbf0f4803	-0.55969256
127	0xbf1b0908	-0.60560656
128	0xbf920a7f	-1.1409453
129	0x3e487f1c	0.19579738
130	0xbd6b73ca	-0.057483472
131	0x3ec54b26	0.38533896
132	0xbfaa992a	-1.3327992
133	0xbccf9884	-0.02534128
134	0x3d4eab94	0.0504566
135	0x3f4b4964	0.7940886
136	0xbfabfc91	-1.3436452
137	0x3e58eeab	0.21184795
138	0xbfc9515f	-1.5727957
139	0xbedb66f2	-0.4285198
140	0x3edc09fc	0.42976367
141	0x3e732ce5	0.23747595
142	0xc0335334	-2.8019533
143	0xbeada8f6	-0.3391797
144	0x3f08eabb	0.5348317
145	0xbe24fc4b	-0.16111867
146	0x3f414c82	0.75507367
147	0xbf32add2	-0.6979648
148	0x3f6522ea	0.895064
149	0xbfb4ae44	-1.4115682
150	0xbd838532	-0.06421889
151	0xbdc3a880	-0.09553623
152	0xbda3bb7f	-0.079947464
153	0xbe9c906b	-0.30578932
154	0xbd1b80bc	-0.037964568
155	0xbfb0e286	-1.381913
156	0x3f913bb3	1.1346344
157	0xbbb31ac0	-0.0054658353
158	0xbf91e1f4	-1.139708
159	0xbeeace35	-0.45860448
160	0xbe80378c	-0.2504238
161	0xbfce67ec	-1.6125464
162	0x3f17ea46	0.5934185
163	0xbfbcf4d4	-1.4762216
164	0x3d6509fe	0.055917732
165	0xbf715688	-0.9427266
166	0x3f39cba2	0.72576344
167	0x3e93367b	0.28752503
168	0xbdbc5ad8	-0.091970146
169	0xbf84b03a	-1.036628
170	0x3e5fc0e1	0.21850921
171	0x3e870792	0.26372963
172	0x3f17dad3	0.59318274
173	0xc012b3b9	-2.2922194
174	0xbe2c47b8	-0.16824234
175	0xbd1c4208	-0.03814891
176	0x3eecac48	0.4622519
177	0xbf97ece7	-1.1869172
178	0x3cf4a25d	0.029862577
179	0x3f82fddf	1.0233725
180	0x3f809970	1.0046825
181	0xbfbc3bdc	-1.4705768
182	0xbf28c5ae	-0.65926635
183	0xbf1affff	-0.6054687
184	0x3eae3872	0.3402744
185	0xbeb8ba61	-0.36079696
186	0x3eb4a413	0.3528143
187	0x3fac8ceb	1.3480505
188	0x3d784464	0.060612097
189	0xbf8a9de2	-1.0829432
190	0x3f471d12	0.7777873
191	0xbf15e4d6	-0.585523
192	0xbf543ca5	-0.82905036
193	0xbeda2e9a	-0.4261368
194	0xbe6dc6c1	-0.2322035
195	0xbefaa3bb	-0.4895304
196	0xbe7e6b17	-0.24845539
197	0x3f71da88	0.9447408
198	0x3f3738d8	0.7157111
199	0xbe9d0756	-0.3066966
200	0x3f4e2ed9	0.80540234
201	0xbe91e0ac	-0.28491724
202	0x3e08b153	0.13348894
203	0x3e50d380	0.20393181
204	0xbc834422	-0.0160237
205	0x3dd8ceb9	0.10586304
206	0x3e36a620	0.17836809
207	0xbeadb946	-0.33930415
208	0xbf0241ee	-0.5088185
209	0xbedc61b5	-0.43043295
210	0x3e57da8a	0.2107946
211	0x3ebdbf56	0.3706004
212	0x3f1233aa	0.57110083
213	0x3cfa822e	0.030579653
214	0x3fbbe47b	1.4679102
215	0x3e6da30f	0.23206733
216	0xbf9172bc	-1.1363139
217	0x3f464858	0.7745414
218	0x3fa17785	1.26146
219	0x3ea34c94	0.31894362
220	0x3f392dc7	0.72335476
221	0xbdfe5f4c	-0.1242052
222	0x3f212a1b	0.6295487
223	0x3efa1611	0.4884496
224	0xbf4a954e	-0.7913407
225	0xbf4c6508	-0.7984166
226	0x3ea4afa2	0.32165247
227	0xbddea596	-0.10871427
228	0x3e2d56ab	0.16927592
229	0xbf5eb64a	-0.869969
230	0xbd033e14	-0.032041624
231	0x3ed4576a	0.41472942
232	0xbe1cf384	-0.15327269
233	0x3e6e1bae	0.23252746
234	0xbf84c2a8	-1.0371904
235	0x3f49401d	0.78613454
236	0xbed5c1e8	-0.417495
237	0xbf4d4052	-0.8017627
238	0x3f50ab96	0.8151182
239	0x3cbfbdd6	0.02340595
240	0x3d64da67	0.055872347
241	0xbf812eb8	-1.0092382
242	0xbe263dca	-0.16234508
243	0xbdc325fe	-0.09528731
244	0xbe2b42b0	-0.16724658
245	0xbf8d7b73	-1.1053299
246	0xbec3c08b	-0.38232836
247	0x3e693a48	0.22776139
248	0xbe5f43d0	-0.21803212
249	0x3e8cb133	0.27478942
250	0x3e194ca2	0.1497064
251	0x3f40c876	0.7530588
252	0xbcff6590	-0.031176358
253	0x3f48c55c	0.78426147
254	0xbe35fcb3	-0.17772178
255	0xbf4ae6e6	-0.79258573

pred_x f4 [1, 25, 151]
0	0x3e811440	0.25210762
1	0x3f16027c	0.5859754
2	0xbcfe7b14	-0.031064548
3	0xbeed34f3	-0.4632946
4	0x3e302c4d	0.172044
5	0x3f177484	0.59162164
6	0xbe5ce893	-0.21573095
7	0xbfc317ba	-1.5241616
8	0xbf4845b8	-0.7823138
9	0x3f9f8368	1.2461977
10	0x3e67dd35	0.22642978
11	0xbf8ee3da	-1.1163285
12	0xbd93359b	-0.07187959
13	0xbd5ca13d	-0.053864706
14	0x3fb24055	1.3925883
15	0x3e5248d9	0.20535602
16	0x3ed132fc	0.4085921
17	0x3f28ddea	0.65963614
18	0x3e18ad15	0.14909776
19	0x3e2ab626	0.16671047
20	0x3eabfe9c	0.3359269
21	0xbe9a306e	-0.30115074
22	0x3ed20e15	0.4102637
23	0x3e12e516	0.14345202
24	0x3d7c1404	0.061542526
25	0xbee265d5	-0.44218317
26	0xbe82251f	-0.25418946
27	0x3eeac686	0.45854586
28	0x3efc2f0e	0.4925465
29	0x3f04cb77	0.5187296
30	0x3e401c69	0.18760838
31	0x3f4b647b	0.79450196
32	0x3f9bdb68	1.2176332
33	0xbf398bc7	-0.7247891
34	0x3eb8ce86	0.36095065
35	0xbecbcf65	-0.39806667
36	0x3eb7f758	0.35930896
37	0x3f5ffb86	0.8749317
38	0xbf194a9f	-0.5987949
39	0xbf591e2b	-0.8481166
40	0x3e9ae283	0.3025094
41	0xbf515360	-0.81767845
42	0x3e96a7a2	0.2942477
43	0x3f7d19ad	0.98867303
44	0x3eae4582	0.34037405
45	0xbf7c7347	-0.986134
46	0xbd3095f4	-0.043111756
47	0x3f331748	0.699574
48	0x3d6c002e	0.05761736
49	0x3facd4b3	1.3502411
50	0x3f769ba6	0.9633125
51	0xbfaa3832	-1.32984
52	0x3f16d215	0.5891431
53	0x3f4876b3	0.7830612
54	0x3d49d40e	0.049274497
55	0xbf4ba4dc	-0.7954843
56	0xbc8ef931	-0.017452808
57	0x3f5bf392	0.85918534
58	0x3e024c4d	0.12724419
59	0xbf1d9b9b	-0.6156556
60	0x3da63c5f	0.081169836
61	0xbf6bea2a	-0.9215418
62	0xbf29d82b	-0.6634547
63	0x3f6b7666	0.91977537
64	0x3dfcac44	0.123375446
65	0xbd80ff00	-0.062986374
66	0xbf737c67	-0.951117
67	0x3f9507f4	1.1643052
68	0x3fd42f13	1.6576866
69	0xbf5d6cb7	-0.8649401
70	0x3ec28c95	0.3799788
71	0xbe397aa9	-0.18113197
72	0xbdb6d16b	-0.08926662
73	0x3eebeb01	0.4607773
74	0x3f5ec012	0.87011826
75	0xbef18524	-0.4717189
76	0xbdc1eb5a	-0.09468718
77	0xbee3302e	-0.44372696
78	0x3f3cd68f	0.7376489
79	0xbe0467ae	-0.12930176
80	0xbf20adf2	-0.6276542
81	0x3da2be59	0.07946462
82	0x3f2a6b86	0.6657032
83	0xbeddc92f	-0.43317553
84	0xbecb5346	-0.3971197
85	0x3f80953f	1.0045546
86	0x3fd3f898	1.656024
87	0xbf6a6575	-0.9156106
88	0x3eb8d66a	0.36101085
89	0xbf28dc6a	-0.65961325
90	0xbd13202a	-0.035919346
91	0x3ec77757	0.38958237
92	0x3f13b716	0.5770124
93	0xbeb46f36	-0.35241097
94	0xbddbab94	-0.10726085
95	0xbe686187	-0.22693454
96	0xbf1d1550	-0.61360645
97	0xbf28f0c2	-0.6599237
98	0xbe09cb06	-0.13456354
99	0x3f2ef232	0.6833831
100	0xbf59f1d9	-0.85134655
101	0xbf6807b2	-0.9063674
102	0x3f4c6ec1	0.798565
103	0x3e92f44a	0.28702003
104	0x3f6a739b	0.9158265
105	0xbde1c288	-0.11023432
106	0x3f23976e	0.6390294
107	0x3e4d83de	0.20069835
108	0x3f1b1f01	0.60594183
109	0xbe8cd229	-0.2750409
110	0xbeb9abc9	-0.36263874
111	0x3f32e1e2	0.6987592
112	0x3ed98b58	0.42489123
113	0xbef69a56	-0.48164624
114	0x3f0c5582	0.54817975
115	0x3e5f0ec4	0.21782976
116	0x3d189ee4	0.037260905
117	0xbe58017e	-0.21094319
118	0x3f2ef1eb	0.6833789
119	0x3e0d29c1	0.13785459
120	0x3e5850fa	0.2112464
121	0xbee5b5fe	-0.44865412
122	0xbe67a8a0	-0.22622919
123	0x3ee8e41f	0.45486543
124	0x3f0da971	0.5533667
125	0x3e7dd148	0.24786866
126	0xbea04e43	-0.3130971
127	0xc010cc53	-2.262471
128	0xbead0ea5	-0.33800235
129	0x3eb81ccf	0.3595948
130	0x3f926df1	1.1439801
131	0x3fb8870c	1.4416213
132	0x3f092afc	0.53581214
133	0x3db871a8	0.09006053
134	0xbe2828ae	-0.16421768
135	0x3ea1614f	0.31519553
136	0x3f389cbc	0.7211416
137	0x3ed477dd	0.41497698
138	0xbf987677	-1.1911153
139	0xbf3215d4	-0.6956456
140	0xbe5c4ee9	-0.21514477
141	0xbed5bd53	-0.41746005
142	0x3f5458bc	0.829479
143	0x3e760ec9	0.24029078
144	0xbfae460a	-1.3615124
145	0x3d8224a4	0.06354645
146	0x3c2f2760	0.01069054
147	0xbe8a8528	-0.27054715
148	0x3c33c050	0.010971144
149	0x3dc418dd	0.09575055
150	0xbf015fcc	-0.505368
151	0x3e8114ae	0.2521109
152	0x3f15dd5d	0.585409
153	0xbd00c7de	-0.03144061
154	0xbeeccb7e	-0.46249002
155	0x3e301637	0.17195974
156	0x3f177fb1	0.59179217
157	0xbe5cf5ac	-0.21578091
158	0xbfc320bc	-1.5244365
159	0xbf4834b8	-0.7820544
160	0x3f9f8866	1.24635
161	0x3e67d971	0.22641541
162	0xbf8ee83b	-1.1164621
163	0xbd93cee0	-0.07217193
164	0xbd5ba417	-0.053623285
165	0x3fb24030	1.3925838
166	0x3e51d3cf	0.20490955
167	0x3ed13a95	0.40865007
168	0x3f28ee68	0.6598878
169	0x3e18a2e6	0.14905891
170	0x3e2a5092	0.16632298
171	0x3eabb0db	0.33533368
172	0xbe99f47e	-0.30069345
173	0x3ed22488	0.41043496
174	0x3e12e84c	0.14346427
175	0x3d7b435e	0.061343543
176	0xbee28fa0	-0.44250202
177	0xbe81f4d2	-0.25382096
178	0x3eeb0f3f	0.4591007
179	0x3efc377c	0.4926108
180	0x3f04d17c	0.5188215
181	0x3e406431	0.1878822
182	0x3f4b5226	0.79422224
183	0x3f9bd17a	1.2173302
184	0xbf39794b	-0.72450703
185	0x3eb8831a	0.36037523
186	0xbecbc413	-0.3979803
187	0x3eb7fb33	0.35933837
188	0x3f601b16	0.8754133
189	0xbf193935	-0.59852916
190	0xbf594430	-0.8486967
191	0x3e9ab199	0.3021362
192	0xbf51519e	-0.8176516
193	0x3e968264	0.29396355
194	0x3f7cff66	0.9882721
195	0x3eae3aa8	0.34029126
196	0xbf7c5c43	-0.9857828
197	0xbd301ad1	-0.042994324
198	0x3f330609	0.69931084
199	0x3d6c65ae	0.057714157
200	0x3facb712	1.3493369
201	0x3f76a7a7	0.9634957
202	0xbfaa1b1a	-1.3289521
203	0x3f16d611	0.5892039
204	0x3f4853f7	0.7825312
205	0x3d4996ee	0.049216203
206	0xbf4ba44d	-0.7954758
207	0xbc8e9b8b	-0.017408153
208	0x3f5bf498	0.85920095
209	0x3e024992	0.12723377
210	0xbf1d9f5e	-0.615713
211	0x3da57ec5	0.0808082
212	0xbf6be821	-0.92151076
213	0xbf29c287	-0.6631245
214	0x3f6b72ef	0.9197225
215	0x3dfc90a6	0.12332277
216	0xbd815458	-0.063149154
217	0xbf73379e	-0.9500674
218	0x3f950e3b	1.1644968
219	0x3fd4147e	1.6568754
220	0xbf5d877a	-0.86534846
221	0x3ec2275a	0.37920648
222	0xbe39cbe9	-0.18144192
223	0xbdb6d189	-0.089266844
224	0x3eebcbac	0.46053827
225	0x3f5ed43b	0.8704259
226	0xbef17014	-0.4715582
227	0xbdc187cb	-0.094497286
228	0xbee3461e	-0.44389433
229	0x3f3ce2de	0.7378367
230	0xbe044aed	-0.12919207
231	0xbf20c704	-0.62803674
232	0x3da25bae	0.07927643
233	0x3f2a5a52	0.6654407
234	0xbedda7a4	-0.43291962
235	0xbecb68dc	-0.3972844
236	0x3f80924e	1.0044649
237	0x3fd3ef01	1.6557313
238	0xbf6a5e94	-0.91550565
239	0x3eb8eb8c	0.36117208
240	0xbf28cef3	-0.6594078
241	0xbd132d3e	-0.03593182
242	0x3ec7871a	0.38970262
243	0x3f13b870	0.57703304
244	0xbeb48192	-0.35255104
245	0xbddc0def	-0.10744845
246	0xbe685ade	-0.22690913
247	0xbf1d109a	-0.61353457
248	0xbf28e5a5	-0.6597541
249	0xbe09ab61	-0.13444282
250	0x3f2ee5cb	0.68319386
251	0xbf59f4af	-0.8513898
252	0xbf67fca6	-0.90619886
253	0x3f4c6c04	0.7985232
254	0x3e92ac87	0.28647253
255	0x3f6a6b24	0.91569734
