inputs/motion_bank/love2/hmr4d_results.pt (torch, 593535 bytes, 25 tensors)

body_pose f4 [135, 63]
000000 33 cf 61 3d fa 36 aa 3c 0b 05 f1 bc bf 33 db 3c
       0.05512924 0.020778168 -0.02942135 0.026758073
000010 a5 c8 f0 bb 88 15 88 3d 40 e3 75 3d 62 05 a1 3c
       -0.0073481374 0.06644732 0.060031176 0.019655887
000020 2a 79 50 3c 2c 5c 99 3d 12 2e c0 bd 63 fa 87 bc
       0.0127242 0.074882835 -0.09383787 -0.016598886
000030 39 34 05 3e 16 b9 1d 3d 7c 01 95 3b 58 ae 8e bd
       0.13008203 0.03850659 0.004547296 -0.06966847
000040 68 7c 20 bd f4 15 3d bc 35 fa 04 be 71 1e 55 3e
       -0.039181143 -0.011540879 -0.12986071 0.20812394
000050 e6 98 63 3d bc d1 18 be 7a cf 18 be 1e 7c e2 bc
       0.055565737 -0.14923757 -0.14922896 -0.027647074
000060 f1 75 db 3d bc f6 37 bc 34 e9 7c 3b 6f 9f c8 bb
       0.10715855 -0.01122826 0.0038591148 -0.0061225216
000070 68 92 a7 bc 84 ac 2d 3d a8 7d 30 bb e4 45 83 3c
       -0.020455554 0.04240085 -0.0026930366 0.016024537
000080 db 9b 3a 3d e5 fb 06 3d 57 5b 89 bc 0d a7 ec bb
       0.04555879 0.03295507 -0.016767187 -0.0072220624
000090 c4 2c e3 bc 75 5a 1d bd 17 98 3a be a0 e7 81 bd
       -0.027731307 -0.038416345 -0.1822208 -0.06343007
0000a0 54 0c a8 3d fd 0f 00 3e 14 9e ae bb 80 b8 5c bc
       0.082054764 0.12506099 -0.005328903 -0.013471723
0000b0 14 f1 73 3c 01 f8 62 3e e6 57 9e be 42 65 84 bf
       0.0148890205 0.22164918 -0.30926436 -1.0343401
0000c0 5c 81 93 3e 28 3b 8e 3e 1a 26 8d 3f 85 5e f9 3e
       0.2880963 0.27779508 1.1027253 0.48704925
0000d0 23 f4 df be 7d 1b 06 bd c3 4f a3 3e 7a 01 fb 3e
       -0.4374095 -0.03274106 0.3189679 0.49024564
0000e0 86 26 30 3d b1 74 07 bc d1 0c ac bd de 0c 31 3e
       0.04300549 -0.0082675675 -0.08400882 0.17290065
0000f0 10 0c 14 be e6 68 91 3d 36 04 f3 bd 9c 2b 5d 3d
       -0.14457726 0.07100086 -0.118660375 0.053996667
000100 e5 d6 a6 3c 6e e8 eb bc 09 0c d4 3c 7b 4e c8 bb
       0.020366142 -0.028797355 0.025884645 -0.006112871
000110 a6 86 89 3d a5 e7 7d 3d da e9 a3 3c fd cd 6b 3c
       0.06715135 0.06198849 0.02000897 0.014392373
000120 47 2f a8 3d f1 e5 c5 bd 4c 50 89 bc bf 90 0b 3e
       0.082121424 -0.096629985 -0.016761921 0.13629435
000130 ca 7a 1f 3d f0 4d ad 3b 2a 52 91 bd 06 ae 1a bd
       0.03893546 0.005288832 -0.0709575 -0.037763618
000140 17 97 51 bc b6 e8 06 be bd 5e 59 3e 90 da 66 3d
       -0.01279237 -0.1317471 0.21227546 0.05636078
000150 80 57 19 be 68 e3 19 be cf 1e ef bc 29 d8 dc 3d
       -0.14974785 -0.15028155 -0.029189495 0.10783417
000160 47 73 2f bc ff 19 93 3b 3c bd aa bb 61 fc a9 bc
       -0.010708637 0.004489183 -0.005210547 -0.020750226
000170 18 64 2b 3d 11 1b 32 bb c6 62 80 3c 1c 23 3a 3d
       0.041843504 -0.0027176777 0.015672099 0.04544364
000180 ac ea ce 3c 33 44 79 bc a5 a8 16 bc be e5 fd bc
       0.025258385 -0.015214014 -0.009195481 -0.030993339
000190 55 92 17 bd bc dd 3d be bc cc 84 bd 19 8d a6 3d
       -0.037004787 -0.18541616 -0.064843625 0.08132381
0001a0 5f a0 03 3e a6 31 3e bc e7 a4 5d bc 96 d6 52 3c
       0.12854145 -0.011608517 -0.013528085 0.012868544
0001b0 bd eb 60 3e c2 ec 9c be e2 49 85 bf 19 56 93 3e
       0.21964927 -0.30649382 -1.0413172 0.28776625
0001c0 ae 1d 8a 3e 9d 9e 8d 3f c6 1b f7 3e 9f a5 d7 be
       0.2697577 1.106403 0.48263377 -0.42118546
0001d0 ce 42 df bc cf 9e a0 3e 28 eb f7 3e 47 1e 1f 3d
       -0.027253535 0.3137116 0.48421597 0.038847234
0001e0 40 34 8d bc 07 5d ad bd de 74 2b 3e 18 02 1c be
       -0.017236829 -0.08465009 0.167438 -0.15235174
0001f0 64 2d 95 3d b9 f6 e8 bd 27 6b 5c 3d b5 ab a7 3c
       0.07284048 -0.113751836 0.053813126 0.020467618
000200 3c b0 e6 bc 63 a9 d5 3c 69 de b0 bb f8 8b 8a 3d
       -0.028160207 0.026081746 -0.005397607 0.06764978
000210 d1 80 83 3d d1 40 a8 3c 79 83 80 3c 66 28 b4 3d
       0.06421054 0.02053872 0.015687691 0.08796768
000220 48 7a cb bd 6d fe 8c bc 75 e2 0f 3e 4d 6d 26 3d
       -0.09935433 -0.017211163 0.1405123 0.04063158
000230 a6 26 c6 3b 27 e0 93 bd 07 17 16 bd 0d 28 5c bc
       0.0060470877 -0.07220488 -0.036643054 -0.013437283
000240 35 1b 08 be b3 d6 5d 3e 2b 52 6a 3d f4 7b 19 be
       -0.13291629 0.21663933 0.057207268 -0.1498869
000250 ec d3 1a be 52 90 f8 bc a8 68 dd 3d 36 6e 2a bc
       -0.15119904 -0.030342255 0.10810977 -0.010402253
000260 1d 20 a3 3b 63 b0 97 bb 4f da a9 bc a2 27 2a 3d
       0.0049781934 -0.004629181 -0.02073398 0.041541703
000270 4d a2 29 bb 43 04 7f 3c 66 ad 38 3d b7 d7 9f 3c
       -0.0025884092 0.015564981 0.04508724 0.01951204
000280 4b d0 5a bc eb 4b 2d bc 9c 96 06 bd 9b e3 0c bd
       -0.013355325 -0.010577182 -0.032858476 -0.03439675
000290 d2 4e 40 be da 28 87 bd bf 5d a3 3d bf a2 06 3e
       -0.18780068 -0.06599589 0.07976865 0.1314802
0002a0 88 5e 80 bc 94 0e 53 bc be 59 34 3c aa 79 60 3e
       -0.015670076 -0.012881894 0.011007724 0.21921411
0002b0 ba ae 9a be 60 07 86 bf 79 8a 93 3e 8d a3 86 3e
       -0.3021143 -1.0471001 0.28816584 0.26296654
0002c0 f3 17 8e 3f cd c1 f4 3e af 28 d1 be 6a ab c9 bc
       1.1101059 0.47804108 -0.40851352 -0.02461787
0002d0 32 45 9e 3e ee 3b f5 3e c2 36 13 3d 2d 3b d3 bc
       0.30912167 0.47897285 0.035940893 -0.025785053
0002e0 0c ac ad bd 20 a4 26 3e 12 6a 21 be 6c 54 96 3d
       -0.08480081 0.16273546 -0.15763119 0.07340321
0002f0 c6 fb e2 bd 4e f6 56 3d 10 21 a9 3c 49 dc e2 bc
       -0.11083178 0.05248099 0.020645648 -0.02769293
000300 61 ee d9 3c 4e 59 99 bb 1c 65 8b 3d 6f 4d 87 3d
       0.026602926 -0.0046798354 0.068063945 0.06606566
000310 02 1f ab 3c 81 4e 87 3c 45 b9 b9 3d 5b fb ce bd
       0.02088881 0.016516926 0.090685405 -0.10106536
000320 70 dd 91 bc 7d 49 0e 3e fe 06 2f 3d 6b 37 c5 3b
       -0.017805785 0.13895221 0.042731278 0.006018569
000330 4d ba 95 bd 97 1c 13 bd 76 5b 64 bc 92 91 08 be
       -0.07310925 -0.035915937 -0.013937822 -0.1333678
000340 c7 42 60 3e 7d ea 6a 3d 6e f3 17 be 5d a8 1b be
       0.21900474 0.05735253 -0.14838955 -0.15200944
000350 a1 20 fc bc bf aa dd 3d e6 1a 2a bc c5 af b3 3b
       -0.030777277 0.10823583 -0.01038239 0.0054836
000360 38 18 95 bb bb fa a6 bc 63 df 29 3d c0 3b 0b bb
       -0.0045500062 -0.02038323 0.041472804 -0.002124533
000370 25 67 7f 3c a7 60 37 3d 71 c0 80 3c 47 cd 48 bc
       0.015588556 0.04476991 0.015716763 -0.012255973
000380 40 48 38 bc d1 ec 06 bd ff 17 fe bc ee 0d 44 be
       -0.0112476945 -0.03294069 -0.031017302 -0.19145939
000390 d9 02 8b bd 85 a2 9f 3d f8 f5 08 3e a7 ae 8c bc
       -0.067876525 0.0779467 0.1337508 -0.017173124
0003a0 4a 5e 42 bc c6 00 1f 3c af 13 5f 3e 43 38 98 be
       -0.011863301 0.009704774 0.21784852 -0.29730424
0003b0 0b b3 86 bf b7 66 93 3e 49 4a 84 3e 61 96 8e 3f
       -1.052339 0.28789303 0.25837925 1.1139642
0003c0 37 13 f2 3e e6 43 c9 be a0 94 c7 bc 29 91 9c 3e
       0.47280285 -0.39309615 -0.024362862 0.30579498
0003d0 80 58 f0 3e ae 4f 0b 3d 10 f7 ec bc 12 17 ac bd
       0.4694252 0.034011535 -0.028926402 -0.08402838
0003e0 59 4c 21 3e 9e d8 22 be 4e 36 94 3d 78 c4 db bd
       0.1575178 -0.15902945 0.0723692 -0.10730833
0003f0 46 17 50 3d cc 3d ab 3c de e0 e1 bc 9d a3 dd 3c
       0.050803445 0.02090349 -0.027573045 0.027055556

betas f4 [135, 10]
000000 f0 67 2c 3f 04 51 bc be af 75 b7 3e 98 77 30 bf
       0.67346096 -0.3678056 0.35831973 -0.68932486
000010 60 fc 0e bd 70 50 bd be 3d 00 1f be 56 28 64 be
       -0.034908652 -0.3697543 -0.15527435 -0.22281012
000020 c4 88 5e be 04 f5 12 be f0 67 2c 3f 04 51 bc be
       -0.2173186 -0.14351279 0.67346096 -0.3678056
000030 af 75 b7 3e 98 77 30 bf 60 fc 0e bd 70 50 bd be
       0.35831973 -0.68932486 -0.034908652 -0.3697543
000040 3d 00 1f be 56 28 64 be c4 88 5e be 04 f5 12 be
       -0.15527435 -0.22281012 -0.2173186 -0.14351279
000050 f0 67 2c 3f 04 51 bc be af 75 b7 3e 98 77 30 bf
       0.67346096 -0.3678056 0.35831973 -0.68932486
000060 60 fc 0e bd 70 50 bd be 3d 00 1f be 56 28 64 be
       -0.034908652 -0.3697543 -0.15527435 -0.22281012
000070 c4 88 5e be 04 f5 12 be f0 67 2c 3f 04 51 bc be
       -0.2173186 -0.14351279 0.67346096 -0.3678056
000080 af 75 b7 3e 98 77 30 bf 60 fc 0e bd 70 50 bd be
       0.35831973 -0.68932486 -0.034908652 -0.3697543
000090 3d 00 1f be 56 28 64 be c4 88 5e be 04 f5 12 be
       -0.15527435 -0.22281012 -0.2173186 -0.14351279
0000a0 f0 67 2c 3f 04 51 bc be af 75 b7 3e 98 77 30 bf
       0.67346096 -0.3678056 0.35831973 -0.68932486
0000b0 60 fc 0e bd 70 50 bd be 3d 00 1f be 56 28 64 be
       -0.034908652 -0.3697543 -0.15527435 -0.22281012
0000c0 c4 88 5e be 04 f5 12 be f0 67 2c 3f 04 51 bc be
       -0.2173186 -0.14351279 0.67346096 -0.3678056
0000d0 af 75 b7 3e 98 77 30 bf 60 fc 0e bd 70 50 bd be
       0.35831973 -0.68932486 -0.034908652 -0.3697543
0000e0 3d 00 1f be 56 28 64 be c4 88 5e be 04 f5 12 be
       -0.15527435 -0.22281012 -0.2173186 -0.14351279
0000f0 f0 67 2c 3f 04 51 bc be af 75 b7 3e 98 77 30 bf
       0.67346096 -0.3678056 0.35831973 -0.68932486
000100 60 fc 0e bd 70 50 bd be 3d 00 1f be 56 28 64 be
       -0.034908652 -0.3697543 -0.15527435 -0.22281012
000110 c4 88 5e be 04 f5 12 be f0 67 2c 3f 04 51 bc be
       -0.2173186 -0.14351279 0.67346096 -0.3678056
000120 af 75 b7 3e 98 77 30 bf 60 fc 0e bd 70 50 bd be
       0.35831973 -0.68932486 -0.034908652 -0.3697543
000130 3d 00 1f be 56 28 64 be c4 88 5e be 04 f5 12 be
       -0.15527435 -0.22281012 -0.2173186 -0.14351279
000140 f0 67 2c 3f 04 51 bc be af 75 b7 3e 98 77 30 bf
       0.67346096 -0.3678056 0.35831973 -0.68932486
000150 60 fc 0e bd 70 50 bd be 3d 00 1f be 56 28 64 be
       -0.034908652 -0.3697543 -0.15527435 -0.22281012
000160 c4 88 5e be 04 f5 12 be f0 67 2c 3f 04 51 bc be
       -0.2173186 -0.14351279 0.67346096 -0.3678056
000170 af 75 b7 3e 98 77 30 bf 60 fc 0e bd 70 50 bd be
       0.35831973 -0.68932486 -0.034908652 -0.3697543
000180 3d 00 1f be 56 28 64 be c4 88 5e be 04 f5 12 be
       -0.15527435 -0.22281012 -0.2173186 -0.14351279
000190 f0 67 2c 3f 04 51 bc be af 75 b7 3e 98 77 30 bf
       0.67346096 -0.3678056 0.35831973 -0.68932486
0001a0 60 fc 0e bd 70 50 bd be 3d 00 1f be 56 28 64 be
       -0.034908652 -0.3697543 -0.15527435 -0.22281012
0001b0 c4 88 5e be 04 f5 12 be f0 67 2c 3f 04 51 bc be
       -0.2173186 -0.14351279 0.67346096 -0.3678056
0001c0 af 75 b7 3e 98 77 30 bf 60 fc 0e bd 70 50 bd be
       0.35831973 -0.68932486 -0.034908652 -0.3697543
0001d0 3d 00 1f be 56 28 64 be c4 88 5e be 04 f5 12 be
       -0.15527435 -0.22281012 -0.2173186 -0.14351279
0001e0 f0 67 2c 3f 04 51 bc be af 75 b7 3e 98 77 30 bf
       0.67346096 -0.3678056 0.35831973 -0.68932486
0001f0 60 fc 0e bd 70 50 bd be 3d 00 1f be 56 28 64 be
       -0.034908652 -0.3697543 -0.15527435 -0.22281012
000200 c4 88 5e be 04 f5 12 be f0 67 2c 3f 04 51 bc be
       -0.2173186 -0.14351279 0.67346096 -0.3678056
000210 af 75 b7 3e 98 77 30 bf 60 fc 0e bd 70 50 bd be
       0.35831973 -0.68932486 -0.034908652 -0.3697543
000220 3d 00 1f be 56 28 64 be c4 88 5e be 04 f5 12 be
       -0.15527435 -0.22281012 -0.2173186 -0.14351279
000230 f0 67 2c 3f 04 51 bc be af 75 b7 3e 98 77 30 bf
       0.67346096 -0.3678056 0.35831973 -0.68932486
000240 60 fc 0e bd 70 50 bd be 3d 00 1f be 56 28 64 be
       -0.034908652 -0.3697543 -0.15527435 -0.22281012
000250 c4 88 5e be 04 f5 12 be f0 67 2c 3f 04 51 bc be
       -0.2173186 -0.14351279 0.67346096 -0.3678056
000260 af 75 b7 3e 98 77 30 bf 60 fc 0e bd 70 50 bd be
       0.35831973 -0.68932486 -0.034908652 -0.3697543
000270 3d 00 1f be 56 28 64 be c4 88 5e be 04 f5 12 be
       -0.15527435 -0.22281012 -0.2173186 -0.14351279
000280 f0 67 2c 3f 04 51 bc be af 75 b7 3e 98 77 30 bf
       0.67346096 -0.3678056 0.35831973 -0.68932486
000290 60 fc 0e bd 70 50 bd be 3d 00 1f be 56 28 64 be
       -0.034908652 -0.3697543 -0.15527435 -0.22281012
0002a0 c4 88 5e be 04 f5 12 be f0 67 2c 3f 04 51 bc be
       -0.2173186 -0.14351279 0.67346096 -0.3678056
0002b0 af 75 b7 3e 98 77 30 bf 60 fc 0e bd 70 50 bd be
       0.35831973 -0.68932486 -0.034908652 -0.3697543
0002c0 3d 00 1f be 56 28 64 be c4 88 5e be 04 f5 12 be
       -0.15527435 -0.22281012 -0.2173186 -0.14351279
0002d0 f0 67 2c 3f 04 51 bc be af 75 b7 3e 98 77 30 bf
       0.67346096 -0.3678056 0.35831973 -0.68932486
0002e0 60 fc 0e bd 70 50 bd be 3d 00 1f be 56 28 64 be
       -0.034908652 -0.3697543 -0.15527435 -0.22281012
0002f0 c4 88 5e be 04 f5 12 be f0 67 2c 3f 04 51 bc be
       -0.2173186 -0.14351279 0.67346096 -0.3678056
000300 af 75 b7 3e 98 77 30 bf 60 fc 0e bd 70 50 bd be
       0.35831973 -0.68932486 -0.034908652 -0.3697543
000310 3d 00 1f be 56 28 64 be c4 88 5e be 04 f5 12 be
       -0.15527435 -0.22281012 -0.2173186 -0.14351279
000320 f0 67 2c 3f 04 51 bc be af 75 b7 3e 98 77 30 bf
       0.67346096 -0.3678056 0.35831973 -0.68932486
000330 60 fc 0e bd 70 50 bd be 3d 00 1f be 56 28 64 be
       -0.034908652 -0.3697543 -0.15527435 -0.22281012
000340 c4 88 5e be 04 f5 12 be f0 67 2c 3f 04 51 bc be
       -0.2173186 -0.14351279 0.67346096 -0.3678056
000350 af 75 b7 3e 98 77 30 bf 60 fc 0e bd 70 50 bd be
       0.35831973 -0.68932486 -0.034908652 -0.3697543
000360 3d 00 1f be 56 28 64 be c4 88 5e be 04 f5 12 be
       -0.15527435 -0.22281012 -0.2173186 -0.14351279
000370 f0 67 2c 3f 04 51 bc be af 75 b7 3e 98 77 30 bf
       0.67346096 -0.3678056 0.35831973 -0.68932486
000380 60 fc 0e bd 70 50 bd be 3d 00 1f be 56 28 64 be
       -0.034908652 -0.3697543 -0.15527435 -0.22281012
000390 c4 88 5e be 04 f5 12 be f0 67 2c 3f 04 51 bc be
       -0.2173186 -0.14351279 0.67346096 -0.3678056
0003a0 af 75 b7 3e 98 77 30 bf 60 fc 0e bd 70 50 bd be
       0.35831973 -0.68932486 -0.034908652 -0.3697543
0003b0 3d 00 1f be 56 28 64 be c4 88 5e be 04 f5 12 be
       -0.15527435 -0.22281012 -0.2173186 -0.14351279
0003c0 f0 67 2c 3f 04 51 bc be af 75 b7 3e 98 77 30 bf
       0.67346096 -0.3678056 0.35831973 -0.68932486
0003d0 60 fc 0e bd 70 50 bd be 3d 00 1f be 56 28 64 be
       -0.034908652 -0.3697543 -0.15527435 -0.22281012
0003e0 c4 88 5e be 04 f5 12 be f0 67 2c 3f 04 51 bc be
       -0.2173186 -0.14351279 0.67346096 -0.3678056
0003f0 af 75 b7 3e 98 77 30 bf 60 fc 0e bd 70 50 bd be
       0.35831973 -0.68932486 -0.034908652 -0.3697543

global_orient f4 [135, 3]
000000 7c 63 c8 bc b7 06 46 c0 f3 19 a1 bd 04 be bf bc
       -0.0244615 -3.0941598 -0.078662775 -0.023406036
000010 7b 1f 46 c0 46 09 a2 bd 79 c0 bb bc 62 4f 46 c0
       -3.0956714 -0.07911925 -0.022918927 -3.0985951
000020 2d c0 a4 bd 71 ae b9 bc ae 75 46 c0 4f 15 a9 bd
       -0.08044467 -0.022666188 -3.1009326 -0.082560174
000030 59 17 b6 bc 03 a2 46 c0 55 db aa bd 7c c2 b1 bc
       -0.02222793 -3.1036384 -0.083426155 -0.021699183
000040 de cb 46 c0 13 9c a9 bd c0 fb aa bc f8 e8 46 c0
       -3.106193 -0.08281722 -0.020871997 -3.1079693
000050 e3 bc a2 bd 83 92 70 bc 74 27 47 c0 b8 7b 94 bd
       -0.079461835 -0.014683369 -3.111783 -0.0725016
000060 3c cc 25 bc bd 41 47 c0 bb 04 8c bd c3 a4 ca bb
       -0.010119494 -3.1133873 -0.0683684 -0.006184192
000070 c3 71 47 c0 00 91 8e bd a5 15 52 bb 1c 90 47 c0
       -3.1163185 -0.0696125 -0.0032056358 -3.1181707
000080 8e 8a 8e bd 6a 12 e4 bb 04 77 47 c0 85 be 91 bd
       -0.06960021 -0.006960203 -3.1166391 -0.07116417
000090 01 b9 9e bb b7 4f 47 c0 d1 f8 93 bd 64 db 2f bc
       -0.0048438315 -3.1142404 -0.07225192 -0.010733459
0000a0 b1 56 47 c0 1a a9 98 bd 9c 2f a3 bc e4 59 47 c0
       -3.1146662 -0.074541286 -0.019920163 -3.1148615
0000b0 39 1b b3 bd 3d 0b b7 bc 3c 76 47 c0 c8 ca c7 bd
       -0.08745427 -0.022344226 -3.1165915 -0.09755474
0000c0 5e 3f dd bc 51 4f 47 c0 d8 af e7 bd 9b d4 e9 bc
       -0.027007755 -3.114216 -0.113128364 -0.028543761
0000d0 44 0f 47 c0 85 93 fe bd b3 3c 0d bd 05 12 47 c0
       -3.1103067 -0.12430481 -0.034481715 -3.1104748
0000e0 84 86 09 be 3f 60 10 bd a1 8d 46 c0 ee 18 11 be
       -0.1343022 -0.035248037 -3.1023943 -0.14169666
0000f0 9b fd fd bc b1 77 46 c0 b9 d4 14 be 25 15 e2 bc
       -0.031004718 -3.1010554 -0.14534272 -0.027597973
000100 db 07 46 c0 91 b2 0f be 26 49 ed bc 12 a9 45 c0
       -3.0942295 -0.14032961 -0.028965544 -3.0884442
000110 c6 6a 0e be cd 3e ed bc e6 53 45 c0 0b 4c 0c be
       -0.13907918 -0.02896061 -3.0832458 -0.13700883
000120 1b 1a f3 bc c3 03 45 c0 0b 5f 0a be cc 3d 00 bd
       -0.029675534 -3.0783546 -0.13512819 -0.031308934
000130 0c b7 44 c0 06 0c 0c be 35 05 0b bd ac 73 44 c0
       -3.0736723 -0.13676462 -0.033940513 -3.06956
000140 2b 54 0e be f5 6e 0a bd b2 3b 44 c0 3c bc 13 be
       -0.13899295 -0.033797223 -3.0661435 -0.14427274
000150 da b7 00 bd fe 08 44 c0 8c 34 16 be 58 91 e8 bc
       -0.031425335 -3.0630488 -0.14668483 -0.028389618
000160 75 e6 43 c0 48 3c 16 be 71 c0 d0 bc 0a d8 43 c0
       -3.060941 -0.14671433 -0.025482388 -3.060061
000170 22 2b 17 be 5f ad ce bc 36 c0 43 c0 4c a4 16 be
       -0.14762548 -0.025229154 -3.0586066 -0.14711112
000180 e8 df d0 bc 3b ad 43 c0 7c c1 15 be c0 27 d5 bc
       -0.025497392 -3.0574481 -0.1462459 -0.02601993
000190 97 ac 43 c0 90 8d 14 be 93 74 d2 bc d0 b6 43 c0
       -3.057409 -0.14507127 -0.025690353 -3.058033
0001a0 c0 73 12 be 77 de d3 bc 24 c3 43 c0 96 1f 11 be
       -0.14301968 -0.025862915 -3.0587854 -0.14172205
0001b0 3d 21 d8 bc 4a c4 43 c0 78 e3 10 be 28 e8 d5 bc
       -0.026383037 -3.0588555 -0.14149272 -0.026111677
0001c0 4a ca 43 c0 f8 c2 11 be 5f 96 d5 bc 5a d5 43 c0
       -3.0592217 -0.14234531 -0.02607268 -3.059897
0001d0 96 75 12 be 1e 54 d6 bc b1 e0 43 c0 79 68 13 be
       -0.14302668 -0.026163157 -3.060589 -0.14395322
0001e0 2f bb d6 bc db ec 43 c0 55 55 14 be c7 ee d7 bc
       -0.026212303 -3.0613315 -0.14485677 -0.026358975
0001f0 1b e4 43 c0 05 de 13 be 8e a5 db bc b2 e7 43 c0
       -3.0607975 -0.14440162 -0.026812341 -3.0610166
000200 ce a4 12 be 19 96 eb bc 49 ff 43 c0 4c 22 0f be
       -0.1432068 -0.028758096 -3.0624564 -0.13977927
000210 f1 b2 01 bd 51 19 44 c0 7d 6b 0e be e7 2d 04 bd
       -0.031664792 -3.0640452 -0.13908191 -0.03227034
000220 b8 2f 44 c0 bb e0 0b be 76 99 fe bc 32 79 44 c0
       -3.0654125 -0.13659947 -0.031079035 -3.0698972
000230 ee 68 0e be d8 11 01 bd 95 70 44 c0 37 55 0f be
       -0.13907215 -0.031511158 -3.0693715 -0.1399735
000240 03 6c fe bc 7f 61 44 c0 a6 9e 13 be 21 30 0c bd
       -0.031057363 -3.0684507 -0.14415988 -0.034225587
000250 26 a2 44 c0 bb 24 13 be 03 16 21 bd a9 9f 44 c0
       -3.0723968 -0.1436948 -0.039327633 -3.072245
000260 a5 3f 18 be c0 cb 1c bd 7f f2 44 c0 cb 5c 1d be
       -0.14868028 -0.03828025 -3.0773008 -0.15367429
000270 86 fa 1d bd fb 6a 45 c0 c3 b0 17 be 4f 13 0c bd
       -0.038568996 -3.0846546 -0.14813523 -0.0341981
000280 b9 93 45 c0 e4 6b 11 be 2a 2f f6 bc 9f f7 45 c0
       -3.0871413 -0.14201313 -0.030051786 -3.0932386
000290 7a a7 09 be 31 20 fb bc b6 08 46 c0 85 9e fd bd
       -0.13442793 -0.030654998 -3.0942817 -0.12383751
0002a0 68 25 f7 bc 89 29 46 c0 59 6e ed bd bb 79 d4 bc
       -0.030169204 -3.096285 -0.11593313 -0.025936952
0002b0 8e ff 45 c0 52 cb d1 bd 2b 01 e5 bc f4 e7 45 c0
       -3.0937228 -0.102438584 -0.027954658 -3.0922823
0002c0 d9 90 c2 bd e7 79 ec bc 9b a9 45 c0 39 77 a9 bd
       -0.09500284 -0.028866721 -3.088477 -0.08274693
0002d0 8b e1 e1 bc 40 8b 45 c0 83 e7 a8 bd 50 68 ed bc
       -0.027573368 -3.0866241 -0.08247282 -0.028980404
0002e0 40 c3 45 c0 fb 42 97 bd 7e 64 cd bc c1 8e 45 c0
       -3.090042 -0.073858224 -0.025072332 -3.086838
0002f0 de 55 92 bd 91 9c bf bc ca 96 45 c0 4a d2 95 bd
       -0.07145284 -0.023390086 -3.0873284 -0.073155
000300 31 ae d7 bc d2 b5 45 c0 17 ca a1 bd 52 8f c4 bc
       -0.026328178 -3.0892224 -0.07899874 -0.023994122
000310 b2 bc 45 c0 70 08 a0 bd b4 83 d3 bc 6c 9a 45 c0
       -3.089642 -0.07814109 -0.025819637 -3.0875502
000320 87 9a b8 bd 88 8b c1 bc 05 62 45 c0 80 0d d1 bd
       -0.09013849 -0.023626104 -3.0841076 -0.10207653
000330 2b 66 c4 bc 7a f4 44 c0 d6 17 e9 bd 00 3b d0 bc
       -0.023974499 -3.0774217 -0.113814995 -0.025418758
000340 1b bc 44 c0 23 a3 fc bd b1 88 d9 bc 96 9c 44 c0
       -3.073981 -0.12335803 -0.026554437 -3.0720572
000350 ad c7 07 be 47 7f e2 bc 55 43 44 c0 3f 98 0f be
       -0.13259764 -0.027648581 -3.0666096 -0.14022921
000360 50 5b dd bc cb f5 43 c0 7a 8f 13 be 37 c6 cd bc
       -0.02702108 -3.061877 -0.144102 -0.02511893
000370 de c4 43 c0 06 80 13 be 0b 91 bc bc 62 91 43 c0
       -3.0588908 -0.14404306 -0.02301838 -3.0557485
000380 f6 ce 14 be ca b4 b8 bc e1 60 43 c0 80 a5 14 be
       -0.14532074 -0.022547144 -3.052788 -0.14516258
000390 2c ae bc bc 28 43 43 c0 ca d2 14 be 6c 22 c2 bc
       -0.02303227 -3.050974 -0.14533535 -0.023698054
0003a0 0f 29 43 c0 67 b5 15 be ed 85 c3 bc 96 11 43 c0
       -3.049381 -0.14619981 -0.023867572 -3.0479484
0003b0 ae fb 15 be 05 ff c3 bc b9 03 43 c0 32 40 16 be
       -0.1464679 -0.023925314 -3.0471022 -0.14672926
0003c0 ed 46 c1 bc 73 f7 42 c0 c4 9f 16 be ae 74 c6 bc
       -0.02359339 -3.046353 -0.14709383 -0.02422556
0003d0 41 f1 42 c0 33 73 17 be 68 86 c5 bc 94 e7 42 c0
       -3.045975 -0.14790039 -0.024111941 -3.0453844
0003e0 48 e7 17 be 77 f9 c4 bc 14 e1 42 c0 d5 9f 17 be
       -0.1483432 -0.024044735 -3.0449877 -0.14807065
0003f0 b0 c0 c3 bc 6e de 42 c0 b1 f5 16 be 7c 40 c1 bc
       -0.023895591 -3.044826 -0.14742161 -0.023590319

body_pose f4 [135, 63]
000000 33 cf 61 3d fa 36 aa 3c 0b 05 f1 bc bf 33 db 3c
       0.05512924 0.020778168 -0.02942135 0.026758073
000010 a5 c8 f0 bb 88 15 88 3d 40 e3 75 3d 62 05 a1 3c
       -0.0073481374 0.06644732 0.060031176 0.019655887
000020 2a 79 50 3c 2c 5c 99 3d 12 2e c0 bd 63 fa 87 bc
       0.0127242 0.074882835 -0.09383787 -0.016598886
000030 39 34 05 3e 16 b9 1d 3d 7c 01 95 3b 58 ae 8e bd
       0.13008203 0.03850659 0.004547296 -0.06966847
000040 68 7c 20 bd f4 15 3d bc 35 fa 04 be 71 1e 55 3e
       -0.039181143 -0.011540879 -0.12986071 0.20812394
000050 e6 98 63 3d bc d1 18 be 7a cf 18 be 1e 7c e2 bc
       0.055565737 -0.14923757 -0.14922896 -0.027647074
000060 f1 75 db 3d bc f6 37 bc 34 e9 7c 3b 6f 9f c8 bb
       0.10715855 -0.01122826 0.0038591148 -0.0061225216
000070 68 92 a7 bc 84 ac 2d 3d a8 7d 30 bb e4 45 83 3c
       -0.020455554 0.04240085 -0.0026930366 0.016024537
000080 db 9b 3a 3d e5 fb 06 3d 57 5b 89 bc 0d a7 ec bb
       0.04555879 0.03295507 -0.016767187 -0.0072220624
000090 c4 2c e3 bc 75 5a 1d bd 17 98 3a be a0 e7 81 bd
       -0.027731307 -0.038416345 -0.1822208 -0.06343007
0000a0 54 0c a8 3d fd 0f 00 3e 14 9e ae bb 80 b8 5c bc
       0.082054764 0.12506099 -0.005328903 -0.013471723
0000b0 14 f1 73 3c 01 f8 62 3e e6 57 9e be 42 65 84 bf
       0.0148890205 0.22164918 -0.30926436 -1.0343401
0000c0 5c 81 93 3e 28 3b 8e 3e 1a 26 8d 3f 85 5e f9 3e
       0.2880963 0.27779508 1.1027253 0.48704925
0000d0 23 f4 df be 7d 1b 06 bd c3 4f a3 3e 7a 01 fb 3e
       -0.4374095 -0.03274106 0.3189679 0.49024564
0000e0 86 26 30 3d b1 74 07 bc d1 0c ac bd de 0c 31 3e
       0.04300549 -0.0082675675 -0.08400882 0.17290065
0000f0 10 0c 14 be e6 68 91 3d 36 04 f3 bd 9c 2b 5d 3d
       -0.14457726 0.07100086 -0.118660375 0.053996667
000100 e5 d6 a6 3c 6e e8 eb bc 09 0c d4 3c 7b 4e c8 bb
       0.020366142 -0.028797355 0.025884645 -0.006112871
000110 a6 86 89 3d a5 e7 7d 3d da e9 a3 3c fd cd 6b 3c
       0.06715135 0.06198849 0.02000897 0.014392373
000120 47 2f a8 3d f1 e5 c5 bd 4c 50 89 bc bf 90 0b 3e
       0.082121424 -0.096629985 -0.016761921 0.13629435
000130 ca 7a 1f 3d f0 4d ad 3b 2a 52 91 bd 06 ae 1a bd
       0.03893546 0.005288832 -0.0709575 -0.037763618
000140 17 97 51 bc b6 e8 06 be bd 5e 59 3e 90 da 66 3d
       -0.01279237 -0.1317471 0.21227546 0.05636078
000150 80 57 19 be 68 e3 19 be cf 1e ef bc 29 d8 dc 3d
       -0.14974785 -0.15028155 -0.029189495 0.10783417
000160 47 73 2f bc ff 19 93 3b 3c bd aa bb 61 fc a9 bc
       -0.010708637 0.004489183 -0.005210547 -0.020750226
000170 18 64 2b 3d 11 1b 32 bb c6 62 80 3c 1c 23 3a 3d
       0.041843504 -0.0027176777 0.015672099 0.04544364
000180 ac ea ce 3c 33 44 79 bc a5 a8 16 bc be e5 fd bc
       0.025258385 -0.015214014 -0.009195481 -0.030993339
000190 55 92 17 bd bc dd 3d be bc cc 84 bd 19 8d a6 3d
       -0.037004787 -0.18541616 -0.064843625 0.08132381
0001a0 5f a0 03 3e a6 31 3e bc e7 a4 5d bc 96 d6 52 3c
       0.12854145 -0.011608517 -0.013528085 0.012868544
0001b0 bd eb 60 3e c2 ec 9c be e2 49 85 bf 19 56 93 3e
       0.21964927 -0.30649382 -1.0413172 0.28776625
0001c0 ae 1d 8a 3e 9d 9e 8d 3f c6 1b f7 3e 9f a5 d7 be
       0.2697577 1.106403 0.48263377 -0.42118546
0001d0 ce 42 df bc cf 9e a0 3e 28 eb f7 3e 47 1e 1f 3d
       -0.027253535 0.3137116 0.48421597 0.038847234
0001e0 40 34 8d bc 07 5d ad bd de 74 2b 3e 18 02 1c be
       -0.017236829 -0.08465009 0.167438 -0.15235174
0001f0 64 2d 95 3d b9 f6 e8 bd 27 6b 5c 3d b5 ab a7 3c
       0.07284048 -0.113751836 0.053813126 0.020467618
000200 3c b0 e6 bc 63 a9 d5 3c 69 de b0 bb f8 8b 8a 3d
       -0.028160207 0.026081746 -0.005397607 0.06764978
000210 d1 80 83 3d d1 40 a8 3c 79 83 80 3c 66 28 b4 3d
       0.06421054 0.02053872 0.015687691 0.08796768
000220 48 7a cb bd 6d fe 8c bc 75 e2 0f 3e 4d 6d 26 3d
       -0.09935433 -0.017211163 0.1405123 0.04063158
000230 a6 26 c6 3b 27 e0 93 bd 07 17 16 bd 0d 28 5c bc
       0.0060470877 -0.07220488 -0.036643054 -0.013437283
000240 35 1b 08 be b3 d6 5d 3e 2b 52 6a 3d f4 7b 19 be
       -0.13291629 0.21663933 0.057207268 -0.1498869
000250 ec d3 1a be 52 90 f8 bc a8 68 dd 3d 36 6e 2a bc
       -0.15119904 -0.030342255 0.10810977 -0.010402253
000260 1d 20 a3 3b 63 b0 97 bb 4f da a9 bc a2 27 2a 3d
       0.0049781934 -0.004629181 -0.02073398 0.041541703
000270 4d a2 29 bb 43 04 7f 3c 66 ad 38 3d b7 d7 9f 3c
       -0.0025884092 0.015564981 0.04508724 0.01951204
000280 4b d0 5a bc eb 4b 2d bc 9c 96 06 bd 9b e3 0c bd
       -0.013355325 -0.010577182 -0.032858476 -0.03439675
000290 d2 4e 40 be da 28 87 bd bf 5d a3 3d bf a2 06 3e
       -0.18780068 -0.06599589 0.07976865 0.1314802
0002a0 88 5e 80 bc 94 0e 53 bc be 59 34 3c aa 79 60 3e
       -0.015670076 -0.012881894 0.011007724 0.21921411
0002b0 ba ae 9a be 60 07 86 bf 79 8a 93 3e 8d a3 86 3e
       -0.3021143 -1.0471001 0.28816584 0.26296654
0002c0 f3 17 8e 3f cd c1 f4 3e af 28 d1 be 6a ab c9 bc
       1.1101059 0.47804108 -0.40851352 -0.02461787
0002d0 32 45 9e 3e ee 3b f5 3e c2 36 13 3d 2d 3b d3 bc
       0.30912167 0.47897285 0.035940893 -0.025785053
0002e0 0c ac ad bd 20 a4 26 3e 12 6a 21 be 6c 54 96 3d
       -0.08480081 0.16273546 -0.15763119 0.07340321
0002f0 c6 fb e2 bd 4e f6 56 3d 10 21 a9 3c 49 dc e2 bc
       -0.11083178 0.05248099 0.020645648 -0.02769293
000300 61 ee d9 3c 4e 59 99 bb 1c 65 8b 3d 6f 4d 87 3d
       0.026602926 -0.0046798354 0.068063945 0.06606566
000310 02 1f ab 3c 81 4e 87 3c 45 b9 b9 3d 5b fb ce bd
       0.02088881 0.016516926 0.090685405 -0.10106536
000320 70 dd 91 bc 7d 49 0e 3e fe 06 2f 3d 6b 37 c5 3b
       -0.017805785 0.13895221 0.042731278 0.006018569
000330 4d ba 95 bd 97 1c 13 bd 76 5b 64 bc 92 91 08 be
       -0.07310925 -0.035915937 -0.013937822 -0.1333678
000340 c7 42 60 3e 7d ea 6a 3d 6e f3 17 be 5d a8 1b be
       0.21900474 0.05735253 -0.14838955 -0.15200944
000350 a1 20 fc bc bf aa dd 3d e6 1a 2a bc c5 af b3 3b
       -0.030777277 0.10823583 -0.01038239 0.0054836
000360 38 18 95 bb bb fa a6 bc 63 df 29 3d c0 3b 0b bb
       -0.0045500062 -0.02038323 0.041472804 -0.002124533
000370 25 67 7f 3c a7 60 37 3d 71 c0 80 3c 47 cd 48 bc
       0.015588556 0.04476991 0.015716763 -0.012255973
000380 40 48 38 bc d1 ec 06 bd ff 17 fe bc ee 0d 44 be
       -0.0112476945 -0.03294069 -0.031017302 -0.19145939
000390 d9 02 8b bd 85 a2 9f 3d f8 f5 08 3e a7 ae 8c bc
       -0.067876525 0.0779467 0.1337508 -0.017173124
0003a0 4a 5e 42 bc c6 00 1f 3c af 13 5f 3e 43 38 98 be
       -0.011863301 0.009704774 0.21784852 -0.29730424
0003b0 0b b3 86 bf b7 66 93 3e 49 4a 84 3e 61 96 8e 3f
       -1.052339 0.28789303 0.25837925 1.1139642
0003c0 37 13 f2 3e e6 43 c9 be a0 94 c7 bc 29 91 9c 3e
       0.47280285 -0.39309615 -0.024362862 0.30579498
0003d0 80 58 f0 3e ae 4f 0b 3d 10 f7 ec bc 12 17 ac bd
       0.4694252 0.034011535 -0.028926402 -0.08402838
0003e0 59 4c 21 3e 9e d8 22 be 4e 36 94 3d 78 c4 db bd
       0.1575178 -0.15902945 0.0723692 -0.10730833
0003f0 46 17 50 3d cc 3d ab 3c de e0 e1 bc 9d a3 dd 3c
       0.050803445 0.02090349 -0.027573045 0.027055556

betas f4 [135, 10]
000000 f0 67 2c 3f 04 51 bc be af 75 b7 3e 98 77 30 bf
       0.67346096 -0.3678056 0.35831973 -0.68932486
000010 60 fc 0e bd 70 50 bd be 3d 00 1f be 56 28 64 be
       -0.034908652 -0.3697543 -0.15527435 -0.22281012
000020 c4 88 5e be 04 f5 12 be f0 67 2c 3f 04 51 bc be
       -0.2173186 -0.14351279 0.67346096 -0.3678056
000030 af 75 b7 3e 98 77 30 bf 60 fc 0e bd 70 50 bd be
       0.35831973 -0.68932486 -0.034908652 -0.3697543
000040 3d 00 1f be 56 28 64 be c4 88 5e be 04 f5 12 be
       -0.15527435 -0.22281012 -0.2173186 -0.14351279
000050 f0 67 2c 3f 04 51 bc be af 75 b7 3e 98 77 30 bf
       0.67346096 -0.3678056 0.35831973 -0.68932486
000060 60 fc 0e bd 70 50 bd be 3d 00 1f be 56 28 64 be
       -0.034908652 -0.3697543 -0.15527435 -0.22281012
000070 c4 88 5e be 04 f5 12 be f0 67 2c 3f 04 51 bc be
       -0.2173186 -0.14351279 0.67346096 -0.3678056
000080 af 75 b7 3e 98 77 30 bf 60 fc 0e bd 70 50 bd be
       0.35831973 -0.68932486 -0.034908652 -0.3697543
000090 3d 00 1f be 56 28 64 be c4 88 5e be 04 f5 12 be
       -0.15527435 -0.22281012 -0.2173186 -0.14351279
0000a0 f0 67 2c 3f 04 51 bc be af 75 b7 3e 98 77 30 bf
       0.67346096 -0.3678056 0.35831973 -0.68932486
0000b0 60 fc 0e bd 70 50 bd be 3d 00 1f be 56 28 64 be
       -0.034908652 -0.3697543 -0.15527435 -0.22281012
0000c0 c4 88 5e be 04 f5 12 be f0 67 2c 3f 04 51 bc be
       -0.2173186 -0.14351279 0.67346096 -0.3678056
0000d0 af 75 b7 3e 98 77 30 bf 60 fc 0e bd 70 50 bd be
       0.35831973 -0.68932486 -0.034908652 -0.3697543
0000e0 3d 00 1f be 56 28 64 be c4 88 5e be 04 f5 12 be
       -0.15527435 -0.22281012 -0.2173186 -0.14351279
0000f0 f0 67 2c 3f 04 51 bc be af 75 b7 3e 98 77 30 bf
       0.67346096 -0.3678056 0.35831973 -0.68932486
000100 60 fc 0e bd 70 50 bd be 3d 00 1f be 56 28 64 be
       -0.034908652 -0.3697543 -0.15527435 -0.22281012
000110 c4 88 5e be 04 f5 12 be f0 67 2c 3f 04 51 bc be
       -0.2173186 -0.14351279 0.67346096 -0.3678056
000120 af 75 b7 3e 98 77 30 bf 60 fc 0e bd 70 50 bd be
       0.35831973 -0.68932486 -0.034908652 -0.3697543
000130 3d 00 1f be 56 28 64 be c4 88 5e be 04 f5 12 be
       -0.15527435 -0.22281012 -0.2173186 -0.14351279
000140 f0 67 2c 3f 04 51 bc be af 75 b7 3e 98 77 30 bf
       0.67346096 -0.3678056 0.35831973 -0.68932486
000150 60 fc 0e bd 70 50 bd be 3d 00 1f be 56 28 64 be
       -0.034908652 -0.3697543 -0.15527435 -0.22281012
000160 c4 88 5e be 04 f5 12 be f0 67 2c 3f 04 51 bc be
       -0.2173186 -0.14351279 0.67346096 -0.3678056
000170 af 75 b7 3e 98 77 30 bf 60 fc 0e bd 70 50 bd be
       0.35831973 -0.68932486 -0.034908652 -0.3697543
000180 3d 00 1f be 56 28 64 be c4 88 5e be 04 f5 12 be
       -0.15527435 -0.22281012 -0.2173186 -0.14351279
000190 f0 67 2c 3f 04 51 bc be af 75 b7 3e 98 77 30 bf
       0.67346096 -0.3678056 0.35831973 -0.68932486
0001a0 60 fc 0e bd 70 50 bd be 3d 00 1f be 56 28 64 be
       -0.034908652 -0.3697543 -0.15527435 -0.22281012
0001b0 c4 88 5e be 04 f5 12 be f0 67 2c 3f 04 51 bc be
       -0.2173186 -0.14351279 0.67346096 -0.3678056
0001c0 af 75 b7 3e 98 77 30 bf 60 fc 0e bd 70 50 bd be
       0.35831973 -0.68932486 -0.034908652 -0.3697543
0001d0 3d 00 1f be 56 28 64 be c4 88 5e be 04 f5 12 be
       -0.15527435 -0.22281012 -0.2173186 -0.14351279
0001e0 f0 67 2c 3f 04 51 bc be af 75 b7 3e 98 77 30 bf
       0.67346096 -0.3678056 0.35831973 -0.68932486
0001f0 60 fc 0e bd 70 50 bd be 3d 00 1f be 56 28 64 be
       -0.034908652 -0.3697543 -0.15527435 -0.22281012
000200 c4 88 5e be 04 f5 12 be f0 67 2c 3f 04 51 bc be
       -0.2173186 -0.14351279 0.67346096 -0.3678056
000210 af 75 b7 3e 98 77 30 bf 60 fc 0e bd 70 50 bd be
       0.35831973 -0.68932486 -0.034908652 -0.3697543
000220 3d 00 1f be 56 28 64 be c4 88 5e be 04 f5 12 be
       -0.15527435 -0.22281012 -0.2173186 -0.14351279
000230 f0 67 2c 3f 04 51 bc be af 75 b7 3e 98 77 30 bf
       0.67346096 -0.3678056 0.35831973 -0.68932486
000240 60 fc 0e bd 70 50 bd be 3d 00 1f be 56 28 64 be
       -0.034908652 -0.3697543 -0.15527435 -0.22281012
000250 c4 88 5e be 04 f5 12 be f0 67 2c 3f 04 51 bc be
       -0.2173186 -0.14351279 0.67346096 -0.3678056
000260 af 75 b7 3e 98 77 30 bf 60 fc 0e bd 70 50 bd be
       0.35831973 -0.68932486 -0.034908652 -0.3697543
000270 3d 00 1f be 56 28 64 be c4 88 5e be 04 f5 12 be
       -0.15527435 -0.22281012 -0.2173186 -0.14351279
000280 f0 67 2c 3f 04 51 bc be af 75 b7 3e 98 77 30 bf
       0.67346096 -0.3678056 0.35831973 -0.68932486
000290 60 fc 0e bd 70 50 bd be 3d 00 1f be 56 28 64 be
       -0.034908652 -0.3697543 -0.15527435 -0.22281012
0002a0 c4 88 5e be 04 f5 12 be f0 67 2c 3f 04 51 bc be
       -0.2173186 -0.14351279 0.67346096 -0.3678056
0002b0 af 75 b7 3e 98 77 30 bf 60 fc 0e bd 70 50 bd be
       0.35831973 -0.68932486 -0.034908652 -0.3697543
0002c0 3d 00 1f be 56 28 64 be c4 88 5e be 04 f5 12 be
       -0.15527435 -0.22281012 -0.2173186 -0.14351279
0002d0 f0 67 2c 3f 04 51 bc be af 75 b7 3e 98 77 30 bf
       0.67346096 -0.3678056 0.35831973 -0.68932486
0002e0 60 fc 0e bd 70 50 bd be 3d 00 1f be 56 28 64 be
       -0.034908652 -0.3697543 -0.15527435 -0.22281012
0002f0 c4 88 5e be 04 f5 12 be f0 67 2c 3f 04 51 bc be
       -0.2173186 -0.14351279 0.67346096 -0.3678056
000300 af 75 b7 3e 98 77 30 bf 60 fc 0e bd 70 50 bd be
       0.35831973 -0.68932486 -0.034908652 -0.3697543
000310 3d 00 1f be 56 28 64 be c4 88 5e be 04 f5 12 be
       -0.15527435 -0.22281012 -0.2173186 -0.14351279
000320 f0 67 2c 3f 04 51 bc be af 75 b7 3e 98 77 30 bf
       0.67346096 -0.3678056 0.35831973 -0.68932486
000330 60 fc 0e bd 70 50 bd be 3d 00 1f be 56 28 64 be
       -0.034908652 -0.3697543 -0.15527435 -0.22281012
000340 c4 88 5e be 04 f5 12 be f0 67 2c 3f 04 51 bc be
       -0.2173186 -0.14351279 0.67346096 -0.3678056
000350 af 75 b7 3e 98 77 30 bf 60 fc 0e bd 70 50 bd be
       0.35831973 -0.68932486 -0.034908652 -0.3697543
000360 3d 00 1f be 56 28 64 be c4 88 5e be 04 f5 12 be
       -0.15527435 -0.22281012 -0.2173186 -0.14351279
000370 f0 67 2c 3f 04 51 bc be af 75 b7 3e 98 77 30 bf
       0.67346096 -0.3678056 0.35831973 -0.68932486
000380 60 fc 0e bd 70 50 bd be 3d 00 1f be 56 28 64 be
       -0.034908652 -0.3697543 -0.15527435 -0.22281012
000390 c4 88 5e be 04 f5 12 be f0 67 2c 3f 04 51 bc be
       -0.2173186 -0.14351279 0.67346096 -0.3678056
0003a0 af 75 b7 3e 98 77 30 bf 60 fc 0e bd 70 50 bd be
       0.35831973 -0.68932486 -0.034908652 -0.3697543
0003b0 3d 00 1f be 56 28 64 be c4 88 5e be 04 f5 12 be
       -0.15527435 -0.22281012 -0.2173186 -0.14351279
0003c0 f0 67 2c 3f 04 51 bc be af 75 b7 3e 98 77 30 bf
       0.67346096 -0.3678056 0.35831973 -0.68932486
0003d0 60 fc 0e bd 70 50 bd be 3d 00 1f be 56 28 64 be
       -0.034908652 -0.3697543 -0.15527435 -0.22281012
0003e0 c4 88 5e be 04 f5 12 be f0 67 2c 3f 04 51 bc be
       -0.2173186 -0.14351279 0.67346096 -0.3678056
0003f0 af 75 b7 3e 98 77 30 bf 60 fc 0e bd 70 50 bd be
       0.35831973 -0.68932486 -0.034908652 -0.3697543

global_orient f4 [135, 3]
000000 a1 0a 43 40 bc a8 9c 39 85 3f 7f 3d e9 15 43 40
       3.0475237 0.00029880356 0.062316436 3.0482123
000010 68 d2 b2 3a 82 cb 7a 3d 4d 18 43 40 73 2f 29 3b
       0.0013643028 0.061229236 3.0483582 0.0025815635
000020 91 dc 6d 3d f3 15 43 40 fc c8 64 3b de 62 63 3d
       0.058071677 3.0482147 0.0034909835 0.05551421
000030 7b 16 43 40 a0 85 7e 3b 98 5d 57 3d 79 14 43 40
       3.048247 0.003883697 0.052579492 3.0481246
000040 cf 7d 8f 3b 94 81 4d 3d fe 18 43 40 d2 f7 af 3b
       0.004379011 0.050172403 3.0484004 0.0053701187
000050 6d a6 49 3d af 23 43 40 e6 50 fd 3b 98 d6 3a 3d
       0.04923098 3.049053 0.007730591 0.04561481
000060 d0 0c 43 40 b4 55 3c 3c 7a 78 3a 3d 07 e4 42 40
       3.047657 0.011495043 0.04552505 3.0451677
000070 6a c8 2c 3c 72 8f 29 3d fe b8 42 40 3e 7c 07 3c
       0.010545829 0.041396566 3.042541 0.008269368
000080 f1 55 17 3d a1 7a 42 40 b8 ad a9 3b 6a d5 18 3d
       0.036947194 3.0387347 0.0051781796 0.037312903
000090 ba 33 42 40 36 d3 5d 3b a0 78 1d 3d 48 ee 41 40
       3.0344071 0.0033847815 0.038445115 3.0301685
0000a0 29 7a 8d 39 1c 65 15 3d 42 7e 41 40 ee cf d3 ba
       0.00026984632 0.03647338 3.0233312 -0.001615999
0000b0 aa bc 14 3d b0 27 41 40 f2 f2 81 38 bc 71 0e 3d
       0.036312737 3.0180473 6.1964514e-05 0.034776434
0000c0 45 c0 40 40 44 07 fe 3a 3b 5a 15 3d fa 67 40 40
       3.0117352 0.0019380827 0.036463004 3.0063462
0000d0 20 5b 77 3b 0a 84 2c 3d bc 0b 40 40 05 6d 56 3b
       0.0037743524 0.04211811 3.0007162 0.003271879
0000e0 ba b0 33 3d 77 84 3f 40 d5 e3 b7 3b 23 b5 63 3d
       0.04386971 2.99246 0.0056118765 0.055592667
0000f0 f6 17 3f 40 21 99 17 3c 81 3a 6a 3d e2 1c 3f 40
       2.9858375 0.009252817 0.0571847 2.9861379
000100 e3 4d 3a 3c 92 1c 82 3d 9c 02 3f 40 b2 39 41 3c
       0.011371109 0.063531056 2.9845343 0.011793541
000110 7a a8 8d 3d 90 f3 3e 40 36 96 44 3c cc b2 96 3d
       0.069169 2.9836159 0.011998704 0.073583215
000120 fc f2 3e 40 2a 6c 24 3c f3 63 a2 3d 13 eb 3e 40
       2.9835806 0.010035554 0.0792922 2.9830978
000130 93 76 ea 3b c8 69 ab 3d 43 f1 3e 40 22 73 b8 3b
       0.0071552484 0.083697855 2.9834754 0.0056289593
000140 30 ce b2 3d 35 f2 3e 40 74 fa b1 3b 32 9f b9 3d
       0.087307334 2.9835331 0.0054314677 0.09063567
000150 c5 f9 3e 40 34 7f be 3b 23 06 c2 3d b5 f4 3e 40
       2.9839947 0.0058135036 0.09473827 2.9836857
000160 43 55 eb 3b 1b c4 c5 3d f0 f5 3e 40 c5 a8 28 3c
       0.007181795 0.09656545 2.9837608 0.010294144
000170 98 93 c8 3d 11 fa 3e 40 f1 f2 2b 3c 01 55 cc 3d
       0.09793776 2.9840128 0.010494933 0.09977151
000180 73 f5 3e 40 6e ae 2f 3c a7 c0 d0 3d fc f6 3e 40
       2.983731 0.01072274 0.101929955 2.9838247
000190 b6 63 32 3c 85 e2 d2 3d 71 f8 3e 40 d8 29 30 3c
       0.010888031 0.102971114 2.9839137 0.010752164
0001a0 86 28 d2 3d b4 f9 3e 40 ec b7 32 3c 9a 04 d2 3d
       0.102616355 2.9839907 0.010908108 0.10254784
0001b0 1c f6 3e 40 93 08 33 3c cd 31 d3 3d 49 ef 3e 40
       2.9837713 0.010927337 0.10312233 2.9833548
0001c0 1d 45 3a 3c 5b 40 d3 3d 87 ea 3e 40 80 42 41 3c
       0.011369017 0.10315009 2.9830644 0.01179564
0001d0 84 5d d2 3d bd e5 3e 40 e0 c0 4b 3c 93 75 d1 3d
       0.10271743 2.982772 0.012436122 0.10227504
0001e0 35 e1 3e 40 54 fd 4f 3c 0c 21 d0 3d d8 e6 3e 40
       2.9824955 0.0126946755 0.10162553 2.9828396
0001f0 f3 6d 54 3c 12 d6 d1 3d a5 e7 3e 40 0a 72 55 3c
       0.012965667 0.10245909 2.9828885 0.013027677
000200 ee e7 d2 3d 63 f4 3e 40 b9 a2 4e 3c 83 3c d1 3d
       0.10298143 2.9836662 0.012612038 0.1021662
000210 b4 eb 3e 40 b4 e4 49 3c 35 d6 cf 3d 8f ea 3e 40
       2.9831362 0.0123225935 0.101482786 2.9830663
000220 bc b1 5f 3c ff c7 ca 3d 7e e3 3e 40 a6 0e 86 3c
       0.013653215 0.099014275 2.982635 0.016364407
000230 4c f9 c1 3d 0c cf 3e 40 66 1e 82 3c 21 b7 c5 3d
       0.09471378 2.9813871 0.015883636 0.0965407
000240 cb bd 3e 40 22 bc 70 3c dc 9a cb 3d 93 d3 3e 40
       2.980334 0.014693292 0.099416465 2.9816635
000250 3e d9 7a 3c e9 8d c3 3d e2 b6 3e 40 48 a1 73 3c
       0.015310584 0.095485516 2.9799123 0.014869995
000260 05 39 c5 3d 27 c4 3e 40 31 06 5a 3c 0b ed b6 3d
       0.09630016 2.9807222 0.01330714 0.08931931
000270 87 27 3f 40 49 64 5c 3c e4 43 a9 3d ae 69 3f 40
       2.9867876 0.013451644 0.08264902 2.9908252
000280 19 3f 48 3c 4d c7 a3 3d dc aa 3f 40 a8 62 13 3c
       0.012222075 0.07996998 2.9948034 0.008995689
000290 d6 eb 95 3d 69 f7 3f 40 ff a1 9e 3b c9 ee 95 3d
       0.07320373 2.9994757 0.004841089 0.07320935
0002a0 38 15 40 40 5d 54 42 3b 21 58 8f 3d 96 40 40 40
       3.001295 0.0029652335 0.06999231 3.003942
0002b0 11 4f db ba f0 bb 94 3d ae 5c 40 40 63 06 c2 bb
       -0.0016731938 0.07262409 3.0056567 -0.0059211715
0002c0 1e fc 98 3d 4f 91 40 40 71 69 01 bc d8 09 a5 3d
       0.074699625 3.008869 -0.007898674 0.08058518
0002d0 8a ae 40 40 87 a1 00 bc 75 ea a7 3d 1a 06 41 40
       3.010653 -0.007851011 0.08199016 3.0159974
0002e0 d0 29 0d bc d7 cd a5 3d a6 2b 41 40 41 eb 25 bc
       -0.008615926 0.080959015 3.018289 -0.01012689
0002f0 a5 90 b0 3d 1b 3c 41 40 57 7d 10 bc 54 e7 b3 3d
       0.08621339 3.0192935 -0.008818946 0.08784357
000300 c2 49 41 40 68 37 1b bc 11 f1 ae 3d 9a 50 41 40
       3.0201268 -0.009473659 0.085420735 3.0205445
000310 c2 20 ee bb 60 12 ae 3d 5f 40 41 40 88 f6 b2 bb
       -0.0072670886 0.084995985 3.019554 -0.0054615177
000320 d7 15 ad 3d ef 2b 41 40 f0 83 74 bb be 69 ad 3d
       0.08451431 3.0183065 -0.0037310086 0.08467434
000330 bb f8 40 40 49 d7 d4 ba dd 3d bd 3d 02 d2 40 40
       3.0151813 -0.0016238476 0.09240315 3.0128179
000340 eb de bc ba 9a 40 c4 3d 62 be 40 40 e8 b5 5a bb
       -0.0014409696 0.09582634 3.01162 -0.0033372585
000350 03 a6 c8 3d 65 a2 40 40 e9 a7 f7 ba 1e 67 d7 3d
       0.09797289 3.0099118 -0.0018894646 0.10517715
000360 6e 90 40 40 ca 8d cb 39 7f 1a e3 3d 00 9b 40 40
       3.0088153 0.00038824818 0.11089038 3.0094604
000370 a7 49 97 3a 87 e5 ea 3d 5e a5 40 40 f3 56 08 3b
       0.0011542336 0.1146956 3.0100932 0.002080378
000380 e8 10 f3 3d 6d c3 40 40 02 8f 2b 3b e2 68 f9 3d
       0.11868459 3.0119278 0.0026177769 0.12178208
000390 ee cd 40 40 dc b1 33 3b e5 db fd 3d 0d db 40 40
       3.012569 0.0027419245 0.12395457 3.0133698
0003a0 86 43 0f 3b b5 de 00 3e 26 e7 40 40 8f 4a f0 3a
       0.0021860315 0.12584956 3.0141082 0.0018332767
0003b0 f2 ad 02 3e 12 f0 40 40 7a 16 f4 3a 6c 64 03 3e
       0.12761667 3.0146527 0.0018622421 0.12831277
0003c0 85 fa 40 40 08 7d fb 3a 6d 33 04 3e 24 06 41 40
       3.0152905 0.0019187042 0.12910242 3.0159998
0003d0 72 bd f9 3a aa 91 04 3e ab 11 41 40 1c 9c 0b 3b
       0.0019053651 0.12946191 3.0167034 0.0021302765
0003e0 dc 39 05 3e 71 1f 41 40 86 5c 1f 3b b5 a5 05 3e
       0.13010353 3.017544 0.0024316623 0.13051493
0003f0 b0 2a 41 40 f3 15 32 3b ab fd 05 3e 82 3f 41 40
       3.0182304 0.0027173727 0.13085048 3.0195012

transl f4 [135, 3]
000000 f0 a7 02 be ee 32 f5 3e 19 74 6b 40 4e 3d 02 be
       -0.12759376 0.4789042 3.678961 -0.12718698
000010 f4 09 f5 3e d9 75 6b 40 0a b3 01 be 18 e2 f4 3e
       0.47859156 3.6790679 -0.12665954 0.47828746
000020 5f 74 6b 40 57 35 01 be 5e a9 f4 3e 25 84 6b 40
       3.6789777 -0.12618004 0.47785467 3.6799405
000030 c2 67 00 be 92 79 f4 3e e7 a4 6b 40 42 ab 00 be
       -0.1253958 0.47749 3.6819398 -0.1256533
000040 82 3a f4 3e bc c7 6b 40 c8 cf 01 be 32 2c f4 3e
       0.47700888 3.6840658 -0.12676919 0.47689968
000050 f3 04 6c 40 48 09 01 be 40 17 f4 3e 62 f2 6b 40
       3.687802 -0.12601197 0.47673988 3.6866689
000060 19 08 01 be 7b f4 f3 3e 32 e6 6b 40 1d e0 00 be
       -0.12600745 0.4764746 3.685925 -0.12585492
000070 fa a1 f3 3e b7 19 6c 40 b0 6a ff bd c0 18 f3 3e
       0.47584516 3.6890695 -0.12471521 0.4747982
000080 17 9b 6c 40 54 be ff bd 84 6f f2 3e f0 37 6d 40
       3.696966 -0.12487474 0.47350705 3.7065392
000090 5b 42 00 be b2 be f1 3e 8f da 6e 40 50 c3 02 be
       -0.12525313 0.472158 3.7320898 -0.12769818
0000a0 33 86 f1 3e f6 6d 71 40 68 ab 01 be b8 84 ef 3e
       0.47172698 3.7723365 -0.12663043 0.46780944
0000b0 98 36 6f 40 68 7d 02 be 4f 29 ee 3e f3 0e 6e 40
       3.7377071 -0.12743151 0.4651589 3.7196624
0000c0 c7 49 00 be d9 ed ec 3e b8 9b 6d 40 9e bf 01 be
       -0.12528144 0.46275213 3.7126293 -0.12670752
0000d0 7a 4f ec 3e 4f b5 6d 40 28 53 fe bd b5 ec eb 3e
       0.46154386 3.7141912 -0.124182045 0.4607903
0000e0 c0 be 6e 40 bc c0 01 be c9 64 ed 3e 90 f3 6f 40
       3.7303925 -0.12671179 0.46365955 3.7492409
0000f0 55 46 01 be 65 24 f1 3e a9 ff 6f 40 c4 1c 01 be
       -0.12624486 0.4709808 3.7499793 -0.1260863
000100 f0 6e f2 3e 23 94 6f 40 48 ed ff bd 36 61 f2 3e
       0.47350264 3.7434165 -0.1249643 0.4733979
000110 d4 83 6f 40 9a 0b 00 be 40 9c f2 3e 98 c3 6f 40
       3.7424212 -0.12504426 0.47384834 3.746313
000120 87 5b 00 be c7 4f f2 3e 16 9e 6f 40 7e 23 00 be
       -0.12534915 0.4732649 3.7440238 -0.12513539
000130 4d 97 f1 3e fd 20 6f 40 aa 3e ff bd 65 a2 f1 3e
       0.47185746 3.7363884 -0.12463124 0.4719421
000140 4e e6 6e 40 e4 45 fc bd a6 c6 f1 3e 0a ac 6e 40
       3.7328067 -0.12318018 0.4722187 3.7292504
000150 50 fc fa bd 3c 5b f1 3e 7a 38 6e 40 06 04 fa bd
       -0.12255156 0.4713992 3.722197 -0.12207799
000160 04 76 f1 3e 9d 11 6e 40 2b d0 fa bd ea 45 f1 3e
       0.4716035 3.719825 -0.12246736 0.47123653
000170 1b ec 6d 40 22 d7 fb bd 58 ee f0 3e 2a 9a 6d 40
       3.7175357 -0.12296893 0.47056842 3.7125344
000180 b6 29 fb bd da b7 f0 3e f7 70 6d 40 97 56 fb bd
       -0.12263815 0.47015268 3.7100198 -0.12272375
000190 1e 98 f0 3e 53 5b 6d 40 f6 f9 f9 bd 6a 79 f0 3e
       0.46991056 3.708699 -0.122058794 0.46967632
0001a0 2e 51 6d 40 b2 6b f9 bd 12 6a f0 3e d1 47 6d 40
       3.7080798 -0.121787444 0.46955925 3.7075083
0001b0 60 2e f9 bd b5 62 f0 3e 92 51 6d 40 b8 5f f9 bd
       -0.121670485 0.46950307 3.7081037 -0.1217646
0001c0 6c 8e f0 3e 7b 59 6d 40 85 8e f9 bd ea cb f0 3e
       0.4698366 3.7085865 -0.121853866 0.47030574
0001d0 48 6a 6d 40 fe 09 fa bd b6 11 f1 3e 9c 7d 6d 40
       3.709612 -0.12208937 0.47083825 3.7107916
0001e0 4a db f9 bd 67 36 f1 3e 30 7f 6d 40 ca f0 f8 bd
       -0.12200029 0.47111818 3.710888 -0.12155302
0001f0 62 f9 f0 3e c0 6c 6d 40 55 0b f8 bd 9d bc f0 3e
       0.47065264 3.7097626 -0.121115364 0.470189
000200 1d 5b 6d 40 d6 32 f8 bd 9e 0d f1 3e c3 ba 6d 40
       3.708686 -0.12119071 0.47080702 3.714524
000210 ea 4d f5 bd 0e d0 f0 3e 00 b2 6d 40 f8 cf f5 bd
       -0.119777516 0.47033733 3.7139893 -0.120025575
000220 42 89 f0 3e 23 fb 6d 40 48 9c f9 bd b3 ad f0 3e
       0.4697972 3.7184532 -0.121880114 0.47007522
000230 d2 51 6e 40 f3 29 00 be b5 ce ef 3e 73 40 6e 40
       3.723744 -0.12516002 0.46837392 3.7226837
000240 79 ef 01 be e6 33 ee 3e 0a 0e 6e 40 b9 43 02 be
       -0.12689008 0.4652397 3.7196069 -0.12721147
000250 15 88 ed 3e de 01 6e 40 58 87 03 be 34 5e ec 3e
       0.46392885 3.718864 -0.12844598 0.4616562
000260 39 31 6e 40 d5 4d 04 be ab 0f ec 3e 6a 23 6f 40
       3.7217543 -0.12920316 0.46105704 3.7365365
000270 ca d5 02 be 97 39 ec 3e 00 e2 6f 40 fd f2 04 be
       -0.12776867 0.46137688 3.748169 -0.12983318
000280 6f d9 eb 3e f0 9f 6f 40 b6 f8 06 be 4c bc eb 3e
       0.46064326 3.7441368 -0.13180813 0.46042097
000290 93 50 70 40 5f 1f 06 be 82 6b ea 3e fd 83 71 40
       3.7549179 -0.13097905 0.45785147 3.773681
0002a0 3c 11 06 be 27 cf ec 3e 3b 44 6f 40 a0 a4 04 be
       -0.13092512 0.46251795 3.7385395 -0.12953424
0002b0 0a 7d ec 3e 13 56 6e 40 a0 c9 04 be ca 33 ed 3e
       0.46189147 3.7240036 -0.12967539 0.46328574
0002c0 7d e9 6c 40 37 2b 05 be eb 78 ee 3e 39 09 6d 40
       3.701751 -0.13004766 0.46576628 3.703688
0002d0 69 4d 05 be f1 8b ee 3e 78 5a 6d 40 bb 08 05 be
       -0.13017811 0.46591142 3.7086468 -0.12991612
0002e0 2c ac ef 3e 58 64 6f 40 05 8d 02 be c4 8e ef 3e
       0.46811044 3.7404995 -0.12749107 0.4678861
0002f0 40 23 6e 40 cc ec 02 be f0 55 ef 3e 1d 07 6d 40
       3.7209015 -0.12785643 0.46745253 3.7035592
000300 4c 52 02 be 4e 41 ef 3e 5e 77 6c 40 38 ce 03 be
       -0.12726706 0.4672951 3.6947856 -0.12871635
000310 03 fc ee 3e a5 2e 6c 40 16 00 05 be 54 fd ee 3e
       0.46676645 3.690347 -0.12988314 0.4667765
000320 4e 0e 6c 40 38 df 04 be 21 39 ef 3e 67 c2 6b 40
       3.688373 -0.12975776 0.46723273 3.6837404
000330 e0 50 03 be 86 36 ef 3e 52 a4 6b 40 8f b4 02 be
       -0.1282382 0.46721286 3.6819043 -0.1276419
000340 f8 ca ee 3e b2 92 6b 40 4a cd 00 be c2 d8 ee 3e
       0.46639228 3.6808286 -0.12578312 0.46649748
000350 cc 6c 6b 40 f5 70 01 be c0 da ee 3e 58 39 6b 40
       3.6785154 -0.12640746 0.46651268 3.675375
000360 7d 87 00 be c3 e4 ee 3e c6 48 6b 40 d5 9b 00 be
       -0.12551685 0.46658906 3.6763167 -0.12559445
000370 d6 d4 ee 3e 15 69 6b 40 0d 0e 01 be e4 d6 ee 3e
       0.46646756 3.6782887 -0.12603016 0.46648324
000380 f7 97 6b 40 0c 54 01 be d7 e6 ee 3e a5 c1 6b 40
       3.6811502 -0.12629718 0.46660492 3.6836941
000390 d2 c0 01 be 40 d6 ee 3e b2 de 6b 40 88 54 01 be
       -0.12671211 0.46647835 3.6854672 -0.12629902
0003a0 f0 df ee 3e 03 e9 6b 40 74 f8 00 be a0 e9 ee 3e
       0.46655226 3.686097 -0.12594777 0.46662617
0003b0 1f ea 6b 40 04 ac 00 be 00 e0 ee 3e 76 e9 6b 40
       3.6861646 -0.12565619 0.46655273 3.6861243
0003c0 3c a0 00 be 43 d5 ee 3e 32 e4 6b 40 46 7a 00 be
       -0.12561125 0.4664708 3.685803 -0.12546644
0003d0 57 c5 ee 3e d3 d4 6b 40 ac 8c 00 be 7d bd ee 3e
       0.46634933 3.6848648 -0.12553662 0.46628943
0003e0 4e cb 6b 40 2f 8e 00 be 84 9a ee 3e 27 bc 6b 40
       3.6842837 -0.12554239 0.4660226 3.683359
0003f0 16 99 00 be 35 8b ee 3e 79 b8 6b 40 25 8e 00 be
       -0.12558398 0.46590582 3.6831343 -0.12554224
