inputs/demo/male/hmr4d_results.pt (torch, 115775 bytes, 25 tensors)

body_pose f4 [25, 63]
00000000: 1a2b 2b3e b23a 7e3d 6ef1 4abd 7822 aebd
00000010: 4c8b f1bd f6ad 57be d85b eabc 87de e03c
00000020: 4a12 e3bd 2c45 96bd 886d 953c 25fa 7abd
00000030: 9bfd 943c 1c34 f5bd 4631 66bb 883a 93bc
00000040: b951 543c b344 1a3d ba7a bebd 84c5 663e
00000050: 0aa3 153e ab04 4b3e a734 67be 9f38 883d
00000060: 2d0a 973d 0e6a df3b 2927 83bc 3cc3 79ba
00000070: 825e 83bc 175a 063c 8847 b33a f412 153c
00000080: e523 ed3c 2bba c43a cdb2 80bd 16e6 babc
00000090: 770f 203d 8ba7 8e3c 709e 82be 09be 2dbc
000000a0: 5787 a13d d353 b23e 72b5 de3d 8c19 ebbd
000000b0: 99f7 da3a 6219 dc3e ca93 7abe effb 68bf
000000c0: db2f dd3e 3607 873e 9ee5 6d3f 51a6 ab3c
000000d0: 0a9d 31bf c7d9 87be caac 74be d813 0f3f
000000e0: 6601 6b3e 095c 6fbf 75bb 8abe 37a6 6fbd
000000f0: 1358 2dbf 3a31 113e f6c5 06be 4d09 2b3e
00000100: 1bd0 7d3d 332e 4bbd a42a aebd 8c70 f1bd
00000110: 85da 57be 6b90 ebbc 92c3 e03c 950a e3bd
00000120: 8ed9 95bd 6901 953c b735 7bbd 17a1 963c
00000130: 909f f4bd aad7 60bb 98fa 92bc 4ea8 543c
00000140: 131f 1a3d c8ab bebd e803 673e dcb6 153e
00000150: f67b 4a3e d31f 67be 12b7 873d cc1e 973d
00000160: 2ba1 df3b 8748 83bc 6943 7dba f138 83bc
00000170: 5de9 063c 13be b33a c64c 153c 1962 ed3c
00000180: bb78 d43a 6692 80bd 3115 bcbc bc9b 1f3d
00000190: 46a7 8e3c d090 82be 6517 2ebc cb7f a13d
000001a0: d762 b23e 5999 de3d 844f ebbd 3bfb c13a
000001b0: 860b dc3e df9c 7abe d908 69bf 9431 dd3e
000001c0: 85f9 863e f2e8 6d3f 7790 ad3c 0373 31bf
000001d0: 6db1 87be 3cc2 74be 6823 0f3f 3226 6b3e
000001e0: 6c5a 6fbf edc5 8abe a26f 70bd 0167 2dbf
000001f0: 682c 113e 54e4 06be b02d 2b3e f5a9 7d3d
00000200: a46f 4bbd b9ce adbd bc85 f1bd 34cc 57be
00000210: 93e7 ebbc e873 e03c 4502 e3bd 54e6 95bd
00000220: 481f 943c da55 7bbd 76ab 923c 0f6f f4bd
00000230: f70a 67bb 5b08 93bc 73a3 543c 5ce8 193d
00000240: 6af6 bebd ffeb 663e faab 153e 1e79 4a3e
00000250: 4347 67be f2b6 873d e548 973d e2f9 dd3b
00000260: 773d 83bc 0149 7bba 2027 83bc 55c7 063c
00000270: 74d2 b63a d649 153c a298 ed3c eaf0 d53a
00000280: a27f 80bd 1051 bcbc e5d5 1f3d c92e 903c
00000290: d79a 82be edce 2ebc 95c5 a13d 8858 b23e
000002a0: 35b1 de3d 6b3e ebbd f63d b93a ff1d dc3e
000002b0: 435c 7abe bcf4 68bf f23b dd3e 5d0a 873e
000002c0: 9ee8 6d3f 6916 b03c d78b 31bf 70c7 87be
000002d0: 78be 74be 2b1c 0f3f 2c3e 6b3e d255 6fbf
000002e0: bdcb 8abe cac0 70bd 1d5e 2dbf 4335 113e
000002f0: 82c8 06be a830 2b3e 6429 7e3d e40a 4bbd
00000300: 1def adbd 397d f1bd c1d1 57be 968f ebbc
00000310: 5793 e03c edeb e2bd 5326 96bd 10ee 943c
00000320: 9b70 7bbd a57b 953c b86b f4bd 4de0 5bbb
00000330: fa10 93bc bec3 543c 3ef1 193d e63e bfbd
00000340: 24e4 663e b5b8 153e a704 4a3e 3339 67be
00000350: 487c 873d 0f44 973d d8ed de3b 1233 83bc
00000360: d282 7eba 424e 83bc 3d4a 073c fdcd b13a
00000370: 206b 153c 00ad ed3c 868b db3a bd8d 80bd
00000380: 9b8a bcbc 82ee 1f3d 64dc 8f3c 509a 82be
00000390: c0bc 2dbc f3d8 a13d 4059 b23e 82b3 de3d
000003a0: 327e ebbd cbd7 b53a ca09 dc3e a68e 7abe
000003b0: 93fc 68bf f92b dd3e e703 873e 01ef 6d3f
000003c0: f790 ad3c 3b7e 31bf 4dbb 87be ff0b 75be
000003d0: b611 0f3f 7d0d 6b3e ba5c 6fbf 17be 8abe
000003e0: 76e4 70bd d665 2dbf 481d 113e dbba 06be
000003f0: 3012 2b3e 7fc3 7d3d d027 4bbd 4ec4 adbd
0.1671566 0.062067695 -0.04954665 -0.08502668 -0.11794147 -0.21062455 -0.028608248 0.02744986
-0.11087473 -0.07337412 0.018240705 -0.061273713 0.018187335 -0.1197283 -0.0035124584 -0.017972246
0.012958937 0.037663173 -0.09300752 0.22536284 0.14612976 0.19826 -0.22578679 0.066514246
0.07374988 0.0068180626 -0.016009884 -0.00095276884 -0.016036276 0.00820019 0.0013677934 0.009098757
0.02894778 0.0015009096 -0.062841035 -0.022814792 0.03907725 0.017413875 -0.25511503 -0.01060439
0.07887142 0.34829578 0.10874452 -0.11479482 0.001670587 0.42988116 -0.2447044 -0.9100942
0.43200573 0.2637269 0.92928493 0.02095333 -0.6938025 -0.26533338 -0.23894039 0.55889654
0.22949752 -0.9349981 -0.27096143 -0.058508124 -0.67712516 0.14178935 -0.13161454 0.16702767
0.061966043 -0.049604606 -0.08504227 -0.11789045 -0.21079452 -0.028755387 0.027437005 -0.11086003
-0.07316886 0.018189149 -0.061330523 0.01838736 -0.11944497 -0.0034308233 -0.017941758 0.01297958
0.03762729 -0.093101084 0.22560084 0.14620537 0.1977385 -0.22570734 0.06626715 0.07378921
0.0068246326 -0.016025795 -0.0009661229 -0.016018363 0.008234349 0.0013713263 0.0091125425 0.02897744
0.0016210297 -0.06277923 -0.022959324 0.03896688 0.017413747 -0.25501108 -0.010625695 0.07885703
0.34841034 0.108690925 -0.11489776 0.0014799604 0.42977542 -0.24473904 -0.91029125 0.43201888
0.26362243 0.9293357 0.02118705 -0.6931612 -0.26502553 -0.2390222 0.559134 0.22963789
-0.9349735 -0.2710413 -0.05870021 -0.67735296 0.14177096 -0.13173038 0.16716647 0.06192966
-0.049667016 -0.08486695 -0.11793086 -0.21073991 -0.028796947 0.027399018 -0.11084417 -0.07319322
0.018081322 -0.06136117 0.017904025 -0.11935245 -0.0035254338 -0.01794832 0.012978422 0.03757511
-0.093243435 0.22550963 0.14616385 0.19772765 -0.22585778 0.06626691 0.073869504 0.006774173
-0.01602052 -0.00095857686 -0.016009867 0.008226235 0.0013948218 0.009111842 0.029003445 0.0016322408
-0.06274344 -0.022987872 0.039022345 0.017600434 -0.25508758 -0.010669452 0.07899014 0.3483317
0.10873643 -0.11486515 0.0014132846 0.42991635 -0.24449258 -0.90998435 0.43209797 0.26375094
0.9293307 0.021495061 -0.69354004 -0.26519346 -0.23900783 0.55902356 0.22972935 -0.93490326
-0.27108565 -0.058777608 -0.6772173 0.14180474 -0.13162425 0.1671778 0.062051192 -0.049570933
-0.08492873 -0.117914625 -0.21076109 -0.02875499 0.027414007 -0.110801555 -0.073315285 0.018179923
-0.061386686 0.018247435 -0.11934608 -0.0033550442 -0.017952431 0.012986122 0.037583582 -0.09338169
0.22547966 0.14621241 0.19728337 -0.22580414 0.06615502 0.07386028 0.0068032555 -0.016015563
-0.0009708825 -0.016028527 0.008257446 0.0013565418 0.009119779 0.029013157 0.0016749955 -0.062770344
-0.023015311 0.03904582 0.017561145 -0.25508356 -0.010604084 0.07902708 0.34833717 0.10874082
-0.11498679 0.0013873515 0.42976218 -0.24468479 -0.910104 0.4319761 0.26370165 0.92942816
0.021187289 -0.6933324 -0.26510087 -0.23930357 0.558864 0.22954364 -0.93500865 -0.27098152
-0.058811627 -0.67733514 0.14171326 -0.13157217 0.16706157 0.061954018 -0.049598515 -0.08484708

betas f4 [25, 10]
00000000: 2bd1 8d3f 2693 93bf 172f cb3e 415a ecbe
00000010: da23 e8be 40f8 c03c 33b7 f2be b095 2abf
00000020: 0258 b3be d059 d7bc 2bd1 8d3f 2693 93bf
00000030: 172f cb3e 415a ecbe da23 e8be 40f8 c03c
00000040: 33b7 f2be b095 2abf 0258 b3be d059 d7bc
00000050: 2bd1 8d3f 2693 93bf 172f cb3e 415a ecbe
00000060: da23 e8be 40f8 c03c 33b7 f2be b095 2abf
00000070: 0258 b3be d059 d7bc 2bd1 8d3f 2693 93bf
00000080: 172f cb3e 415a ecbe da23 e8be 40f8 c03c
00000090: 33b7 f2be b095 2abf 0258 b3be d059 d7bc
000000a0: 2bd1 8d3f 2693 93bf 172f cb3e 415a ecbe
000000b0: da23 e8be 40f8 c03c 33b7 f2be b095 2abf
000000c0: 0258 b3be d059 d7bc 2bd1 8d3f 2693 93bf
000000d0: 172f cb3e 415a ecbe da23 e8be 40f8 c03c
000000e0: 33b7 f2be b095 2abf 0258 b3be d059 d7bc
000000f0: 2bd1 8d3f 2693 93bf 172f cb3e 415a ecbe
00000100: da23 e8be 40f8 c03c 33b7 f2be b095 2abf
00000110: 0258 b3be d059 d7bc 2bd1 8d3f 2693 93bf
00000120: 172f cb3e 415a ecbe da23 e8be 40f8 c03c
00000130: 33b7 f2be b095 2abf 0258 b3be d059 d7bc
00000140: 2bd1 8d3f 2693 93bf 172f cb3e 415a ecbe
00000150: da23 e8be 40f8 c03c 33b7 f2be b095 2abf
00000160: 0258 b3be d059 d7bc 2bd1 8d3f 2693 93bf
00000170: 172f cb3e 415a ecbe da23 e8be 40f8 c03c
00000180: 33b7 f2be b095 2abf 0258 b3be d059 d7bc
00000190: 2bd1 8d3f 2693 93bf 172f cb3e 415a ecbe
000001a0: da23 e8be 40f8 c03c 33b7 f2be b095 2abf
000001b0: 0258 b3be d059 d7bc 2bd1 8d3f 2693 93bf
000001c0: 172f cb3e 415a ecbe da23 e8be 40f8 c03c
000001d0: 33b7 f2be b095 2abf 0258 b3be d059 d7bc
000001e0: 2bd1 8d3f 2693 93bf 172f cb3e 415a ecbe
000001f0: da23 e8be 40f8 c03c 33b7 f2be b095 2abf
00000200: 0258 b3be d059 d7bc 2bd1 8d3f 2693 93bf
00000210: 172f cb3e 415a ecbe da23 e8be 40f8 c03c
00000220: 33b7 f2be b095 2abf 0258 b3be d059 d7bc
00000230: 2bd1 8d3f 2693 93bf 172f cb3e 415a ecbe
00000240: da23 e8be 40f8 c03c 33b7 f2be b095 2abf
00000250: 0258 b3be d059 d7bc 2bd1 8d3f 2693 93bf
00000260: 172f cb3e 415a ecbe da23 e8be 40f8 c03c
00000270: 33b7 f2be b095 2abf 0258 b3be d059 d7bc
00000280: 2bd1 8d3f 2693 93bf 172f cb3e 415a ecbe
00000290: da23 e8be 40f8 c03c 33b7 f2be b095 2abf
000002a0: 0258 b3be d059 d7bc 2bd1 8d3f 2693 93bf
000002b0: 172f cb3e 415a ecbe da23 e8be 40f8 c03c
000002c0: 33b7 f2be b095 2abf 0258 b3be d059 d7bc
000002d0: 2bd1 8d3f 2693 93bf 172f cb3e 415a ecbe
000002e0: da23 e8be 40f8 c03c 33b7 f2be b095 2abf
000002f0: 0258 b3be d059 d7bc 2bd1 8d3f 2693 93bf
00000300: 172f cb3e 415a ecbe da23 e8be 40f8 c03c
00000310: 33b7 f2be b095 2abf 0258 b3be d059 d7bc
00000320: 2bd1 8d3f 2693 93bf 172f cb3e 415a ecbe
00000330: da23 e8be 40f8 c03c 33b7 f2be b095 2abf
00000340: 0258 b3be d059 d7bc 2bd1 8d3f 2693 93bf
00000350: 172f cb3e 415a ecbe da23 e8be 40f8 c03c
00000360: 33b7 f2be b095 2abf 0258 b3be d059 d7bc
00000370: 2bd1 8d3f 2693 93bf 172f cb3e 415a ecbe
00000380: da23 e8be 40f8 c03c 33b7 f2be b095 2abf
00000390: 0258 b3be d059 d7bc 2bd1 8d3f 2693 93bf
000003a0: 172f cb3e 415a ecbe da23 e8be 40f8 c03c
000003b0: 33b7 f2be b095 2abf 0258 b3be d059 d7bc
000003c0: 2bd1 8d3f 2693 93bf 172f cb3e 415a ecbe
000003d0: da23 e8be 40f8 c03c 33b7 f2be b095 2abf
000003e0: 0258 b3be d059 d7bc
1.1079458 -1.1529281 0.39684364 -0.46162608 -0.45339853 0.023555875 -0.47405395 -0.66634655
-0.35028082 -0.026287943 1.1079458 -1.1529281 0.39684364 -0.46162608 -0.45339853 0.023555875
-0.47405395 -0.66634655 -0.35028082 -0.026287943 1.1079458 -1.1529281 0.39684364 -0.46162608
-0.45339853 0.023555875 -0.47405395 -0.66634655 -0.35028082 -0.026287943 1.1079458 -1.1529281
0.39684364 -0.46162608 -0.45339853 0.023555875 -0.47405395 -0.66634655 -0.35028082 -0.026287943
1.1079458 -1.1529281 0.39684364 -0.46162608 -0.45339853 0.023555875 -0.47405395 -0.66634655
-0.35028082 -0.026287943 1.1079458 -1.1529281 0.39684364 -0.46162608 -0.45339853 0.023555875
-0.47405395 -0.66634655 -0.35028082 -0.026287943 1.1079458 -1.1529281 0.39684364 -0.46162608
-0.45339853 0.023555875 -0.47405395 -0.66634655 -0.35028082 -0.026287943 1.1079458 -1.1529281
0.39684364 -0.46162608 -0.45339853 0.023555875 -0.47405395 -0.66634655 -0.35028082 -0.026287943
1.1079458 -1.1529281 0.39684364 -0.46162608 -0.45339853 0.023555875 -0.47405395 -0.66634655
-0.35028082 -0.026287943 1.1079458 -1.1529281 0.39684364 -0.46162608 -0.45339853 0.023555875
-0.47405395 -0.66634655 -0.35028082 -0.026287943 1.1079458 -1.1529281 0.39684364 -0.46162608
-0.45339853 0.023555875 -0.47405395 -0.66634655 -0.35028082 -0.026287943 1.1079458 -1.1529281
0.39684364 -0.46162608 -0.45339853 0.023555875 -0.47405395 -0.66634655 -0.35028082 -0.026287943
1.1079458 -1.1529281 0.39684364 -0.46162608 -0.45339853 0.023555875 -0.47405395 -0.66634655
-0.35028082 -0.026287943 1.1079458 -1.1529281 0.39684364 -0.46162608 -0.45339853 0.023555875
-0.47405395 -0.66634655 -0.35028082 -0.026287943 1.1079458 -1.1529281 0.39684364 -0.46162608
-0.45339853 0.023555875 -0.47405395 -0.66634655 -0.35028082 -0.026287943 1.1079458 -1.1529281
0.39684364 -0.46162608 -0.45339853 0.023555875 -0.47405395 -0.66634655 -0.35028082 -0.026287943
1.1079458 -1.1529281 0.39684364 -0.46162608 -0.45339853 0.023555875 -0.47405395 -0.66634655
-0.35028082 -0.026287943 1.1079458 -1.1529281 0.39684364 -0.46162608 -0.45339853 0.023555875
-0.47405395 -0.66634655 -0.35028082 -0.026287943 1.1079458 -1.1529281 0.39684364 -0.46162608
-0.45339853 0.023555875 -0.47405395 -0.66634655 -0.35028082 -0.026287943 1.1079458 -1.1529281
0.39684364 -0.46162608 -0.45339853 0.023555875 -0.47405395 -0.66634655 -0.35028082 -0.026287943
1.1079458 -1.1529281 0.39684364 -0.46162608 -0.45339853 0.023555875 -0.47405395 -0.66634655
-0.35028082 -0.026287943 1.1079458 -1.1529281 0.39684364 -0.46162608 -0.45339853 0.023555875
-0.47405395 -0.66634655 -0.35028082 -0.026287943 1.1079458 -1.1529281 0.39684364 -0.46162608
-0.45339853 0.023555875 -0.47405395 -0.66634655 -0.35028082 -0.026287943 1.1079458 -1.1529281
0.39684364 -0.46162608 -0.45339853 0.023555875 -0.47405395 -0.66634655 -0.35028082 -0.026287943
1.1079458 -1.1529281 0.39684364 -0.46162608 -0.45339853 0.023555875 -0.47405395 -0.66634655
-0.35028082 -0.026287943

global_orient f4 [25, 3]
00000000: b208 24bd 308b 42c0 004f c5bd c914 25bd
00000010: ba8a 42c0 2036 c5bd 649d 25bd 818d 42c0
00000020: 2445 c5bd fa52 25bd 1c8c 42c0 532b c5bd
00000030: 0e22 26bd a78b 42c0 1574 c5bd 0824 26bd
00000040: f88d 42c0 a9bf c5bd 0824 26bd f88d 42c0
00000050: d88e c5bd 4eda 26bd 0b8d 42c0 b281 c5bd
00000060: b1b5 26bd 0b8d 42c0 1a9a c5bd 7f5d 26bd
00000070: ce89 42c0 9e8a c5bd 403b 26bd 938c 42c0
00000080: d068 c5bd 4553 26bd 1f8c 42c0 2a99 c5bd
00000090: 7a84 26bd 958c 42c0 40be c5bd ac46 26bd
000000a0: a98b 42c0 50bd c5bd 0e22 26bd a78b 42c0
000000b0: b198 c5bd e482 26bd ba8a 42c0 2036 c5bd
000000c0: 378f 25bd 308b 42c0 9736 c5bd 3645 25bd
000000d0: 448a 42c0 a835 c5bd d076 25bd 318b 42c0
000000e0: 6967 c5bd 3e9a 25bd ce89 42c0 d196 c5bd
000000f0: 4380 25bd f587 42c0 2064 c5bd 4380 25bd
00000100: f587 42c0 2064 c5bd 9dee 24bd e288 42c0
00000110: e195 c5bd c721 25bd a78b 42c0 83c9 c5bd
00000120: 6346 25bd a78b 42c0 1574 c5bd
-0.040047355 -3.0397453 -0.09634209 -0.040303025 -3.0397172 -0.09629464 -0.040433303 -3.0398867
-0.09632328 -0.040362336 -3.0398016 -0.09627404 -0.04055982 -3.0397737 -0.096412815 -0.040561706
-3.039915 -0.09655697 -0.040561706 -3.039915 -0.09646386 -0.040735535 -3.0398586 -0.09643878
-0.04070062 -3.0398586 -0.09648533 -0.04061651 -3.039661 -0.0964558 -0.04058385 -3.03983
-0.09639132 -0.040606756 -3.0398023 -0.09648354 -0.040653683 -3.0398304 -0.09655428 -0.04059474
-3.0397742 -0.09655249 -0.04055982 -3.0397737 -0.09648264 -0.04065217 -3.0397172 -0.09629464
-0.040419783 -3.0397453 -0.09629553 -0.040349208 -3.039689 -0.09629375 -0.04039651 -3.0397456
-0.096388645 -0.0404303 -3.039661 -0.096479066 -0.040405523 -3.0395482 -0.09638238 -0.040405523
-3.0395482 -0.09638238 -0.04026662 -3.0396047 -0.09647728 -0.040315416 -3.0397737 -0.09657576
-0.04035033 -3.0397737 -0.096412815

body_pose f4 [25, 63]
00000000: 1a2b 2b3e b23a 7e3d 6ef1 4abd 7822 aebd
00000010: 4c8b f1bd f6ad 57be d85b eabc 87de e03c
00000020: 4a12 e3bd 2c45 96bd 886d 953c 25fa 7abd
00000030: 9bfd 943c 1c34 f5bd 4631 66bb 883a 93bc
00000040: b951 543c b344 1a3d ba7a bebd 84c5 663e
00000050: 0aa3 153e ab04 4b3e a734 67be 9f38 883d
00000060: 2d0a 973d 0e6a df3b 2927 83bc 3cc3 79ba
00000070: 825e 83bc 175a 063c 8847 b33a f412 153c
00000080: e523 ed3c 2bba c43a cdb2 80bd 16e6 babc
00000090: 770f 203d 8ba7 8e3c 709e 82be 09be 2dbc
000000a0: 5787 a13d d353 b23e 72b5 de3d 8c19 ebbd
000000b0: 99f7 da3a 6219 dc3e ca93 7abe effb 68bf
000000c0: db2f dd3e 3607 873e 9ee5 6d3f 51a6 ab3c
000000d0: 0a9d 31bf c7d9 87be caac 74be d813 0f3f
000000e0: 6601 6b3e 095c 6fbf 75bb 8abe 37a6 6fbd
000000f0: 1358 2dbf 3a31 113e f6c5 06be 4d09 2b3e
00000100: 1bd0 7d3d 332e 4bbd a42a aebd 8c70 f1bd
00000110: 85da 57be 6b90 ebbc 92c3 e03c 950a e3bd
00000120: 8ed9 95bd 6901 953c b735 7bbd 17a1 963c
00000130: 909f f4bd aad7 60bb 98fa 92bc 4ea8 543c
00000140: 131f 1a3d c8ab bebd e803 673e dcb6 153e
00000150: f67b 4a3e d31f 67be 12b7 873d cc1e 973d
00000160: 2ba1 df3b 8748 83bc 6943 7dba f138 83bc
00000170: 5de9 063c 13be b33a c64c 153c 1962 ed3c
00000180: bb78 d43a 6692 80bd 3115 bcbc bc9b 1f3d
00000190: 46a7 8e3c d090 82be 6517 2ebc cb7f a13d
000001a0: d762 b23e 5999 de3d 844f ebbd 3bfb c13a
000001b0: 860b dc3e df9c 7abe d908 69bf 9431 dd3e
000001c0: 85f9 863e f2e8 6d3f 7790 ad3c 0373 31bf
000001d0: 6db1 87be 3cc2 74be 6823 0f3f 3226 6b3e
000001e0: 6c5a 6fbf edc5 8abe a26f 70bd 0167 2dbf
000001f0: 682c 113e 54e4 06be b02d 2b3e f5a9 7d3d
00000200: a46f 4bbd b9ce adbd bc85 f1bd 34cc 57be
00000210: 93e7 ebbc e873 e03c 4502 e3bd 54e6 95bd
00000220: 481f 943c da55 7bbd 76ab 923c 0f6f f4bd
00000230: f70a 67bb 5b08 93bc 73a3 543c 5ce8 193d
00000240: 6af6 bebd ffeb 663e faab 153e 1e79 4a3e
00000250: 4347 67be f2b6 873d e548 973d e2f9 dd3b
00000260: 773d 83bc 0149 7bba 2027 83bc 55c7 063c
00000270: 74d2 b63a d649 153c a298 ed3c eaf0 d53a
00000280: a27f 80bd 1051 bcbc e5d5 1f3d c92e 903c
00000290: d79a 82be edce 2ebc 95c5 a13d 8858 b23e
000002a0: 35b1 de3d 6b3e ebbd f63d b93a ff1d dc3e
000002b0: 435c 7abe bcf4 68bf f23b dd3e 5d0a 873e
000002c0: 9ee8 6d3f 6916 b03c d78b 31bf 70c7 87be
000002d0: 78be 74be 2b1c 0f3f 2c3e 6b3e d255 6fbf
000002e0: bdcb 8abe cac0 70bd 1d5e 2dbf 4335 113e
000002f0: 82c8 06be a830 2b3e 6429 7e3d e40a 4bbd
00000300: 1def adbd 397d f1bd c1d1 57be 968f ebbc
00000310: 5793 e03c edeb e2bd 5326 96bd 10ee 943c
00000320: 9b70 7bbd a57b 953c b86b f4bd 4de0 5bbb
00000330: fa10 93bc bec3 543c 3ef1 193d e63e bfbd
00000340: 24e4 663e b5b8 153e a704 4a3e 3339 67be
00000350: 487c 873d 0f44 973d d8ed de3b 1233 83bc
00000360: d282 7eba 424e 83bc 3d4a 073c fdcd b13a
00000370: 206b 153c 00ad ed3c 868b db3a bd8d 80bd
00000380: 9b8a bcbc 82ee 1f3d 64dc 8f3c 509a 82be
00000390: c0bc 2dbc f3d8 a13d 4059 b23e 82b3 de3d
000003a0: 327e ebbd cbd7 b53a ca09 dc3e a68e 7abe
000003b0: 93fc 68bf f92b dd3e e703 873e 01ef 6d3f
000003c0: f790 ad3c 3b7e 31bf 4dbb 87be ff0b 75be
000003d0: b611 0f3f 7d0d 6b3e ba5c 6fbf 17be 8abe
000003e0: 76e4 70bd d665 2dbf 481d 113e dbba 06be
000003f0: 3012 2b3e 7fc3 7d3d d027 4bbd 4ec4 adbd
0.1671566 0.062067695 -0.04954665 -0.08502668 -0.11794147 -0.21062455 -0.028608248 0.02744986
-0.11087473 -0.07337412 0.018240705 -0.061273713 0.018187335 -0.1197283 -0.0035124584 -0.017972246
0.012958937 0.037663173 -0.09300752 0.22536284 0.14612976 0.19826 -0.22578679 0.066514246
0.07374988 0.0068180626 -0.016009884 -0.00095276884 -0.016036276 0.00820019 0.0013677934 0.009098757
0.02894778 0.0015009096 -0.062841035 -0.022814792 0.03907725 0.017413875 -0.25511503 -0.01060439
0.07887142 0.34829578 0.10874452 -0.11479482 0.001670587 0.42988116 -0.2447044 -0.9100942
0.43200573 0.2637269 0.92928493 0.02095333 -0.6938025 -0.26533338 -0.23894039 0.55889654
0.22949752 -0.9349981 -0.27096143 -0.058508124 -0.67712516 0.14178935 -0.13161454 0.16702767
0.061966043 -0.049604606 -0.08504227 -0.11789045 -0.21079452 -0.028755387 0.027437005 -0.11086003
-0.07316886 0.018189149 -0.061330523 0.01838736 -0.11944497 -0.0034308233 -0.017941758 0.01297958
0.03762729 -0.093101084 0.22560084 0.14620537 0.1977385 -0.22570734 0.06626715 0.07378921
0.0068246326 -0.016025795 -0.0009661229 -0.016018363 0.008234349 0.0013713263 0.0091125425 0.02897744
0.0016210297 -0.06277923 -0.022959324 0.03896688 0.017413747 -0.25501108 -0.010625695 0.07885703
0.34841034 0.108690925 -0.11489776 0.0014799604 0.42977542 -0.24473904 -0.91029125 0.43201888
0.26362243 0.9293357 0.02118705 -0.6931612 -0.26502553 -0.2390222 0.559134 0.22963789
-0.9349735 -0.2710413 -0.05870021 -0.67735296 0.14177096 -0.13173038 0.16716647 0.06192966
-0.049667016 -0.08486695 -0.11793086 -0.21073991 -0.028796947 0.027399018 -0.11084417 -0.07319322
0.018081322 -0.06136117 0.017904025 -0.11935245 -0.0035254338 -0.01794832 0.012978422 0.03757511
-0.093243435 0.22550963 0.14616385 0.19772765 -0.22585778 0.06626691 0.073869504 0.006774173
-0.01602052 -0.00095857686 -0.016009867 0.008226235 0.0013948218 0.009111842 0.029003445 0.0016322408
-0.06274344 -0.022987872 0.039022345 0.017600434 -0.25508758 -0.010669452 0.07899014 0.3483317
0.10873643 -0.11486515 0.0014132846 0.42991635 -0.24449258 -0.90998435 0.43209797 0.26375094
0.9293307 0.021495061 -0.69354004 -0.26519346 -0.23900783 0.55902356 0.22972935 -0.93490326
-0.27108565 -0.058777608 -0.6772173 0.14180474 -0.13162425 0.1671778 0.062051192 -0.049570933
-0.08492873 -0.117914625 -0.21076109 -0.02875499 0.027414007 -0.110801555 -0.073315285 0.018179923
-0.061386686 0.018247435 -0.11934608 -0.0033550442 -0.017952431 0.012986122 0.037583582 -0.09338169
0.22547966 0.14621241 0.19728337 -0.22580414 0.06615502 0.07386028 0.0068032555 -0.016015563
-0.0009708825 -0.016028527 0.008257446 0.0013565418 0.009119779 0.029013157 0.0016749955 -0.062770344
-0.023015311 0.03904582 0.017561145 -0.25508356 -0.010604084 0.07902708 0.34833717 0.10874082
-0.11498679 0.0013873515 0.42976218 -0.24468479 -0.910104 0.4319761 0.26370165 0.92942816
0.021187289 -0.6933324 -0.26510087 -0.23930357 0.558864 0.22954364 -0.93500865 -0.27098152
-0.058811627 -0.67733514 0.14171326 -0.13157217 0.16706157 0.061954018 -0.049598515 -0.08484708

betas f4 [25, 10]
00000000: 2bd1 8d3f 2693 93bf 172f cb3e 415a ecbe
00000010: da23 e8be 40f8 c03c 33b7 f2be b095 2abf
00000020: 0258 b3be d059 d7bc 2bd1 8d3f 2693 93bf
00000030: 172f cb3e 415a ecbe da23 e8be 40f8 c03c
00000040: 33b7 f2be b095 2abf 0258 b3be d059 d7bc
00000050: 2bd1 8d3f 2693 93bf 172f cb3e 415a ecbe
00000060: da23 e8be 40f8 c03c 33b7 f2be b095 2abf
00000070: 0258 b3be d059 d7bc 2bd1 8d3f 2693 93bf
00000080: 172f cb3e 415a ecbe da23 e8be 40f8 c03c
00000090: 33b7 f2be b095 2abf 0258 b3be d059 d7bc
000000a0: 2bd1 8d3f 2693 93bf 172f cb3e 415a ecbe
000000b0: da23 e8be 40f8 c03c 33b7 f2be b095 2abf
000000c0: 0258 b3be d059 d7bc 2bd1 8d3f 2693 93bf
000000d0: 172f cb3e 415a ecbe da23 e8be 40f8 c03c
000000e0: 33b7 f2be b095 2abf 0258 b3be d059 d7bc
000000f0: 2bd1 8d3f 2693 93bf 172f cb3e 415a ecbe
00000100: da23 e8be 40f8 c03c 33b7 f2be b095 2abf
00000110: 0258 b3be d059 d7bc 2bd1 8d3f 2693 93bf
00000120: 172f cb3e 415a ecbe da23 e8be 40f8 c03c
00000130: 33b7 f2be b095 2abf 0258 b3be d059 d7bc
00000140: 2bd1 8d3f 2693 93bf 172f cb3e 415a ecbe
00000150: da23 e8be 40f8 c03c 33b7 f2be b095 2abf
00000160: 0258 b3be d059 d7bc 2bd1 8d3f 2693 93bf
00000170: 172f cb3e 415a ecbe da23 e8be 40f8 c03c
00000180: 33b7 f2be b095 2abf 0258 b3be d059 d7bc
00000190: 2bd1 8d3f 2693 93bf 172f cb3e 415a ecbe
000001a0: da23 e8be 40f8 c03c 33b7 f2be b095 2abf
000001b0: 0258 b3be d059 d7bc 2bd1 8d3f 2693 93bf
000001c0: 172f cb3e 415a ecbe da23 e8be 40f8 c03c
000001d0: 33b7 f2be b095 2abf 0258 b3be d059 d7bc
000001e0: 2bd1 8d3f 2693 93bf 172f cb3e 415a ecbe
000001f0: da23 e8be 40f8 c03c 33b7 f2be b095 2abf
00000200: 0258 b3be d059 d7bc 2bd1 8d3f 2693 93bf
00000210: 172f cb3e 415a ecbe da23 e8be 40f8 c03c
00000220: 33b7 f2be b095 2abf 0258 b3be d059 d7bc
00000230: 2bd1 8d3f 2693 93bf 172f cb3e 415a ecbe
00000240: da23 e8be 40f8 c03c 33b7 f2be b095 2abf
00000250: 0258 b3be d059 d7bc 2bd1 8d3f 2693 93bf
00000260: 172f cb3e 415a ecbe da23 e8be 40f8 c03c
00000270: 33b7 f2be b095 2abf 0258 b3be d059 d7bc
00000280: 2bd1 8d3f 2693 93bf 172f cb3e 415a ecbe
00000290: da23 e8be 40f8 c03c 33b7 f2be b095 2abf
000002a0: 0258 b3be d059 d7bc 2bd1 8d3f 2693 93bf
000002b0: 172f cb3e 415a ecbe da23 e8be 40f8 c03c
000002c0: 33b7 f2be b095 2abf 0258 b3be d059 d7bc
000002d0: 2bd1 8d3f 2693 93bf 172f cb3e 415a ecbe
000002e0: da23 e8be 40f8 c03c 33b7 f2be b095 2abf
000002f0: 0258 b3be d059 d7bc 2bd1 8d3f 2693 93bf
00000300: 172f cb3e 415a ecbe da23 e8be 40f8 c03c
00000310: 33b7 f2be b095 2abf 0258 b3be d059 d7bc
00000320: 2bd1 8d3f 2693 93bf 172f cb3e 415a ecbe
00000330: da23 e8be 40f8 c03c 33b7 f2be b095 2abf
00000340: 0258 b3be d059 d7bc 2bd1 8d3f 2693 93bf
00000350: 172f cb3e 415a ecbe da23 e8be 40f8 c03c
00000360: 33b7 f2be b095 2abf 0258 b3be d059 d7bc
00000370: 2bd1 8d3f 2693 93bf 172f cb3e 415a ecbe
00000380: da23 e8be 40f8 c03c 33b7 f2be b095 2abf
00000390: 0258 b3be d059 d7bc 2bd1 8d3f 2693 93bf
000003a0: 172f cb3e 415a ecbe da23 e8be 40f8 c03c
000003b0: 33b7 f2be b095 2abf 0258 b3be d059 d7bc
000003c0: 2bd1 8d3f 2693 93bf 172f cb3e 415a ecbe
000003d0: da23 e8be 40f8 c03c 33b7 f2be b095 2abf
000003e0: 0258 b3be d059 d7bc
1.1079458 -1.1529281 0.39684364 -0.46162608 -0.45339853 0.023555875 -0.47405395 -0.66634655
-0.35028082 -0.026287943 1.1079458 -1.1529281 0.39684364 -0.46162608 -0.45339853 0.023555875
-0.47405395 -0.66634655 -0.35028082 -0.026287943 1.1079458 -1.1529281 0.39684364 -0.46162608
-0.45339853 0.023555875 -0.47405395 -0.66634655 -0.35028082 -0.026287943 1.1079458 -1.1529281
0.39684364 -0.46162608 -0.45339853 0.023555875 -0.47405395 -0.66634655 -0.35028082 -0.026287943
1.1079458 -1.1529281 0.39684364 -0.46162608 -0.45339853 0.023555875 -0.47405395 -0.66634655
-0.35028082 -0.026287943 1.1079458 -1.1529281 0.39684364 -0.46162608 -0.45339853 0.023555875
-0.47405395 -0.66634655 -0.35028082 -0.026287943 1.1079458 -1.1529281 0.39684364 -0.46162608
-0.45339853 0.023555875 -0.47405395 -0.66634655 -0.35028082 -0.026287943 1.1079458 -1.1529281
0.39684364 -0.46162608 -0.45339853 0.023555875 -0.47405395 -0.66634655 -0.35028082 -0.026287943
1.1079458 -1.1529281 0.39684364 -0.46162608 -0.45339853 0.023555875 -0.47405395 -0.66634655
-0.35028082 -0.026287943 1.1079458 -1.1529281 0.39684364 -0.46162608 -0.45339853 0.023555875
-0.47405395 -0.66634655 -0.35028082 -0.026287943 1.1079458 -1.1529281 0.39684364 -0.46162608
-0.45339853 0.023555875 -0.47405395 -0.66634655 -0.35028082 -0.026287943 1.1079458 -1.1529281
0.39684364 -0.46162608 -0.45339853 0.023555875 -0.47405395 -0.66634655 -0.35028082 -0.026287943
1.1079458 -1.1529281 0.39684364 -0.46162608 -0.45339853 0.023555875 -0.47405395 -0.66634655
-0.35028082 -0.026287943 1.1079458 -1.1529281 0.39684364 -0.46162608 -0.45339853 0.023555875
-0.47405395 -0.66634655 -0.35028082 -0.026287943 1.1079458 -1.1529281 0.39684364 -0.46162608
-0.45339853 0.023555875 -0.47405395 -0.66634655 -0.35028082 -0.026287943 1.1079458 -1.1529281
0.39684364 -0.46162608 -0.45339853 0.023555875 -0.47405395 -0.66634655 -0.35028082 -0.026287943
1.1079458 -1.1529281 0.39684364 -0.46162608 -0.45339853 0.023555875 -0.47405395 -0.66634655
-0.35028082 -0.026287943 1.1079458 -1.1529281 0.39684364 -0.46162608 -0.45339853 0.023555875
-0.47405395 -0.66634655 -0.35028082 -0.026287943 1.1079458 -1.1529281 0.39684364 -0.46162608
-0.45339853 0.023555875 -0.47405395 -0.66634655 -0.35028082 -0.026287943 1.1079458 -1.1529281
0.39684364 -0.46162608 -0.45339853 0.023555875 -0.47405395 -0.66634655 -0.35028082 -0.026287943
1.1079458 -1.1529281 0.39684364 -0.46162608 -0.45339853 0.023555875 -0.47405395 -0.66634655
-0.35028082 -0.026287943 1.1079458 -1.1529281 0.39684364 -0.46162608 -0.45339853 0.023555875
-0.47405395 -0.66634655 -0.35028082 -0.026287943 1.1079458 -1.1529281 0.39684364 -0.46162608
-0.45339853 0.023555875 -0.47405395 -0.66634655 -0.35028082 -0.026287943 1.1079458 -1.1529281
0.39684364 -0.46162608 -0.45339853 0.023555875 -0.47405395 -0.66634655 -0.35028082 -0.026287943
1.1079458 -1.1529281 0.39684364 -0.46162608 -0.45339853 0.023555875 -0.47405395 -0.66634655
-0.35028082 -0.026287943

global_orient f4 [25, 3]
00000000: 344f 45c0 6d9d a9bc 32d9 f7bd 694d 45c0
00000010: b694 a9bc 4ee2 f7bd 954e 45c0 0e21 a9bc
00000020: 4ca5 f7bd 8a4d 45c0 a065 a9bc 57b4 f7bd
00000030: b54f 45c0 05a4 a8bc d2f7 f7bd f94f 45c0
00000040: dd96 a8bc 43b6 f7bd 7d4f 45c0 3aec a8bc
00000050: 56d8 f7bd 5450 45c0 e359 a8bc efed f7bd
00000060: c24e 45c0 a0b3 a7bc 26fe f7bd 9f4f 45c0
00000070: 0f46 a7bc 23b4 f8bd 044f 45c0 8f24 a8bc
00000080: fc4a f8bd 1c50 45c0 c6a0 a7bc 477a f8bd
00000090: 2f50 45c0 413d a7bc f17f f8bd d750 45c0
000000a0: d96f a7bc 839e f8bd 5b50 45c0 9ae8 a7bc
000000b0: fc88 f8bd 1950 45c0 99c5 a7bc 26c0 f8bd
000000c0: 5450 45c0 cc7f a7bc 95b5 f8bd 5750 45c0
000000d0: dc92 a7bc 18e0 f8bd b450 45c0 5e2a a8bc
000000e0: 99dc f8bd 3851 45c0 9cc8 a7bc 7ef6 f8bd
000000f0: be50 45c0 c95b a8bc df5d f9bd 6650 45c0
00000100: b300 a8bc ce5c f9bd 9151 45c0 2a71 a8bc
00000110: 0824 f9bd 3851 45c0 7155 a8bc f199 f8bd
00000120: 7250 45c0 2974 a8bc afa9 f8bd
-3.0829592 -0.02070495 -0.121019736 -3.0828497 -0.020700794 -0.12103711 -3.0829213 -0.020645645
-0.12092075 -3.0828576 -0.020678341 -0.12094944 -3.08299 -0.020586023 -0.12107815 -3.0830061
-0.02057975 -0.120953105 -3.0829766 -0.020620454 -0.1210181 -3.0830278 -0.020550674 -0.12105929
-3.082932 -0.020471394 -0.12109022 -3.0829847 -0.020419149 -0.12143733 -3.0829477 -0.020525245
-0.12123677 -3.0830145 -0.020462405 -0.121326976 -3.083019 -0.02041495 -0.12133778 -3.083059
-0.020439075 -0.12139609 -3.0830295 -0.020496655 -0.12135503 -3.0830138 -0.020479964 -0.121460244
-3.0830278 -0.02044668 -0.12144009 -3.0830286 -0.02045577 -0.121521175 -3.0830507 -0.020528015
-0.12151451 -3.0830822 -0.0204814 -0.1215639 -3.083053 -0.02055158 -0.121761076 -3.0830321
-0.020508146 -0.12175904 -3.0831034 -0.020561773 -0.121650755 -3.0830822 -0.020548554 -0.12138737
-3.083035 -0.020563202 -0.121417396

transl f4 [25, 3]
00000000: 888d 62bc 078e 103f 6e28 4f40 b037 62bc
00000010: b28f 103f e226 4f40 6091 62bc 2090 103f
00000020: 6025 4f40 c080 62bc 3c91 103f ed24 4f40
00000030: 1027 63bc 5a8e 103f 2528 4f40 9871 63bc
00000040: 738e 103f 3f25 4f40 88b7 63bc 3a90 103f
00000050: 2123 4f40 58fc 63bc 778e 103f fe22 4f40
00000060: 381c 64bc 7390 103f 8a22 4f40 50eb 63bc
00000070: 3a91 103f 431f 4f40 08fa 63bc 9892 103f
00000080: 3d1f 4f40 28c0 63bc d092 103f 581f 4f40
00000090: c8eb 63bc c592 103f 8b1e 4f40 10e1 63bc
000000a0: 7d92 103f 161d 4f40 4001 64bc 3093 103f
000000b0: 501d 4f40 d836 64bc 6092 103f e41d 4f40
000000c0: 8030 64bc 0692 103f c31c 4f40 6854 64bc
000000d0: f592 103f 781b 4f40 e056 64bc ce93 103f
000000e0: 6219 4f40 d866 64bc 1093 103f ec1a 4f40
000000f0: 609e 64bc a493 103f 601b 4f40 40b5 64bc
00000100: c693 103f d61b 4f40 00b2 64bc 7292 103f
00000110: 091b 4f40 e89a 64bc ca93 103f 471a 4f40
00000120: 8883 64bc f093 103f a519 4f40
-0.013827689 0.56466717 3.2368426 -0.013807222 0.5646926 3.2367482 -0.013828605 0.5646992
3.2366562 -0.013824642 0.5647161 3.2366288 -0.013864294 0.5646721 3.2368252 -0.013882063
0.5646736 3.2366483 -0.013898738 0.5647007 3.236519 -0.013915144 0.56467384 3.2365108
-0.0139227435 0.5647041 3.236483 -0.013911083 0.564716 3.236283 -0.013914593 0.56473684
3.2362816 -0.013900794 0.5647402 3.236288 -0.013911195 0.5647395 3.2362392 -0.01390864
0.56473523 3.2361503 -0.013916314 0.5647459 3.236164 -0.013929091 0.5647335 3.2361994
-0.013927579 0.56472814 3.2361305 -0.01393614 0.5647424 3.2360516 -0.013936728 0.5647553
3.2359242 -0.0139405355 0.564744 3.2360182 -0.013953775 0.5647528 3.2360458 -0.013959229
0.56475484 3.236074 -0.013958454 0.5647346 3.236025 -0.013952948 0.5647551 3.2359788
-0.013947375 0.56475735 3.2359402

K_fullimg f4 [25, 3, 3]
00000000: 0000 e144 0000 0000 0000 0744 0000 0000
00000010: 0000 e144 0000 3444 0000 0000 0000 0000
00000020: 0000 803f 0000 e144 0000 0000 0000 0744
00000030: 0000 0000 0000 e144 0000 3444 0000 0000
00000040: 0000 0000 0000 803f 0000 e144 0000 0000
00000050: 0000 0744 0000 0000 0000 e144 0000 3444
00000060: 0000 0000 0000 0000 0000 803f 0000 e144
00000070: 0000 0000 0000 0744 0000 0000 0000 e144
00000080: 0000 3444 0000 0000 0000 0000 0000 803f
00000090: 0000 e144 0000 0000 0000 0744 0000 0000
000000a0: 0000 e144 0000 3444 0000 0000 0000 0000
000000b0: 0000 803f 0000 e144 0000 0000 0000 0744
000000c0: 0000 0000 0000 e144 0000 3444 0000 0000
000000d0: 0000 0000 0000 803f 0000 e144 0000 0000
000000e0: 0000 0744 0000 0000 0000 e144 0000 3444
000000f0: 0000 0000 0000 0000 0000 803f 0000 e144
00000100: 0000 0000 0000 0744 0000 0000 0000 e144
00000110: 0000 3444 0000 0000 0000 0000 0000 803f
00000120: 0000 e144 0000 0000 0000 0744 0000 0000
00000130: 0000 e144 0000 3444 0000 0000 0000 0000
00000140: 0000 803f 0000 e144 0000 0000 0000 0744
00000150: 0000 0000 0000 e144 0000 3444 0000 0000
00000160: 0000 0000 0000 803f 0000 e144 0000 0000
00000170: 0000 0744 0000 0000 0000 e144 0000 3444
00000180: 0000 0000 0000 0000 0000 803f 0000 e144
00000190: 0000 0000 0000 0744 0000 0000 0000 e144
000001a0: 0000 3444 0000 0000 0000 0000 0000 803f
000001b0: 0000 e144 0000 0000 0000 0744 0000 0000
000001c0: 0000 e144 0000 3444 0000 0000 0000 0000
000001d0: 0000 803f 0000 e144 0000 0000 0000 0744
000001e0: 0000 0000 0000 e144 0000 3444 0000 0000
000001f0: 0000 0000 0000 803f 0000 e144 0000 0000
00000200: 0000 0744 0000 0000 0000 e144 0000 3444
00000210: 0000 0000 0000 0000 0000 803f 0000 e144
00000220: 0000 0000 0000 0744 0000 0000 0000 e144
00000230: 0000 3444 0000 0000 0000 0000 0000 803f
00000240: 0000 e144 0000 0000 0000 0744 0000 0000
00000250: 0000 e144 0000 3444 0000 0000 0000 0000
00000260: 0000 803f 0000 e144 0000 0000 0000 0744
00000270: 0000 0000 0000 e144 0000 3444 0000 0000
00000280: 0000 0000 0000 803f 0000 e144 0000 0000
00000290: 0000 0744 0000 0000 0000 e144 0000 3444
000002a0: 0000 0000 0000 0000 0000 803f 0000 e144
000002b0: 0000 0000 0000 0744 0000 0000 0000 e144
000002c0: 0000 3444 0000 0000 0000 0000 0000 803f
000002d0: 0000 e144 0000 0000 0000 0744 0000 0000
000002e0: 0000 e144 0000 3444 0000 0000 0000 0000
000002f0: 0000 803f 0000 e144 0000 0000 0000 0744
00000300: 0000 0000 0000 e144 0000 3444 0000 0000
00000310: 0000 0000 0000 803f 0000 e144 0000 0000
00000320: 0000 0744 0000 0000 0000 e144 0000 3444
00000330: 0000 0000 0000 0000 0000 803f 0000 e144
00000340: 0000 0000 0000 0744 0000 0000 0000 e144
00000350: 0000 3444 0000 0000 0000 0000 0000 803f
00000360: 0000 e144 0000 0000 0000 0744 0000 0000
00000370: 0000 e144 0000 3444 0000 0000 0000 0000
00000380: 0000 803f
1800.0 0.0 540.0 0.0 1800.0 720.0 0.0 0.0
1.0 1800.0 0.0 540.0 0.0 1800.0 720.0 0.0
0.0 1.0 1800.0 0.0 540.0 0.0 1800.0 720.0
0.0 0.0 1.0 1800.0 0.0 540.0 0.0 1800.0
720.0 0.0 0.0 1.0 1800.0 0.0 540.0 0.0
1800.0 720.0 0.0 0.0 1.0 1800.0 0.0 540.0
0.0 1800.0 720.0 0.0 0.0 1.0 1800.0 0.0
540.0 0.0 1800.0 720.0 0.0 0.0 1.0 1800.0
0.0 540.0 0.0 1800.0 720.0 0.0 0.0 1.0
1800.0 0.0 540.0 0.0 1800.0 720.0 0.0 0.0
1.0 1800.0 0.0 540.0 0.0 1800.0 720.0 0.0
0.0 1.0 1800.0 0.0 540.0 0.0 1800.0 720.0
0.0 0.0 1.0 1800.0 0.0 540.0 0.0 1800.0
720.0 0.0 0.0 1.0 1800.0 0.0 540.0 0.0
1800.0 720.0 0.0 0.0 1.0 1800.0 0.0 540.0
0.0 1800.0 720.0 0.0 0.0 1.0 1800.0 0.0
540.0 0.0 1800.0 720.0 0.0 0.0 1.0 1800.0
0.0 540.0 0.0 1800.0 720.0 0.0 0.0 1.0
1800.0 0.0 540.0 0.0 1800.0 720.0 0.0 0.0
1.0 1800.0 0.0 540.0 0.0 1800.0 720.0 0.0
0.0 1.0 1800.0 0.0 540.0 0.0 1800.0 720.0
0.0 0.0 1.0 1800.0 0.0 540.0 0.0 1800.0
720.0 0.0 0.0 1.0 1800.0 0.0 540.0 0.0
1800.0 720.0 0.0 0.0 1.0 1800.0 0.0 540.0
0.0 1800.0 720.0 0.0 0.0 1.0 1800.0 0.0
540.0 0.0 1800.0 720.0 0.0 0.0 1.0 1800.0
0.0 540.0 0.0 1800.0 720.0 0.0 0.0 1.0
1800.0 0.0 540.0 0.0 1800.0 720.0 0.0 0.0
1.0

pred_context f4 [1, 25, 512]
00000000: 12c4 96bf cca7 063f dce8 bfbf d0ea 24be
00000010: db8d ca3f b99f 3ebf 539b c03e 4c8c 863e
00000020: bb72 4bbe 3ec5 fcbf 5100 3fbe 0fa8 50bf
00000030: 4d3d 203f ccc2 463e 60a3 99be a322 f23e
00000040: ef20 41bf 9aed 083f b8df 79bf 29d9 363e
00000050: 85c9 af3e 7daa 113f 27e0 89bd 8888 31be
00000060: 7ae7 6bbf e8cf 7bbf d07f c3bf e377 c23e
00000070: 13e0 973d 0ff8 983c f000 52bf 2340 d93e
00000080: 2e56 fe3e 6063 2cbe a5a3 95bf 68e2 f33f
00000090: e858 c0be 92e3 12c0 6f4d b3be d02b f9be
000000a0: 585a 5fbe 5c0c cc3d 0f47 6b3f cab1 d2be
000000b0: ee22 39be 07c7 383e ab27 203f 811d f3bf
000000c0: a4e4 b5be 7746 8fbf 9e2b b53f 1b59 0cbf
000000d0: b0bf 993f 200d df3e 643c 053f 837e fabe
000000e0: dfc4 25bf a76f 86bf afb2 ff3d de78 ee3d
000000f0: a277 33be 4171 f6bf f90e a63f 2cc2 84be
00000100: 1018 bd3c 64c2 32be e6f1 c1bf 5a8e e0be
00000110: 13c7 c1bf 4e89 68be 6ded e73c 3b2a 99be
00000120: 7333 be3e 25d9 dbbf c430 20be 7740 7bbf
00000130: a8bd a1bf b4b8 d13e 18f3 d63d aed7 97be
00000140: ebd7 d6be ec43 dbbe 0b1d 36bd 3fd9 97be
00000150: fca5 dbbe 3b70 a2be a1b3 703e 4dee 113e
00000160: d08e 183c e166 96bf 3d25 6dbf f804 e93f
00000170: f038 9d3e 5bd1 343f fda8 39bf 37a4 4e3f
00000180: 8f46 69bf d0fa f03e 1f78 96bd 05f7 bf3f
00000190: 8476 443f ee1c 283f d5cd a1bf aeeb 873f
000001a0: b098 4d3f f113 6f3f 3003 a4bd 8cf3 303e
000001b0: b4bc cabe 9b34 8cbe 44e8 983d 2915 0d3e
000001c0: 0bc3 233e 4f3d 8bbe 34d0 53be 2f3d b83f
000001d0: b40f 3b3f 4f70 4abe 4c6d ccbf b871 0ebf
000001e0: 087c da3d 345b 0f3e 05b0 28bd 69b3 72bf
000001f0: f060 82bf d576 a23f 50d0 aebe 7461 9240
00000200: dc0e a3bf 1495 05bf e593 6f3e ca88 8d3f
00000210: ef52 97bf 7508 c6bf 47df 6ebf 0726 8c3e
00000220: e326 0dc0 2eb2 f23d 4792 363e cefd 113f
00000230: fc06 243e 3618 40bf d5e3 b5bd f3cb e4be
00000240: 15fd 03c0 759f e4be be72 0f3f 5feb a0be
00000250: 90b2 463f 917e d6bf 9920 1dbe 8834 973f
00000260: 76dd 10bf c85a a53c 203a 86bf 054f 99bf
00000270: 8541 933f e969 1dbf f487 393f 0924 373f
00000280: 215f 99bf 94f5 473e 8617 45bf f20a dd3e
00000290: 9d44 05bf 6ddd 84be dc97 22be 8b70 2ebf
000002a0: 925b 26be fa69 b43f 0a91 c8bf f200 8b3e
000002b0: 2a21 45bf 2382 20c0 5088 2bbf 021c 5abf
000002c0: 6a45 b53e 6bea 4dbd 63a6 a53e b8fe b2bc
000002d0: 315b 933f b3f3 2d3f 4310 2ec0 73cc 12bf
000002e0: 3e51 62bf 2f09 243e 61e4 9abf c87d ac3f
000002f0: 1e24 763f b413 503f 0d6a 8b3f 57fc 17bf
00000300: 6234 493f 4c59 62bf c664 8a3f e072 72bf
00000310: 58e1 29bd c659 c4bf 82ef abbe f6ff aabd
00000320: 5213 9c3e 2086 413f 2e03 373e 090c 683e
00000330: 3efe 813f 6cc6 963e d309 fb3f 582e e3bd
00000340: 67d9 dabf bd38 d13e 507e c1be 515b 9f3e
00000350: 28ba bbbe fbea 323f 3873 e93d 23eb c2be
00000360: ba2a 96be 39ff 80bf 8c99 5d3e e1ee adbf
00000370: b7ee 0d3f 762e 99bb 2bc7 83bf b323 e6be
00000380: 8d69 61bf 91c4 4ebe 1666 eebe dc37 e23d
00000390: 46f6 083e 68b3 723f 2651 a83e e23b e13e
000003a0: b16b 10bf 3a2b 2e3f 119c c23e 3524 22c0
000003b0: fdb1 083f 6a7d b73e bdb5 873f b42f 523e
000003c0: 7b95 70bf 1608 133d fb16 55bf 664f d03f
000003d0: 8fe0 da3e 4bee 7bbf 0c50 f8bf e161 e53e
000003e0: fc9b 5abe 4347 953d dcb6 3ebf 0b42 2ebf
000003f0: be79 cbbe 8b5e 4abf 2b32 83be 8400 d8be
-1.1778586 0.5259979 -1.4992938 -0.16105199 1.5824541 -0.7446247 0.37618503 0.26278913
-0.19867985 -1.9747694 -0.18652464 -0.8150644 0.6259354 0.19410247 -0.30007458 0.4729205
-0.7544088 0.5348755 -0.9760699 0.17856278 0.34333435 0.5690077 -0.06732207 -0.17337239
-0.9215008 -0.98364115 -1.527338 0.3798209 0.07415786 0.018672971 -0.8203268 0.42431745
0.49675125 -0.16834784 -1.1690565 1.9053469 -0.3756783 -2.2951398 -0.35020015 -0.4866624
-0.21811807 0.09963295 0.919053 -0.41151267 -0.18079731 0.18044673 0.6256053 -1.8993379
-0.35526 -1.1193379 1.4153936 -0.54823464 1.2011623 0.435647 0.52045274 -0.48924646
-0.64753526 -1.0502824 0.12485253 0.11644147 -0.17526105 -1.9253312 1.2973319 -0.2592939
0.023082763 -0.17456967 -1.5151947 -0.43858606 -1.5138878 -0.22708628 0.028311456 -0.29915032
0.37148628 -1.7175642 -0.15643603 -0.9814524 -1.2636003 0.4096123 0.10495585 -0.29656738
-0.41961607 -0.42825258 -0.04446129 -0.29657933 -0.42900074 -0.3172625 0.23506023 0.14251061
0.009311393 -1.1750146 -0.92634946 1.8204641 0.30707502 0.7063195 -0.7252348 0.8071932
-0.9112329 0.47066355 -0.0734713 1.4997259 0.7674334 0.65669143 -1.264094 1.0618799
0.8031111 0.93389803 -0.080084205 0.17280406 -0.39597094 -0.27383885 0.07466176 0.13777603
0.15992372 -0.27195212 -0.20684892 1.4393672 0.73070836 -0.19769405 -1.5970855 -0.5564227
0.10668188 0.13999635 -0.04118349 -0.9480501 -1.0185833 1.2692515 -0.34143305 4.574396
-1.273891 -0.521806 0.23396261 1.105737 -1.1822184 -1.5471331 -0.93309444 0.27372763
-2.2054985 0.11850391 0.17829238 0.570279 0.1601829 -0.7503694 -0.08881346 -0.4468685
-2.062322 -0.44652906 0.5603446 -0.31429574 0.77616215 -1.6757375 -0.15344466 1.1812906
-0.5658792 0.02018489 -1.0486488 -1.197724 1.150437 -0.6148973 0.72473073 0.7153936
-1.1982156 0.19527274 -0.7698902 0.43172413 -0.5205782 -0.25950184 -0.15878242 -0.68140477
-0.16245869 1.4094841 -1.5669262 0.2714916 -0.7700373 -2.507943 -0.6700487 -0.85198987
0.3540452 -0.050272387 0.32353505 -0.021849975 1.1512204 0.6794998 -2.7197425 -0.57343215
-0.88405216 0.16019128 -1.2100946 1.3475885 0.9614886 0.81280065 1.0891739 -0.59369415
0.78595555 -0.88417506 1.0812004 -0.94706535 -0.04147467 -1.5339897 -0.33581167 -0.08349602
0.3048349 0.75595284 0.17872307 0.22660841 1.0155714 0.2944826 1.9612373 -0.11092824
-1.7097596 0.408636 -0.3779168 0.31124356 -0.36665463 0.698898 0.11398929 -0.3807002
-0.29329473 -1.0077888 0.21640605 -1.3588525 0.55442375 -0.004674728 -1.0295156 -0.4494911
-0.8805168 -0.20192172 -0.4656226 0.110458106 0.13375196 0.94805 0.3287441 0.43991
-0.56414324 0.6803471 0.38009694 -2.53346 0.5339659 0.3583787 1.0602337 0.2052601
-0.9397809 0.035896383 -0.8323819 1.627423 0.4274945 -0.9841048 -1.9399428 0.44801238
-0.21348566 0.07288983 -0.7449777 -0.68069524 -0.3974132 -0.7905051 -0.25624213 -0.42187893

pred_x f4 [1, 25, 151]
00000000: ddbb fc3e 218d 523f 2457 093f 4fed 62bf
00000010: 308c c53e 41c0 59bf fc8d 99be e2cb 9b3f
00000020: 1fa7 38bf 01e3 9abf 44f5 cc3e d63d 15be
00000030: de5b 81be 45be a93f 65ce 163e 8d06 d7bf
00000040: f6c0 c43e f672 953f 610c c43e 62c5 8f3d
00000050: 35ff 283f 62a2 2c3e 266e f33e 73b5 623f
00000060: b604 1b3d 6112 c13e c852 4bbf bece 94be
00000070: df10 1c3f 90f6 5a3f b639 d43e b575 dfbe
00000080: d160 5f3f b916 f13e 986b 0e3f 9051 0a3e
00000090: f357 373d 83e8 69bf f646 b93d 1105 753f
000000a0: 4c13 b63e be73 2bbe e98b c5bd 4627 a4be
000000b0: 40db b8be 6aaf afbc 344d 1a3d 51b2 c0bf
000000c0: 890c 993e a781 273f 790c 043e 114a 0fbf
000000d0: 7863 a23e fad9 cabe a2b2 893e 9adf 063d
000000e0: bea8 ecbe ad34 2abd 0638 273e e0ed 4dbe
000000f0: b90a 803e 4b1e c5be 95de 8c3d f82d b43e
00000100: e54d 823e 468a 4cbd 40b1 da3e 0fdc e03c
00000110: 22b9 b3be 5d59 353c 9b1a 123f 31e5 b53e
00000120: 7689 cd3e 2404 f1bb f335 bc3e ff47 c6bd
00000130: c244 2d3e 47a1 26bf d009 48bc ac06 21bf
00000140: 4598 48be 5b21 373f a994 99be b703 43bd
00000150: 903e a33e f3c6 a23e ad52 27bf 5327 27bf
00000160: 0a7b c13e 471f 12bf 46f6 a6be 1839 9f3e
00000170: a63b 26bf cb60 0abf 6ada 4bbf 4fd5 d0bf
00000180: e210 2dbf cfe5 a1be 7e65 123f 24b3 173f
00000190: 8480 96bf 9495 9abf 8241 043e 1a86 0d40
000001a0: 73ad fcbe 3257 bdbf ec00 0c3e 3861 5d3f
000001b0: ee27 013f 5eb6 26c0 f2f6 01be 332b 9a3f
000001c0: 5e09 803e c641 ca3f 85f8 163e a838 5f3f
000001d0: 5e08 13bf 0132 0abf 186c f1bf 161a 2540
000001e0: bf5e 9b3e 6951 113c 9273 2e3f ce44 93bd
000001f0: e47d 1abf 2d56 f43f 4a37 7e3f f166 d5bf
00000200: 14f1 c23d 8a84 6fbe 2aed 0b3f d91b 823f
00000210: edf2 62be f3c8 64bf 5af2 59bf be23 8bbe
00000220: a368 b93f d787 c83d da8c f03d 888d dbbd
00000230: 44f4 d3be a5ba e53e 365a cb3f f884 58bd
00000240: 7191 233e 80d5 8d3a f089 05bd be4d 5dbe
00000250: ccf6 033d 22b7 aa3d 28f2 01bf c402 fd3e
00000260: 4c9c 523f db30 093f 3c1f 63bf a0b4 c53e
00000270: 51a9 59bf 7563 99be 25df 9b3f ae8c 38bf
00000280: 7ff4 9abf baff cc3e 7ffe 14be 3a89 81be
00000290: 38b7 a93f d3be 163e a2ff d6bf b0c4 c43e
000002a0: 7088 953f 5417 c43e 053d 8f3d c4df 283f
000002b0: 4694 2c3e 4254 f33e 6b8e 623f 9c6a 1b3d
000002c0: e0c1 c03e a924 4bbf 1c5e 94be 59fa 1b3f
000002d0: e5c6 5a3f 7879 d43e a72d dfbe 1479 5f3f
000002e0: c6dd f03e 5e48 0e3f d015 0a3e da88 363d
000002f0: 2511 6abf 2e1e ba3d a727 753f 2917 b63e
00000300: 4734 2bbe 0024 c5bd c8c8 a3be b8cb b8be
00000310: 2207 b4bc 2eb2 193d f4b0 c0bf 4925 993e
00000320: d599 273f 0a2a 043e d55a 0fbf 5f1a a23e
00000330: 1810 cbbe d2a8 893e 5af0 043d 4882 ecbe
00000340: 9158 28bd e846 273e b6c9 4dbe 600a 803e
00000350: 9c47 c5be 0356 8d3d b85f b43e 9032 823e
00000360: fab7 4cbd b4be da3e ed59 ec3c 1d8e b3be
00000370: 857b 173c 3f06 123f 1396 b53e f6dc cd3e
00000380: 5ca5 fabb de4c bc3e 01e4 c5bd b0d2 2d3e
00000390: 5094 26bf f084 37bc f5df 20bf 4fc1 48be
000003a0: c9ff 363f d7ff 98be 0ec8 41bd fb0d a33e
000003b0: 15b0 a33e f37b 27bf 49a1 27bf 3c6b c13e
000003c0: 8208 12bf 5672 a7be aa55 9f3e 7859 26bf
000003d0: fb6b 0abf c50a 4cbf c8d2 d0bf f239 2dbf
000003e0: 6fe9 a1be 5763 123f f1a4 173f a684 96bf
000003f0: 2692 9abf 18b1 043e 738d 0d40 e952 fcbe
0.49362078 0.82246596 0.5364859 -0.88643354 0.38583517 -0.8505898 -0.29991138 1.2171595
-0.72130007 -1.2100526 0.40030873 -0.1457437 -0.25265402 1.3261191 0.14727171 -1.6798874
0.38428468 1.1675708 0.38290694 0.0702007 0.66014415 0.16858819 0.47544974 0.8855812
0.03784629 0.37709334 -0.7942319 -0.29063982 0.60963243 0.85532475 0.4145028 -0.4364449
0.87257105 0.4708765 0.55632925 0.13507676 0.04476161 -0.9137041 0.09046738 0.95710856
0.35561597 -0.16743371 -0.09645826 -0.32061213 -0.36104774 -0.021445949 0.037671283 -1.5054418
0.29892376 0.6543221 0.12895383 -0.5597239 0.31716514 -0.39619428 0.268941 0.032928087
-0.4622249 -0.04155414 0.16329965 -0.20110273 0.2500818 -0.38499674 0.06878392 0.3519132
0.25450054 -0.049936555 0.42713356 0.027448682 -0.35102183 0.011068669 0.57071847 0.35526422
0.40143937 -0.00735523 0.3675991 -0.09681701 0.1692076 -0.6508984 -0.012209371 -0.62900805
-0.19589336 0.7153527 -0.2999623 -0.047610965 0.3188367 0.3179241 -0.6536053 -0.6529438
0.37789184 -0.57078975 -0.32609767 0.31098247 -0.64934766 -0.54053944 -0.7963015 -1.6315097
-0.67603886 -0.31620643 0.57186115 0.5925772 -1.175797 -1.2076898 0.12915614 2.21131
-0.4935108 -1.4792235 0.13672227 0.8647647 0.5045155 -2.6048808 -0.12691858 1.2044433
0.25007147 1.5801322 0.1474324 0.87195826 -0.5743464 -0.5398255 -1.8861113 2.5797172
0.30345723 0.008869507 0.68145096 -0.07190858 -0.60348344 1.9088799 0.99303114 -1.667204
0.09518638 -0.23390403 0.5465876 1.0164748 -0.22162981 -0.89369124 -0.85135424 -0.27175707
1.4485058 0.097915344 0.11745615 -0.10720354 -0.41397297 0.4486896 1.5886905 -0.052861184
0.1597345 0.0010821074 -0.03260225 -0.21611688 0.032217786 0.08335711 -0.50760126 0.49416173
0.8226974 0.5359017 -0.88719535 0.38614368 -0.8502398 -0.29958692 1.2177473 -0.7208966
-1.2105864 0.40038854 -0.14550208 -0.25300008 1.3259039 0.14721231 -1.6796763 0.3843131
1.1682262 0.38299048 0.069940604 0.6596644 0.16853437 0.4752522 0.8849856 0.037943467
0.37647915 -0.79352814 -0.2897805 0.60928875 0.8545974 0.41498923 -0.43589517 0.87294126
0.470442 0.55579174 0.13484883 0.044564106 -0.9143241 0.090877876 0.9576363 0.35564545
-0.16719161 -0.09626007 -0.3198912 -0.36092925 -0.021976057 0.03752344 -1.5054002 0.2991126
0.65469104 0.12906662 -0.55997974 0.31660745 -0.39660716 0.26886612 0.03245578 -0.46193147
-0.04110009 0.16335642 -0.20096478 0.25007915 -0.38531196 0.06901171 0.35229278 0.254292
-0.04998014 0.4272362 0.028851474 -0.3506936 0.009245758 0.5704078 0.3546606 0.40207642
-0.007649107 0.36777395 -0.09662629 0.16974902 -0.65070057 -0.011201128 -0.6284173 -0.19604991
0.7148405 -0.2988269 -0.047309928 0.31846604 0.31970277 -0.65423506 -0.65480477 0.37777126
-0.5704423 -0.3270442 0.31120044 -0.6498027 -0.54071015 -0.79703933 -1.6314325 -0.6766654
-0.31623408 0.5718283 0.59236056 -1.1759231 -1.2075851 0.12958181 2.2117584 -0.49282005

pred_cam f4 [1, 25, 3]
00000000: 2bc7 5d3f 2a9f 7e3d fb31 803e bdc8 5d3f
00000010: c8b1 7e3d 6736 803e 66ca 5d3f 0098 7e3d
00000020: 1a38 803e 0acb 5d3f a09a 7e3d 243a 803e
00000030: 0ac8 5d3f 8476 7e3d d330 803e bacb 5d3f
00000040: f660 7e3d 1732 803e a3ce 5d3f 2c4f 7e3d
00000050: 2836 803e 61cf 5d3f b842 7e3d a831 803e
00000060: 74d0 5d3f 0c40 7e3d d034 803e 65d4 5d3f
00000070: 4e4c 7e3d 1538 803e a9d4 5d3f 724c 7e3d
00000080: 503a 803e c2d4 5d3f 8a5d 7e3d 1e3a 803e
00000090: abd5 5d3f 4a52 7e3d 5f3a 803e 16d7 5d3f
000000a0: 6252 7e3d 0e3b 803e 92d6 5d3f 724a 7e3d
000000b0: 9e3c 803e b6d5 5d3f 243e 7e3d d53a 803e
000000c0: 8ed6 5d3f f43e 7e3d 973b 803e 9bd7 5d3f
000000d0: e634 7e3d 053f 803e 98d9 5d3f 2e32 7e3d
000000e0: c742 803e cbd7 5d3f 5e31 7e3d 6f40 803e
000000f0: 30d7 5d3f 8224 7e3d 8541 803e aed6 5d3f
00000100: 6c1f 7e3d 9641 803e 8bd7 5d3f dc1e 7e3d
00000110: a73f 803e 5fd8 5d3f 3623 7e3d 0143 803e
00000120: 10d9 5d3f d027 7e3d d243 803e
0.8663203 0.06216351 0.25038132 0.8663443 0.062181264 0.25041506 0.8663696 0.062156677
0.25042802 0.8663794 0.06215918 0.25044358 0.8663336 0.062124744 0.2503725 0.8663899
0.062104188 0.25038216 0.8664343 0.062087223 0.25041318 0.8664456 0.062075347 0.25037885
0.866462 0.0620728 0.25040293 0.86652213 0.06208449 0.25042787 0.8665262 0.062084623
0.2504449 0.8665277 0.062100925 0.2504434 0.86654156 0.062090196 0.25044534 0.8665632
0.062090285 0.25045055 0.86655533 0.062082715 0.25046247 0.8665422 0.06207098 0.25044885
0.8665551 0.062071756 0.25045463 0.8665711 0.062062167 0.2504808 0.86660147 0.062059574
0.25050947 0.866574 0.0620588 0.2504916 0.86656475 0.062046535 0.25049987 0.866557
0.062041685 0.25050038 0.8665702 0.06204115 0.25048563 0.8665828 0.0620453 0.2505112
0.86659336 0.062049687 0.25051743
