inputs/demo/internalaffairs/hmr4d_results.pt (torch, 949119 bytes, 27 tensors)

body_pose f4 [217, 63]
00000000: ae07 c2bd 5e14 8c3d fefa f93d c6be 5bbe
00000010: 1ea7 8ebb 0e4c 7e3c 02e1 5b3e 64b8 18bd
00000020: 288d 023e 3b1c e33e 1a4d dfbc f820 4cbd
00000030: f362 de3e 6e4c 02be db1f 8a3d f1a5 f83d
00000040: d670 9eba 4dd8 3cbc e182 0dbe 9d89 f13d
00000050: 6d2d 2dbe 92de 45be 5529 7fbd 628b 35bc
00000060: 2204 93bd 28f6 283c 0d49 143c bf6c 123c
00000070: 54ba 733b a7c4 803d 2844 00bb 54e1 1bbd
00000080: 1107 ea3d cab5 853d fbed a13e cbe8 2abe
00000090: 5280 f43d 10a6 9c3d 8497 13bf 796f f63d
000000a0: 6dca 103d f840 983e 1052 60be c71d e03e
000000b0: 2556 87bd 795d 923e 571c d63b 7d41 4cbf
000000c0: 5938 c43e 930c 0b3c c9ac 493f 842b d83e
000000d0: f765 66bf 75be 403d 95f7 283f c354 943f
000000e0: b75a 0b3e 40cb 7a3e 878f 05bf be75 053f
000000f0: 983a 843e 76bc 063f e0e7 48bf b284 c9bd
00000100: b50b 913d 465d fd3d eae5 5fbe 4377 95bb
00000110: bac0 8a3c 8ebd 5a3e 0920 1fbd fc57 033e
00000120: 73af e63e 41b5 c8bc f39e 49bd 7dc2 e13e
00000130: cb6b 03be 82d9 893d 1f16 fc3d f2fc aab9
00000140: ade3 3bbc 49e0 12be 2c13 eb3d f698 2cbe
00000150: 7af6 49be 55be 7dbd 82ac 73bc db98 94bd
00000160: 49ef 323c 0e33 2e3c 5ccc 043c 0d3e 4e3b
00000170: 6fa0 833d 8845 fdba 3d84 1abd c1a6 ed3d
00000180: 2a3d 883d d51f a43e dbad 2ebe 8e74 f73d
00000190: b46f 9a3d 726d 13bf a7e5 f83d 6898 153d
000001a0: eb51 983e 369f 62be ed0f e23e e338 88bd
000001b0: 1141 933e 1681 cc3b 1339 4cbf 0962 c33e
000001c0: ce21 ce3b c407 493f 2d18 db3e 535d 67bf
000001d0: 6585 4b3d e6a2 293f 5d1f 953f 139b 0a3e
000001e0: bfed 7d3e 8469 06bf ff5d 053f 1825 853e
000001f0: c4ba 073f 0cd8 49bf 0461 c7bd 1d79 933d
00000200: edc5 fc3d d116 63be 4540 a0bb b483 893c
00000210: 36e4 5a3e 522a 24bd 46ab 033e 814c e63e
00000220: 1866 c0bc 6612 48bd 37bb e43e 13f6 04be
00000230: 0f79 873d 3b26 fd3d 799f 3d39 cb43 35bc
00000240: bd87 15be 8d62 e83d 1852 2dbe 02c9 4abe
00000250: 85c2 73bd f07c 86bc 98fd 95bd 3de4 353c
00000260: 3772 333c 39e3 063c 704f 4b3b 198b 813d
00000270: 912b 18bb f7d5 19bd 6a48 ef3d 0ace 8b3d
00000280: b4f2 a63e 65f4 31be ddd0 f83d f23b 983d
00000290: 305d 13bf 8939 fb3d 5ecb 1d3d eacb 973e
000002a0: 568a 65be f418 e43e ea46 8ebd 7e4f 943e
000002b0: 4014 f43b 60e4 4bbf 1af9 c23e 9901 fe3b
000002c0: d9d7 483f 1457 dc3e 15b0 68bf 7e4b 4e3d
000002d0: 487d 293f 1153 953f bd34 0c3e be7e 7c3e
000002e0: 92c3 06bf a46a 053f 2df2 833e 2c02 083f
000002f0: 700f 4bbf 33af c4bd 7609 973d 0bee fa3d
00000300: 3d8d 65be 837f c7bb 2805 813c 2eac 563e
00000310: 1b86 25bd be97 043e 5231 e43e 1c50 c0bc
00000320: a8da 46bd fa26 e63e 36bd 04be 53a5 863d
00000330: 816f fd3d c982 91b9 79d8 35bc 781a 19be
00000340: 2f98 e53d 59aa 2dbe 28c2 4bbe 6964 76bd
00000350: 070d 91bc 2bf4 95bd 171e 3c3c cf70 3a3c
00000360: 7672 003c 9110 3f3b 46e5 823d 165d 01bb
00000370: 68ee 18bd a145 f03d 0715 923d 50e4 a93e
00000380: 15b3 35be a450 fa3d 7fb4 983d 65f2 12bf
00000390: 38ac fe3d fa6f 193d b2ac 973e 2d8a 67be
000003a0: 22d5 e63e 3661 93bd 68df 943e f97a ff3b
000003b0: 29ef 4bbf 7426 c23e f4cc f23b 4354 483f
000003c0: 3893 dd3e 67df 69bf 02ca 4e3d 64f4 293f
000003d0: 6bc7 953f 88e7 0d3e 92e6 793e d11d 07bf
000003e0: 67d3 053f fab3 833e b75a 083f 10a7 4bbf
000003f0: c55d bfbd 2d01 983d e7a2 f93d 7c6b 66be
-0.09474121 0.06839822 0.12206076 -0.21459493 -0.004353418 0.015521063 0.21472552 -0.037285224
0.1274916 0.44357476 -0.027258445 -0.04983613 0.43434867 -0.12724468 0.06744357 0.12141026
-0.0012088071 -0.0115261795 -0.13819458 0.11793826 -0.1691186 -0.19323185 -0.062295277 -0.011080595
-0.07178523 0.0103125945 0.00905062 0.00893706 0.0037189918 0.062875085 -0.0019571874 -0.038056687
0.11427129 0.06528814 0.31626877 -0.16690366 0.11938538 0.076488614 -0.5765307 0.120329805
0.0353493 0.29737067 -0.21906304 0.43772718 -0.06608228 0.2858694 0.00653414 -0.7978743
0.3832424 0.008486885 0.78779274 0.422207 -0.89999336 0.047056634 0.6600278 1.1588367
0.13608824 0.24491596 -0.5217213 0.52132785 0.25825953 0.5263132 -0.78478813 -0.09839763
0.07082311 0.12371306 -0.21865049 -0.0045613362 0.016937602 0.21361372 -0.03884891 0.12826532
0.45055732 -0.024500491 -0.04922385 0.44093695 -0.12834089 0.067309394 0.12308907 -0.00032613386
-0.011467856 -0.1434337 0.11478266 -0.16855225 -0.1972293 -0.061949093 -0.014872672 -0.07255717
0.010921308 0.01063229 0.008105364 0.003147009 0.06427085 -0.001932309 -0.03772377 0.116040714
0.06652291 0.32055536 -0.17058508 0.12082778 0.07540837 -0.57588875 0.12153178 0.0365223
0.29749998 -0.22131047 0.44152775 -0.06651475 0.2876058 0.006240974 -0.7977459 0.38160732
0.006290651 0.78527474 0.42791882 -0.90376776 0.04968776 0.6626419 1.1650196 0.13535719
0.24797724 -0.52504754 0.5209655 0.26004863 0.53019357 -0.78845286 -0.09735301 0.07200835
0.12342439 -0.22176673 -0.004890474 0.016786434 0.21376118 -0.040079422 0.12858304 0.44980243
-0.023486182 -0.04884567 0.44674084 -0.12984495 0.06614887 0.123608075 0.00018083853 -0.011063526
-0.14602561 0.11346922 -0.16925848 -0.19803241 -0.05951168 -0.016416997 -0.0732376 0.0111017795
0.010952524 0.008232885 0.003102269 0.06325359 -0.0023219327 -0.03755757 0.11683734 0.06826408
0.32607043 -0.17378385 0.121492125 0.07433309 -0.5756407 0.12266833 0.038524024 0.29647762
-0.22416052 0.44550288 -0.069471195 0.28966898 0.007448703 -0.7964535 0.38080674 0.0077516553
0.7845436 0.43035185 -0.9089368 0.050364964 0.6620679 1.1665975 0.13691993 0.24657723
-0.52642167 0.52115846 0.25770703 0.53128314 -0.7932043 -0.09603729 0.073748514 0.12252434
-0.2241716 -0.0060881986 0.015749529 0.20964119 -0.040411096 0.1294851 0.44568878 -0.0234757
-0.04854837 0.44951612 -0.12962803 0.06574502 0.12374783 -0.00027753998 -0.011098974 -0.14951503
0.11210667 -0.16959514 -0.19898283 -0.060154352 -0.017706407 -0.07321962 0.011481783 0.011379435
0.00783979 0.0029154161 0.06391387 -0.0019739321 -0.037336737 0.11732031 0.07132917 0.33182
-0.17744096 0.12222412 0.07456302 -0.57401115 0.12435192 0.037460305 0.29623944 -0.22611304
0.45084482 -0.07196276 0.29076695 0.007796642 -0.79661804 0.37919962 0.007409686 0.78253573
0.43276381 -0.9135651 0.05048562 0.66388535 1.1701483 0.13857853 0.24404362 -0.5277987
0.522757 0.2572325 0.5326342 -0.7955179 -0.09344057 0.07422099 0.12189274 -0.2250194

betas f4 [217, 10]
00000000: d480 b0bf 13c6 18bf c032 f4be 560d a5be
00000010: 8030 673c 6093 8bbd 7d79 8f3e c035 1b3c
00000020: d6c7 b4be 1e86 093f d480 b0bf 13c6 18bf
00000030: c032 f4be 560d a5be 8030 673c 6093 8bbd
00000040: 7d79 8f3e c035 1b3c d6c7 b4be 1e86 093f
00000050: d480 b0bf 13c6 18bf c032 f4be 560d a5be
00000060: 8030 673c 6093 8bbd 7d79 8f3e c035 1b3c
00000070: d6c7 b4be 1e86 093f d480 b0bf 13c6 18bf
00000080: c032 f4be 560d a5be 8030 673c 6093 8bbd
00000090: 7d79 8f3e c035 1b3c d6c7 b4be 1e86 093f
000000a0: d480 b0bf 13c6 18bf c032 f4be 560d a5be
000000b0: 8030 673c 6093 8bbd 7d79 8f3e c035 1b3c
000000c0: d6c7 b4be 1e86 093f d480 b0bf 13c6 18bf
000000d0: c032 f4be 560d a5be 8030 673c 6093 8bbd
000000e0: 7d79 8f3e c035 1b3c d6c7 b4be 1e86 093f
000000f0: d480 b0bf 13c6 18bf c032 f4be 560d a5be
00000100: 8030 673c 6093 8bbd 7d79 8f3e c035 1b3c
00000110: d6c7 b4be 1e86 093f d480 b0bf 13c6 18bf
00000120: c032 f4be 560d a5be 8030 673c 6093 8bbd
00000130: 7d79 8f3e c035 1b3c d6c7 b4be 1e86 093f
00000140: d480 b0bf 13c6 18bf c032 f4be 560d a5be
00000150: 8030 673c 6093 8bbd 7d79 8f3e c035 1b3c
00000160: d6c7 b4be 1e86 093f d480 b0bf 13c6 18bf
00000170: c032 f4be 560d a5be 8030 673c 6093 8bbd
00000180: 7d79 8f3e c035 1b3c d6c7 b4be 1e86 093f
00000190: d480 b0bf 13c6 18bf c032 f4be 560d a5be
000001a0: 8030 673c 6093 8bbd 7d79 8f3e c035 1b3c
000001b0: d6c7 b4be 1e86 093f d480 b0bf 13c6 18bf
000001c0: c032 f4be 560d a5be 8030 673c 6093 8bbd
000001d0: 7d79 8f3e c035 1b3c d6c7 b4be 1e86 093f
000001e0: d480 b0bf 13c6 18bf c032 f4be 560d a5be
000001f0: 8030 673c 6093 8bbd 7d79 8f3e c035 1b3c
00000200: d6c7 b4be 1e86 093f d480 b0bf 13c6 18bf
00000210: c032 f4be 560d a5be 8030 673c 6093 8bbd
00000220: 7d79 8f3e c035 1b3c d6c7 b4be 1e86 093f
00000230: d480 b0bf 13c6 18bf c032 f4be 560d a5be
00000240: 8030 673c 6093 8bbd 7d79 8f3e c035 1b3c
00000250: d6c7 b4be 1e86 093f d480 b0bf 13c6 18bf
00000260: c032 f4be 560d a5be 8030 673c 6093 8bbd
00000270: 7d79 8f3e c035 1b3c d6c7 b4be 1e86 093f
00000280: d480 b0bf 13c6 18bf c032 f4be 560d a5be
00000290: 8030 673c 6093 8bbd 7d79 8f3e c035 1b3c
000002a0: d6c7 b4be 1e86 093f d480 b0bf 13c6 18bf
000002b0: c032 f4be 560d a5be 8030 673c 6093 8bbd
000002c0: 7d79 8f3e c035 1b3c d6c7 b4be 1e86 093f
000002d0: d480 b0bf 13c6 18bf c032 f4be 560d a5be
000002e0: 8030 673c 6093 8bbd 7d79 8f3e c035 1b3c
000002f0: d6c7 b4be 1e86 093f d480 b0bf 13c6 18bf
00000300: c032 f4be 560d a5be 8030 673c 6093 8bbd
00000310: 7d79 8f3e c035 1b3c d6c7 b4be 1e86 093f
00000320: d480 b0bf 13c6 18bf c032 f4be 560d a5be
00000330: 8030 673c 6093 8bbd 7d79 8f3e c035 1b3c
00000340: d6c7 b4be 1e86 093f d480 b0bf 13c6 18bf
00000350: c032 f4be 560d a5be 8030 673c 6093 8bbd
00000360: 7d79 8f3e c035 1b3c d6c7 b4be 1e86 093f
00000370: d480 b0bf 13c6 18bf c032 f4be 560d a5be
00000380: 8030 673c 6093 8bbd 7d79 8f3e c035 1b3c
00000390: d6c7 b4be 1e86 093f d480 b0bf 13c6 18bf
000003a0: c032 f4be 560d a5be 8030 673c 6093 8bbd
000003b0: 7d79 8f3e c035 1b3c d6c7 b4be 1e86 093f
000003c0: d480 b0bf 13c6 18bf c032 f4be 560d a5be
000003d0: 8030 673c 6093 8bbd 7d79 8f3e c035 1b3c
000003e0: d6c7 b4be 1e86 093f d480 b0bf 13c6 18bf
000003f0: c032 f4be 560d a5be 8030 673c 6093 8bbd
-1.3789315 -0.5967724 -0.4769497 -0.32236737 0.014110684 -0.06815219 0.28022376 0.009473264
-0.35308713 0.5372027 -1.3789315 -0.5967724 -0.4769497 -0.32236737 0.014110684 -0.06815219
0.28022376 0.009473264 -0.35308713 0.5372027 -1.3789315 -0.5967724 -0.4769497 -0.32236737
0.014110684 -0.06815219 0.28022376 0.009473264 -0.35308713 0.5372027 -1.3789315 -0.5967724
-0.4769497 -0.32236737 0.014110684 -0.06815219 0.28022376 0.009473264 -0.35308713 0.5372027
-1.3789315 -0.5967724 -0.4769497 -0.32236737 0.014110684 -0.06815219 0.28022376 0.009473264
-0.35308713 0.5372027 -1.3789315 -0.5967724 -0.4769497 -0.32236737 0.014110684 -0.06815219
0.28022376 0.009473264 -0.35308713 0.5372027 -1.3789315 -0.5967724 -0.4769497 -0.32236737
0.014110684 -0.06815219 0.28022376 0.009473264 -0.35308713 0.5372027 -1.3789315 -0.5967724
-0.4769497 -0.32236737 0.014110684 -0.06815219 0.28022376 0.009473264 -0.35308713 0.5372027
-1.3789315 -0.5967724 -0.4769497 -0.32236737 0.014110684 -0.06815219 0.28022376 0.009473264
-0.35308713 0.5372027 -1.3789315 -0.5967724 -0.4769497 -0.32236737 0.014110684 -0.06815219
0.28022376 0.009473264 -0.35308713 0.5372027 -1.3789315 -0.5967724 -0.4769497 -0.32236737
0.014110684 -0.06815219 0.28022376 0.009473264 -0.35308713 0.5372027 -1.3789315 -0.5967724
-0.4769497 -0.32236737 0.014110684 -0.06815219 0.28022376 0.009473264 -0.35308713 0.5372027
-1.3789315 -0.5967724 -0.4769497 -0.32236737 0.014110684 -0.06815219 0.28022376 0.009473264
-0.35308713 0.5372027 -1.3789315 -0.5967724 -0.4769497 -0.32236737 0.014110684 -0.06815219
0.28022376 0.009473264 -0.35308713 0.5372027 -1.3789315 -0.5967724 -0.4769497 -0.32236737
0.014110684 -0.06815219 0.28022376 0.009473264 -0.35308713 0.5372027 -1.3789315 -0.5967724
-0.4769497 -0.32236737 0.014110684 -0.06815219 0.28022376 0.009473264 -0.35308713 0.5372027
-1.3789315 -0.5967724 -0.4769497 -0.32236737 0.014110684 -0.06815219 0.28022376 0.009473264
-0.35308713 0.5372027 -1.3789315 -0.5967724 -0.4769497 -0.32236737 0.014110684 -0.06815219
0.28022376 0.009473264 -0.35308713 0.5372027 -1.3789315 -0.5967724 -0.4769497 -0.32236737
0.014110684 -0.06815219 0.28022376 0.009473264 -0.35308713 0.5372027 -1.3789315 -0.5967724
-0.4769497 -0.32236737 0.014110684 -0.06815219 0.28022376 0.009473264 -0.35308713 0.5372027
-1.3789315 -0.5967724 -0.4769497 -0.32236737 0.014110684 -0.06815219 0.28022376 0.009473264
-0.35308713 0.5372027 -1.3789315 -0.5967724 -0.4769497 -0.32236737 0.014110684 -0.06815219
0.28022376 0.009473264 -0.35308713 0.5372027 -1.3789315 -0.5967724 -0.4769497 -0.32236737
0.014110684 -0.06815219 0.28022376 0.009473264 -0.35308713 0.5372027 -1.3789315 -0.5967724
-0.4769497 -0.32236737 0.014110684 -0.06815219 0.28022376 0.009473264 -0.35308713 0.5372027
-1.3789315 -0.5967724 -0.4769497 -0.32236737 0.014110684 -0.06815219 0.28022376 0.009473264
-0.35308713 0.5372027 -1.3789315 -0.5967724 -0.4769497 -0.32236737 0.014110684 -0.06815219

global_orient f4 [217, 3]
00000000: 63c6 743d 3a9b 10c0 96f0 ac3d 5669 793d
00000010: 92a5 10c0 2195 ac3d c993 753d 29b7 10c0
00000020: 4fb3 ab3d 5aef 6f3d 0396 10c0 8a51 ad3d
00000030: ee6f 6c3d fe5e 10c0 529c ab3d e15d 793d
00000040: 4e25 10c0 8ed7 a53d 9375 893d 47f5 0fc0
00000050: b582 ae3d 6416 843d 39c7 0fc0 fcf9 a43d
00000060: 435e 7a3d 2c8b 0fc0 d79f a33d 5163 7c3d
00000070: e65d 0fc0 b528 a03d f3a4 743d 5d1b 0fc0
00000080: 4af4 9e3d 4eb8 6e3d 5fe1 0ec0 ed81 9e3d
00000090: 3c31 6b3d 09ac 0ec0 103b a13d f00b 5e3d
000000a0: 5b79 0ec0 4f5f 9d3d e838 543d 492c 0ec0
000000b0: 6f9b 9e3d 4051 513d dbff 0dc0 c808 9a3d
000000c0: ed07 4c3d 8ad2 0dc0 3f9e 963d f48a 4d3d
000000d0: f18d 0dc0 3c48 963d 42b3 433d 3e50 0dc0
000000e0: ba9c 903d 8451 563d c682 0dc0 ee28 8f3d
000000f0: 5c09 333d e907 0dc0 8b80 883d 70cc 353d
00000100: 98d6 0cc0 e5cf 883d df74 2e3d 4294 0cc0
00000110: aca0 813d 9a63 2f3d 405c 0cc0 e1f0 7d3d
00000120: 3b84 303d bf1a 0cc0 e7fb 703d 57bc 2b3d
00000130: a9ec 0bc0 faca 733d c0b3 1f3d 14b4 0bc0
00000140: 8aff 673d 1600 1f3d ec77 0bc0 9e27 683d
00000150: 9b8c 1b3d 305f 0bc0 42dc 5f3d ce44 1b3d
00000160: e454 0bc0 b5a8 593d 3d39 323d 4188 0bc0
00000170: da29 563d bdc2 1a3d a809 0bc0 96c4 423d
00000180: 431f 1b3d b1e6 0ac0 6d4b 413d 6e3e 1c3d
00000190: 88bd 0ac0 67d4 293d a3f0 1f3d e58e 0ac0
000001a0: 56f8 253d 0d48 223d 4549 0ac0 d644 2b3d
000001b0: d333 183d 6f0b 0ac0 0713 293d b9de 1a3d
000001c0: e8d7 09c0 9966 193d 4b9c 203d 8ff9 09c0
000001d0: 8ad1 033d 9d63 073d ed8d 09c0 6909 ce3c
000001e0: 9b47 f73c 4263 09c0 3739 be3c 37b1 f53c
000001f0: 0945 09c0 2b6d 9d3c 1714 ec3c 0032 09c0
00000200: 6a05 773c 37fb dc3c 432b 09c0 ed1c 153c
00000210: 1e78 c43c e4f9 08c0 44d5 8e3a b95f f23c
00000220: 9dc5 08c0 78a3 8339 ffed 123d 7dc3 08c0
00000230: d5ca 843a b9f7 0f3d e196 08c0 a377 a439
00000240: 8bd6 193d e03d 08c0 069b 7439 e4c4 173d
00000250: 9f54 08c0 9692 a7ba 81fb 1a3d 0f17 08c0
00000260: 5e50 9d3a 54ec 123d bbd6 07c0 c962 1a3a
00000270: 54cb 113d 21c5 07c0 f604 5cba 16f2 053d
00000280: 26bd 07c0 8a59 adba a8e8 1f3d 3b0b 08c0
00000290: c4f4 f53a 1be1 153d 79ff 07c0 2f25 e139
000002a0: 257f 1a3d 1e4a 08c0 bd08 693b fd64 273d
000002b0: 0b48 08c0 bd1f f33b 1a85 2d3d ab8c 08c0
000002c0: 2523 e83b 5fad 2e3d 6a26 09c0 d277 823b
000002d0: 1db3 2b3d 4745 09c0 2544 603b 52ff 243d
000002e0: 0939 09c0 d6f3 a83b cd4e 343d b858 09c0
000002f0: 86c4 ee3b 49e4 333d 5157 09c0 1d7c dd39
00000300: ebc3 183d 3972 09c0 ad21 2c3b 6944 183d
00000310: 417c 09c0 b8ab 833a 87e8 133d 108e 09c0
00000320: b448 343b 97c2 143d 9fb9 09c0 3017 873a
00000330: f925 153d b2f1 09c0 b683 143b caf2 0d3d
00000340: 6f24 0ac0 c14b 42bb 8be3 1e3d 3869 0ac0
00000350: 67ac 23bb 1c02 0d3d e23d 0ac0 eb58 2a3b
00000360: 34d5 113d a35d 0ac0 8499 df3a ef98 0f3d
00000370: 6f92 0ac0 329a 57bb 1fcf 013d b5a9 0ac0
00000380: 322e 593b 5b37 f83c 1fbc 0ac0 0168 fb3a
00000390: b4be f03c 39ce 0ac0 d69d 36b9 430e e73c
000003a0: 31f7 0ac0 6f3d 24bb 8500 dc3c 6409 0bc0
000003b0: 9b3e 55bb 1265 d53c 762a 0bc0 d5d4 aabb
000003c0: d752 c73c d246 0bc0 259b d6bb d0d6 b73c
000003d0: be53 0bc0 3041 d6bb 2bc6 b83c 6382 0bc0
000003e0: 818d d2bb 9764 9f3c bd9c 0bc0 f5f2 fcbb
000003f0: 72dc 993c 12da 0bc0 5a54 25bc bf0e 963c
0.05975951 -2.2594743 0.084443256 0.06089147 -2.2601056 0.084268816 0.059955392 -2.2611792
0.0838381 0.058577873 -2.259156 0.08462818 0.057723932 -2.2557979 0.08379425 0.060880546
-2.252277 0.080977544 0.06711879 -2.2493455 0.08521024 0.06449583 -2.2465346 0.08055493
0.06112505 -2.2428694 0.079894714 0.061618153 -2.240106 0.07820264 0.05972762 -2.2360451
0.07761438 0.058281235 -2.2325056 0.07739625 0.05742 -2.2292502 0.078725934 0.054210603
-2.226157 0.07684194 0.051812083 -2.221453 0.0774449 0.051102877 -2.2187412 0.07521206
0.049812246 -2.2159753 0.07354402 0.050181344 -2.2117884 0.07337996 0.047778375 -2.2080226
0.07061143 0.052323833 -2.2111068 0.069902286 0.043710098 -2.2036078 0.066651426 0.04438442
-2.2005978 0.06680278 0.042591926 -2.196549 0.06329474 0.042819597 -2.1931305 0.0619973
0.043094855 -2.1891325 0.058833983 0.04192766 -2.1863196 0.059519745 0.038989782 -2.182866
0.056640185 0.03881844 -2.1791945 0.056678407 0.03797589 -2.1776848 0.054653414 0.037907414
-2.1770563 0.053139407 0.043511618 -2.1801913 0.052286007 0.037783373 -2.1724644 0.04755076
0.03787161 -2.1703303 0.047191072 0.038145475 -2.167818 0.04146233 0.03904785 -2.1649716
0.040520035 0.039619494 -2.160722 0.041813694 0.0371588 -2.1569479 0.04127791 0.03781006
-2.1538029 0.03745136 0.039211553 -2.1558568 0.032182254 0.033053983 -2.1492875 0.025150971
0.030185511 -2.1466832 0.023220642 0.02999173 -2.1448386 0.019217094 0.028818173 -2.1436768
0.015076974 0.026975257 -2.1432655 0.009101135 0.023983058 -2.140252 0.0010897298 0.02958666
-2.1370614 0.0002510806 0.035871502 -2.1369317 0.001013125 0.035148356 -2.134209 0.00031369654
0.03755812 -2.1287766 0.00023327404 0.037053004 -2.1301649 -0.0012784775 0.03783751 -2.1264074
0.0012002101 0.03586991 -2.122481 0.0005889354 0.0355943 -2.1214068 -0.0008393073 0.032701574
-2.1209197 -0.0013225537 0.039040238 -2.1256855 0.0018764962 0.03659163 -2.1249678 0.00042943048
0.03771891 -2.1295238 0.0035558187 0.040867794 -2.1293972 0.007419555 0.042363264 -2.1335857
0.0070842677 0.04264581 -2.1429696 0.003981569 0.041918863 -2.1448534 0.0034220305 0.040282555
-2.1441061 0.0051560206 0.044020463 -2.14604 0.007286611 0.04391888 -2.1459544 0.00042244876
0.037296217 -2.1475966 0.002626519 0.037174616 -2.1482089 0.0010045683 0.036110427 -2.1492958
0.0027509155 0.036318388 -2.1519544 0.0010306593 0.036413167 -2.155377 0.0022661514 0.03465537
-2.1584737 -0.0029647204 0.03879122 -2.162672 -0.0024974586 0.03442584 -2.160027 0.002599294
0.035603717 -2.1619651 0.0017059301 0.03505796 -2.1651876 -0.0032898304 0.031691667 -2.166608
0.0033139107 0.030299833 -2.167732 0.0019180776 0.02938781 -2.1688368 -0.00017415671 0.028205043
-2.1713374 -0.0025061031 0.026855716 -2.1724482 -0.0032538536 0.02604917 -2.1744666 -0.00521336
0.024331493 -2.1761975 -0.0065492564 0.022441298 -2.1769862 -0.0065385327 0.022555431 -2.1798332
-0.00642556 0.019457145 -2.1814415 -0.0077193924 0.018781874 -2.185185 -0.010090912 0.018317578

transl f4 [217, 3]
00000000: 9055 623a 5a3a 963f c048 ebb9 1da7 aa3a
00000010: 3222 963f bc52 dfb9 4a0c f13a 6f1a 963f
00000020: 1c67 79b9 97fe 1f3b 4c16 963f 8f5d 3339
00000030: fa3e 483b 1316 963f cde9 563a bf08 6d3b
00000040: 7009 963f a533 dc3a f619 853b 1905 963f
00000050: 1dc8 2f3b 693e 8e3b f305 963f 1bf1 743b
00000060: 7205 913b 2e09 963f 1115 9c3b 6d3c 8d3b
00000070: fc08 963f bedc ba3b e041 833b e704 963f
00000080: 2e0a d63b 7d86 673b f209 963f facf ed3b
00000090: 9807 3f3b a9fb 953f 8682 013c 1786 0e3b
000000a0: 7509 963f f461 0b3c 4e2a af3a 800a 963f
000000b0: 5710 153c 5035 e139 cd02 963f d6fc 1e3c
000000c0: 77ee 04ba 2b0f 963f 2374 293c 812c bbba
000000d0: e90d 963f 1aa2 343c d017 16bb d820 963f
000000e0: a898 403c acd2 48bb 1321 963f b757 4d3c
000000f0: 213d 75bb 2740 963f 26d1 5a3c a4fd 8dbb
00000100: 9147 963f 37e9 683c 4410 9fbb fc58 963f
00000110: 2b77 773c 2428 aebb 9860 963f 5429 833c
00000120: c826 bbbb 3670 963f a9b5 8a3c a193 c5bb
00000130: 967c 963f 1c71 923c eee6 ccbb 289a 963f
00000140: 7288 9a3c 2fcf d0bb 59a4 963f 113c a33c
00000150: 605c d1bb 69b9 963f 0ccf ac3c 7505 cfbb
00000160: add7 963f 8176 b73c c39c cabb 78dd 963f
00000170: 3e51 c33c ac2e c5bb 2b03 973f cd6b d03c
00000180: c0ba bfbb c02c 973f d4cf de3c 33d2 babb
00000190: d64b 973f e097 ee3c 543d b6bb 6565 973f
000001a0: 83fb ff3c d8f5 b0bb c480 973f cca3 093d
000001b0: 9d8d a9bb 4e9e 973f 5b60 143d afde 9ebb
000001c0: a1bc 973f 0a3e 203d 69a9 90bb 6ad5 973f
000001d0: e722 2d3d 0d91 7fbb 33f0 973f 16d2 3a3d
000001e0: 5dd1 5bbb ef04 983f 1ff9 483d c9dd 39bb
000001f0: 4027 983f 773f 573d 61aa 1cbb 2843 983f
00000200: eb50 653d 8e65 05bb 1857 983f e7e1 723d
00000210: a466 e6ba 7176 983f 77b1 7f3d 13fd c6ba
00000220: 9381 983f f0c5 853d 7de1 a5ba 1999 983f
00000230: 2b26 8b3d be7d 7aba afa1 983f b7ed 8f3d
00000240: 3b10 14ba f1b4 983f 2a15 943d 5db0 c9b8
00000250: a2c7 983f a497 973d 228a df39 e7cb 983f
00000260: 5b72 9a3d 0bd5 7d3a e7dd 983f f2a4 9c3d
00000270: b9ee c33a fae6 983f e330 9e3d e5ae 013b
00000280: 47f3 983f c018 9f3d e983 1d3b 12f0 983f
00000290: a260 9f3d 6d02 353b d5f8 983f 8b10 9f3d
000002a0: 7d09 483b 95f1 983f c136 9e3d 4d6b 563b
000002b0: 8aec 983f 78e7 9c3d bab8 5f3b 2dec 983f
000002c0: c738 9b3d e873 633b 49df 983f 3a3d 993d
000002d0: 559a 613b 34e5 983f ef00 973d 1b30 5b3b
000002e0: ccd9 983f 438a 943d 334d 523b afcf 983f
000002f0: 61dd 913d 688f 493b 1fba 983f 1201 8f3d
00000300: ff1f 433b 64bf 983f 6601 8c3d d9ea 3f3b
00000310: fbbb 983f b4ef 883d 876f 3f3b e7b8 983f
00000320: b7de 853d a343 403b c0ad 983f 10dd 823d
00000330: 1cee 403b 37a3 983f bde2 7f3d 0fac 403b
00000340: 9fa1 983f 3e36 7a3d 93ac 3f3b c69b 983f
00000350: cbae 743d 53c2 3e3b eb97 983f 1f4d 6f3d
00000360: 67c3 3e3b 4988 983f c91e 6a3d 9e04 403b
00000370: 5088 983f 0f3d 653d df33 423b 7691 983f
00000380: 4fc5 603d 138d 443b a18b 983f 18cf 5c3d
00000390: c231 463b 7883 983f 5b63 593d 0c64 463b
000003a0: 8888 983f ec79 563d 269e 443b de88 983f
000003b0: 27fe 533d 2e9b 403b ed83 983f f1d9 513d
000003c0: c16d 3a3b ae86 983f 1dfe 4f3d 5c9e 323b
000003d0: 368a 983f 4a63 4e3d e62a 2a3b f57c 983f
000003e0: 3b02 4d3d 4857 223b 717c 983f e7ca 4b3d
000003f0: 7450 1c3b 1174 983f 07a1 4a3d 80ce 183b
0.00086339656 1.1736557 -0.00044876896 0.0013019774 1.1729186 -0.00042595516 0.0018390503 1.1726817
-0.00023784902 0.0024413222 1.1725554 0.00017105624 0.0030555115 1.1725487 0.0008198291 0.0036168543
1.172163 0.0016800059 0.0040619327 1.1720306 0.0026822158 0.004340936 1.1720566 0.0037375155
0.004425698 1.1721551 0.0047632535 0.004310182 1.1721492 0.005702584 0.0040056556 1.1720246
0.006531975 0.0035327964 1.1721785 0.0072574588 0.0029148813 1.1717426 0.007904654 0.0021747404
1.1721636 0.008507241 0.0013364048 1.1721954 0.009098134 0.00042955065 1.1719605 0.0097038355
-0.00050709344 1.1723379 0.010342631 -0.0014280231 1.1722995 0.011024976 -0.0022902377 1.1728773
0.011755146 -0.0030643148 1.1728843 0.01253312 -0.003742047 1.1738328 0.013355529 -0.004333215
1.174059 0.014215759 -0.004854234 1.1745906 0.015104095 -0.0053148437 1.1748228 0.016010918
-0.00571141 1.1752994 0.016932325 -0.0060295616 1.1756771 0.0178762 -0.006253115 1.1765795
0.01886389 -0.0063723545 1.1768905 0.019926103 -0.006389186 1.1775333 0.021094821 -0.006317789
1.1784569 0.022395374 -0.0061832382 1.1786337 0.02384245 -0.0060175266 1.1797842 0.025442028
-0.0058511198 1.1810532 0.02719871 -0.005701327 1.1820018 0.029125154 -0.00556151 1.1827818
0.03124786 -0.0054004006 1.1836171 0.033603474 -0.0051743523 1.1845186 0.036224704 -0.0048483233
1.185444 0.039121665 -0.0044147265 1.1862004 0.042269614 -0.003899637 1.1870178 0.04561051
-0.0033541538 1.1876506 0.049065705 -0.0028360954 1.1886978 0.05255076 -0.0023905265 1.1895494
0.055985373 -0.002035472 1.1901579 0.05929747 -0.0017578197 1.1911145 0.062425103 -0.0015181623
1.1914543 0.06531894 -0.0012655702 1.1921722 0.06794389 -0.000955548 1.1924342 0.070277624
-0.00056481705 1.1930219 0.07230599 -9.617277e-05 1.1935923 0.0740197 0.00042636791 1.1937226
0.07541343 0.000968293 1.1942719 0.07648648 0.0014948464 1.1945488 0.07724168 0.0019788083
1.1949242 0.077683926 0.0024034923 1.1948264 0.07782103 0.0027619854 1.1950938 0.07766827
0.0030523234 1.1948725 0.07725287 0.0032717765 1.1947186 0.07661337 0.0034137205 1.1947075
0.07579189 0.0034706537 1.1943141 0.07482381 0.0034424264 1.1944947 0.07373225 0.003344542
1.1941466 0.07252934 0.0032089471 1.193838 0.07122303 0.0030755643 1.19318 0.06982626
0.002977371 1.1933408 0.06836204 0.0029284267 1.1932367 0.06686345 0.0029210763 1.1931428
0.0653662 0.002933719 1.1928024 0.063898206 0.00294388 1.1924809 0.062472094 0.002939943
1.1924323 0.061086886 0.002924715 1.1922538 0.059737008 0.0029107525 1.1921362 0.058423158
0.0029108168 1.1916591 0.057158265 0.0029299627 1.1916599 0.055966433 0.0029632968 1.1919391
0.05487567 0.0029991313 1.1917611 0.053908437 0.003024206 1.1915121 0.05307327 0.0030272035
1.1916666 0.052362368 0.003000149 1.1916769 0.05175605 0.002938937 1.191526 0.051233236
0.0028446766 1.1916101 0.05077945 0.0027255034 1.1917179 0.05038766 0.002596551 1.1913134
0.050050955 0.0024771262 1.1912977 0.04975405 0.0023851665 1.1910421 0.049469974 0.0023316443

body_pose f4 [217, 63]
00000000: ae07 c2bd 5e14 8c3d fefa f93d c6be 5bbe
00000010: 1ea7 8ebb 0e4c 7e3c 02e1 5b3e 64b8 18bd
00000020: 288d 023e 3b1c e33e 1a4d dfbc f820 4cbd
00000030: f362 de3e 6e4c 02be db1f 8a3d f1a5 f83d
00000040: d670 9eba 4dd8 3cbc e182 0dbe 9d89 f13d
00000050: 6d2d 2dbe 92de 45be 5529 7fbd 628b 35bc
00000060: 2204 93bd 28f6 283c 0d49 143c bf6c 123c
00000070: 54ba 733b a7c4 803d 2844 00bb 54e1 1bbd
00000080: 1107 ea3d cab5 853d fbed a13e cbe8 2abe
00000090: 5280 f43d 10a6 9c3d 8497 13bf 796f f63d
000000a0: 6dca 103d f840 983e 1052 60be c71d e03e
000000b0: 2556 87bd 795d 923e 571c d63b 7d41 4cbf
000000c0: 5938 c43e 930c 0b3c c9ac 493f 842b d83e
000000d0: f765 66bf 75be 403d 95f7 283f c354 943f
000000e0: b75a 0b3e 40cb 7a3e 878f 05bf be75 053f
000000f0: 983a 843e 76bc 063f e0e7 48bf b284 c9bd
00000100: b50b 913d 465d fd3d eae5 5fbe 4377 95bb
00000110: bac0 8a3c 8ebd 5a3e 0920 1fbd fc57 033e
00000120: 73af e63e 41b5 c8bc f39e 49bd 7dc2 e13e
00000130: cb6b 03be 82d9 893d 1f16 fc3d f2fc aab9
00000140: ade3 3bbc 49e0 12be 2c13 eb3d f698 2cbe
00000150: 7af6 49be 55be 7dbd 82ac 73bc db98 94bd
00000160: 49ef 323c 0e33 2e3c 5ccc 043c 0d3e 4e3b
00000170: 6fa0 833d 8845 fdba 3d84 1abd c1a6 ed3d
00000180: 2a3d 883d d51f a43e dbad 2ebe 8e74 f73d
00000190: b46f 9a3d 726d 13bf a7e5 f83d 6898 153d
000001a0: eb51 983e 369f 62be ed0f e23e e338 88bd
000001b0: 1141 933e 1681 cc3b 1339 4cbf 0962 c33e
000001c0: ce21 ce3b c407 493f 2d18 db3e 535d 67bf
000001d0: 6585 4b3d e6a2 293f 5d1f 953f 139b 0a3e
000001e0: bfed 7d3e 8469 06bf ff5d 053f 1825 853e
000001f0: c4ba 073f 0cd8 49bf 0461 c7bd 1d79 933d
00000200: edc5 fc3d d116 63be 4540 a0bb b483 893c
00000210: 36e4 5a3e 522a 24bd 46ab 033e 814c e63e
00000220: 1866 c0bc 6612 48bd 37bb e43e 13f6 04be
00000230: 0f79 873d 3b26 fd3d 799f 3d39 cb43 35bc
00000240: bd87 15be 8d62 e83d 1852 2dbe 02c9 4abe
00000250: 85c2 73bd f07c 86bc 98fd 95bd 3de4 353c
00000260: 3772 333c 39e3 063c 704f 4b3b 198b 813d
00000270: 912b 18bb f7d5 19bd 6a48 ef3d 0ace 8b3d
00000280: b4f2 a63e 65f4 31be ddd0 f83d f23b 983d
00000290: 305d 13bf 8939 fb3d 5ecb 1d3d eacb 973e
000002a0: 568a 65be f418 e43e ea46 8ebd 7e4f 943e
000002b0: 4014 f43b 60e4 4bbf 1af9 c23e 9901 fe3b
000002c0: d9d7 483f 1457 dc3e 15b0 68bf 7e4b 4e3d
000002d0: 487d 293f 1153 953f bd34 0c3e be7e 7c3e
000002e0: 92c3 06bf a46a 053f 2df2 833e 2c02 083f
000002f0: 700f 4bbf 33af c4bd 7609 973d 0bee fa3d
00000300: 3d8d 65be 837f c7bb 2805 813c 2eac 563e
00000310: 1b86 25bd be97 043e 5231 e43e 1c50 c0bc
00000320: a8da 46bd fa26 e63e 36bd 04be 53a5 863d
00000330: 816f fd3d c982 91b9 79d8 35bc 781a 19be
00000340: 2f98 e53d 59aa 2dbe 28c2 4bbe 6964 76bd
00000350: 070d 91bc 2bf4 95bd 171e 3c3c cf70 3a3c
00000360: 7672 003c 9110 3f3b 46e5 823d 165d 01bb
00000370: 68ee 18bd a145 f03d 0715 923d 50e4 a93e
00000380: 15b3 35be a450 fa3d 7fb4 983d 65f2 12bf
00000390: 38ac fe3d fa6f 193d b2ac 973e 2d8a 67be
000003a0: 22d5 e63e 3661 93bd 68df 943e f97a ff3b
000003b0: 29ef 4bbf 7426 c23e f4cc f23b 4354 483f
000003c0: 3893 dd3e 67df 69bf 02ca 4e3d 64f4 293f
000003d0: 6bc7 953f 88e7 0d3e 92e6 793e d11d 07bf
000003e0: 67d3 053f fab3 833e b75a 083f 10a7 4bbf
000003f0: c55d bfbd 2d01 983d e7a2 f93d 7c6b 66be
-0.09474121 0.06839822 0.12206076 -0.21459493 -0.004353418 0.015521063 0.21472552 -0.037285224
0.1274916 0.44357476 -0.027258445 -0.04983613 0.43434867 -0.12724468 0.06744357 0.12141026
-0.0012088071 -0.0115261795 -0.13819458 0.11793826 -0.1691186 -0.19323185 -0.062295277 -0.011080595
-0.07178523 0.0103125945 0.00905062 0.00893706 0.0037189918 0.062875085 -0.0019571874 -0.038056687
0.11427129 0.06528814 0.31626877 -0.16690366 0.11938538 0.076488614 -0.5765307 0.120329805
0.0353493 0.29737067 -0.21906304 0.43772718 -0.06608228 0.2858694 0.00653414 -0.7978743
0.3832424 0.008486885 0.78779274 0.422207 -0.89999336 0.047056634 0.6600278 1.1588367
0.13608824 0.24491596 -0.5217213 0.52132785 0.25825953 0.5263132 -0.78478813 -0.09839763
0.07082311 0.12371306 -0.21865049 -0.0045613362 0.016937602 0.21361372 -0.03884891 0.12826532
0.45055732 -0.024500491 -0.04922385 0.44093695 -0.12834089 0.067309394 0.12308907 -0.00032613386
-0.011467856 -0.1434337 0.11478266 -0.16855225 -0.1972293 -0.061949093 -0.014872672 -0.07255717
0.010921308 0.01063229 0.008105364 0.003147009 0.06427085 -0.001932309 -0.03772377 0.116040714
0.06652291 0.32055536 -0.17058508 0.12082778 0.07540837 -0.57588875 0.12153178 0.0365223
0.29749998 -0.22131047 0.44152775 -0.06651475 0.2876058 0.006240974 -0.7977459 0.38160732
0.006290651 0.78527474 0.42791882 -0.90376776 0.04968776 0.6626419 1.1650196 0.13535719
0.24797724 -0.52504754 0.5209655 0.26004863 0.53019357 -0.78845286 -0.09735301 0.07200835
0.12342439 -0.22176673 -0.004890474 0.016786434 0.21376118 -0.040079422 0.12858304 0.44980243
-0.023486182 -0.04884567 0.44674084 -0.12984495 0.06614887 0.123608075 0.00018083853 -0.011063526
-0.14602561 0.11346922 -0.16925848 -0.19803241 -0.05951168 -0.016416997 -0.0732376 0.0111017795
0.010952524 0.008232885 0.003102269 0.06325359 -0.0023219327 -0.03755757 0.11683734 0.06826408
0.32607043 -0.17378385 0.121492125 0.07433309 -0.5756407 0.12266833 0.038524024 0.29647762
-0.22416052 0.44550288 -0.069471195 0.28966898 0.007448703 -0.7964535 0.38080674 0.0077516553
0.7845436 0.43035185 -0.9089368 0.050364964 0.6620679 1.1665975 0.13691993 0.24657723
-0.52642167 0.52115846 0.25770703 0.53128314 -0.7932043 -0.09603729 0.073748514 0.12252434
-0.2241716 -0.0060881986 0.015749529 0.20964119 -0.040411096 0.1294851 0.44568878 -0.0234757
-0.04854837 0.44951612 -0.12962803 0.06574502 0.12374783 -0.00027753998 -0.011098974 -0.14951503
0.11210667 -0.16959514 -0.19898283 -0.060154352 -0.017706407 -0.07321962 0.011481783 0.011379435
0.00783979 0.0029154161 0.06391387 -0.0019739321 -0.037336737 0.11732031 0.07132917 0.33182
-0.17744096 0.12222412 0.07456302 -0.57401115 0.12435192 0.037460305 0.29623944 -0.22611304
0.45084482 -0.07196276 0.29076695 0.007796642 -0.79661804 0.37919962 0.007409686 0.78253573
0.43276381 -0.9135651 0.05048562 0.66388535 1.1701483 0.13857853 0.24404362 -0.5277987
0.522757 0.2572325 0.5326342 -0.7955179 -0.09344057 0.07422099 0.12189274 -0.2250194

betas f4 [217, 10]
00000000: d480 b0bf 13c6 18bf c032 f4be 560d a5be
00000010: 8030 673c 6093 8bbd 7d79 8f3e c035 1b3c
00000020: d6c7 b4be 1e86 093f d480 b0bf 13c6 18bf
00000030: c032 f4be 560d a5be 8030 673c 6093 8bbd
00000040: 7d79 8f3e c035 1b3c d6c7 b4be 1e86 093f
00000050: d480 b0bf 13c6 18bf c032 f4be 560d a5be
00000060: 8030 673c 6093 8bbd 7d79 8f3e c035 1b3c
00000070: d6c7 b4be 1e86 093f d480 b0bf 13c6 18bf
00000080: c032 f4be 560d a5be 8030 673c 6093 8bbd
00000090: 7d79 8f3e c035 1b3c d6c7 b4be 1e86 093f
000000a0: d480 b0bf 13c6 18bf c032 f4be 560d a5be
000000b0: 8030 673c 6093 8bbd 7d79 8f3e c035 1b3c
000000c0: d6c7 b4be 1e86 093f d480 b0bf 13c6 18bf
000000d0: c032 f4be 560d a5be 8030 673c 6093 8bbd
000000e0: 7d79 8f3e c035 1b3c d6c7 b4be 1e86 093f
000000f0: d480 b0bf 13c6 18bf c032 f4be 560d a5be
00000100: 8030 673c 6093 8bbd 7d79 8f3e c035 1b3c
00000110: d6c7 b4be 1e86 093f d480 b0bf 13c6 18bf
00000120: c032 f4be 560d a5be 8030 673c 6093 8bbd
00000130: 7d79 8f3e c035 1b3c d6c7 b4be 1e86 093f
00000140: d480 b0bf 13c6 18bf c032 f4be 560d a5be
00000150: 8030 673c 6093 8bbd 7d79 8f3e c035 1b3c
00000160: d6c7 b4be 1e86 093f d480 b0bf 13c6 18bf
00000170: c032 f4be 560d a5be 8030 673c 6093 8bbd
00000180: 7d79 8f3e c035 1b3c d6c7 b4be 1e86 093f
00000190: d480 b0bf 13c6 18bf c032 f4be 560d a5be
000001a0: 8030 673c 6093 8bbd 7d79 8f3e c035 1b3c
000001b0: d6c7 b4be 1e86 093f d480 b0bf 13c6 18bf
000001c0: c032 f4be 560d a5be 8030 673c 6093 8bbd
000001d0: 7d79 8f3e c035 1b3c d6c7 b4be 1e86 093f
000001e0: d480 b0bf 13c6 18bf c032 f4be 560d a5be
000001f0: 8030 673c 6093 8bbd 7d79 8f3e c035 1b3c
00000200: d6c7 b4be 1e86 093f d480 b0bf 13c6 18bf
00000210: c032 f4be 560d a5be 8030 673c 6093 8bbd
00000220: 7d79 8f3e c035 1b3c d6c7 b4be 1e86 093f
00000230: d480 b0bf 13c6 18bf c032 f4be 560d a5be
00000240: 8030 673c 6093 8bbd 7d79 8f3e c035 1b3c
00000250: d6c7 b4be 1e86 093f d480 b0bf 13c6 18bf
00000260: c032 f4be 560d a5be 8030 673c 6093 8bbd
00000270: 7d79 8f3e c035 1b3c d6c7 b4be 1e86 093f
00000280: d480 b0bf 13c6 18bf c032 f4be 560d a5be
00000290: 8030 673c 6093 8bbd 7d79 8f3e c035 1b3c
000002a0: d6c7 b4be 1e86 093f d480 b0bf 13c6 18bf
000002b0: c032 f4be 560d a5be 8030 673c 6093 8bbd
000002c0: 7d79 8f3e c035 1b3c d6c7 b4be 1e86 093f
000002d0: d480 b0bf 13c6 18bf c032 f4be 560d a5be
000002e0: 8030 673c 6093 8bbd 7d79 8f3e c035 1b3c
000002f0: d6c7 b4be 1e86 093f d480 b0bf 13c6 18bf
00000300: c032 f4be 560d a5be 8030 673c 6093 8bbd
00000310: 7d79 8f3e c035 1b3c d6c7 b4be 1e86 093f
00000320: d480 b0bf 13c6 18bf c032 f4be 560d a5be
00000330: 8030 673c 6093 8bbd 7d79 8f3e c035 1b3c
00000340: d6c7 b4be 1e86 093f d480 b0bf 13c6 18bf
00000350: c032 f4be 560d a5be 8030 673c 6093 8bbd
00000360: 7d79 8f3e c035 1b3c d6c7 b4be 1e86 093f
00000370: d480 b0bf 13c6 18bf c032 f4be 560d a5be
00000380: 8030 673c 6093 8bbd 7d79 8f3e c035 1b3c
00000390: d6c7 b4be 1e86 093f d480 b0bf 13c6 18bf
000003a0: c032 f4be 560d a5be 8030 673c 6093 8bbd
000003b0: 7d79 8f3e c035 1b3c d6c7 b4be 1e86 093f
000003c0: d480 b0bf 13c6 18bf c032 f4be 560d a5be
000003d0: 8030 673c 6093 8bbd 7d79 8f3e c035 1b3c
000003e0: d6c7 b4be 1e86 093f d480 b0bf 13c6 18bf
000003f0: c032 f4be 560d a5be 8030 673c 6093 8bbd
-1.3789315 -0.5967724 -0.4769497 -0.32236737 0.014110684 -0.06815219 0.28022376 0.009473264
-0.35308713 0.5372027 -1.3789315 -0.5967724 -0.4769497 -0.32236737 0.014110684 -0.06815219
0.28022376 0.009473264 -0.35308713 0.5372027 -1.3789315 -0.5967724 -0.4769497 -0.32236737
0.014110684 -0.06815219 0.28022376 0.009473264 -0.35308713 0.5372027 -1.3789315 -0.5967724
-0.4769497 -0.32236737 0.014110684 -0.06815219 0.28022376 0.009473264 -0.35308713 0.5372027
-1.3789315 -0.5967724 -0.4769497 -0.32236737 0.014110684 -0.06815219 0.28022376 0.009473264
-0.35308713 0.5372027 -1.3789315 -0.5967724 -0.4769497 -0.32236737 0.014110684 -0.06815219
0.28022376 0.009473264 -0.35308713 0.5372027 -1.3789315 -0.5967724 -0.4769497 -0.32236737
0.014110684 -0.06815219 0.28022376 0.009473264 -0.35308713 0.5372027 -1.3789315 -0.5967724
-0.4769497 -0.32236737 0.014110684 -0.06815219 0.28022376 0.009473264 -0.35308713 0.5372027
-1.3789315 -0.5967724 -0.4769497 -0.32236737 0.014110684 -0.06815219 0.28022376 0.009473264
-0.35308713 0.5372027 -1.3789315 -0.5967724 -0.4769497 -0.32236737 0.014110684 -0.06815219
0.28022376 0.009473264 -0.35308713 0.5372027 -1.3789315 -0.5967724 -0.4769497 -0.32236737
0.014110684 -0.06815219 0.28022376 0.009473264 -0.35308713 0.5372027 -1.3789315 -0.5967724
-0.4769497 -0.32236737 0.014110684 -0.06815219 0.28022376 0.009473264 -0.35308713 0.5372027
-1.3789315 -0.5967724 -0.4769497 -0.32236737 0.014110684 -0.06815219 0.28022376 0.009473264
-0.35308713 0.5372027 -1.3789315 -0.5967724 -0.4769497 -0.32236737 0.014110684 -0.06815219
0.28022376 0.009473264 -0.35308713 0.5372027 -1.3789315 -0.5967724 -0.4769497 -0.32236737
0.014110684 -0.06815219 0.28022376 0.009473264 -0.35308713 0.5372027 -1.3789315 -0.5967724
-0.4769497 -0.32236737 0.014110684 -0.06815219 0.28022376 0.009473264 -0.35308713 0.5372027
-1.3789315 -0.5967724 -0.4769497 -0.32236737 0.014110684 -0.06815219 0.28022376 0.009473264
-0.35308713 0.5372027 -1.3789315 -0.5967724 -0.4769497 -0.32236737 0.014110684 -0.06815219
0.28022376 0.009473264 -0.35308713 0.5372027 -1.3789315 -0.5967724 -0.4769497 -0.32236737
0.014110684 -0.06815219 0.28022376 0.009473264 -0.35308713 0.5372027 -1.3789315 -0.5967724
-0.4769497 -0.32236737 0.014110684 -0.06815219 0.28022376 0.009473264 -0.35308713 0.5372027
-1.3789315 -0.5967724 -0.4769497 -0.32236737 0.014110684 -0.06815219 0.28022376 0.009473264
-0.35308713 0.5372027 -1.3789315 -0.5967724 -0.4769497 -0.32236737 0.014110684 -0.06815219
0.28022376 0.009473264 -0.35308713 0.5372027 -1.3789315 -0.5967724 -0.4769497 -0.32236737
0.014110684 -0.06815219 0.28022376 0.009473264 -0.35308713 0.5372027 -1.3789315 -0.5967724
-0.4769497 -0.32236737 0.014110684 -0.06815219 0.28022376 0.009473264 -0.35308713 0.5372027
-1.3789315 -0.5967724 -0.4769497 -0.32236737 0.014110684 -0.06815219 0.28022376 0.009473264
-0.35308713 0.5372027 -1.3789315 -0.5967724 -0.4769497 -0.32236737 0.014110684 -0.06815219

global_orient f4 [217, 3]
00000000: 8d93 2fc0 e1a2 983d d05d a8bf 0a98 2fc0
00000010: af8a 963d 6e3a a8bf c0ac 2fc0 a4bf 983d
00000020: 1c07 a8bf da9e 2fc0 8020 9a3d 5734 a8bf
00000030: 357c 2fc0 40a9 9a3d afb1 a8bf 8a5e 2fc0
00000040: ab3a 9e3d 5cac a9bf af42 2fc0 dfc5 8e3d
00000050: 8500 aabf 3938 2fc0 2428 943d 0bd4 aabf
00000060: b325 2fc0 e388 9c3d ad66 abbf 650f 2fc0
00000070: ac5f 9f3d 8cea abbf 1fe9 2ec0 65fb a13d
00000080: 7482 acbf c0c0 2ec0 d629 a63d a016 adbf
00000090: a1a8 2ec0 a698 a83d a482 adbf fb8f 2ec0
000000a0: 24b3 ab3d 0214 aebf 3366 2ec0 7202 ad3d
000000b0: 83b4 aebf 2d4f 2ec0 ea54 b03d 6f6e afbf
000000c0: f22c 2ec0 1027 b03d c514 b0bf c900 2ec0
000000d0: 1361 b23d 2611 b1bf 66dd 2dc0 8bc9 b23d
000000e0: bdce b1bf c2e5 2dc0 1430 b33d 2ec1 b1bf
000000f0: 1896 2dc0 8e81 b53d 6a09 b3bf 9165 2dc0
00000100: f9a9 b43d fbbf b3bf 183e 2dc0 23a8 b63d
00000110: bb86 b4bf 971c 2dc0 b104 b63d 8b3d b5bf
00000120: 1200 2dc0 43d1 b63d d6df b5bf 3bec 2cc0
00000130: e375 b43d 548c b6bf 6fc1 2cc0 c169 b53d
00000140: 9548 b7bf ec8c 2cc0 fede b23d 3a26 b8bf
00000150: bf86 2cc0 05ef b13d e9c2 b8bf d485 2cc0
00000160: 51a6 ac3d 8b3e b9bf 08a2 2cc0 26ca ad3d
00000170: 3e27 b9bf 9453 2cc0 07fd ab3d 42aa babf
00000180: 4a3d 2cc0 132c ac3d 372b bbbf 4e34 2cc0
00000190: 25c9 ac3d 11d9 bbbf 9b1f 2cc0 51f9 ab3d
000001a0: 9265 bcbf 64e2 2bc0 babf a83d 8953 bdbf
000001b0: 2db7 2bc0 49e6 ab3d 6351 bebf 888f 2bc0
000001c0: 4c33 a73d 3937 bfbf efa9 2bc0 0570 a93d
000001d0: 6253 bfbf fa5f 2bc0 7c0e a93d 39a5 c0bf
000001e0: bb34 2bc0 a9ca ac3d f546 c1bf 5f26 2bc0
000001f0: e484 ab3d a6e5 c1bf e81c 2bc0 54aa ad3d
00000200: 9e55 c2bf 3d2d 2bc0 724e ae3d 2cd8 c2bf
00000210: 4f34 2bc0 0a1a b03d 3582 c3bf 2f0e 2bc0
00000220: e4de a83d 773d c4bf 9401 2bc0 8c08 a53d
00000230: 3f90 c4bf 1edc 2ac0 ab0e 9b3d b377 c5bf
00000240: ee76 2ac0 be56 923d 5d7c c6bf fb5d 2ac0
00000250: e3d4 8f3d 707c c6bf f02d 2ac0 c1fb 8b3d
00000260: f12c c7bf 52e4 29c0 60f6 8a3d 7912 c8bf
00000270: 9ab6 29c0 d5ac 853d a273 c8bf da8d 29c0
00000280: f5e0 843d b0cf c8bf bd9c 29c0 f6b3 7d3d
00000290: 7f40 c8bf 4272 29c0 61a1 7a3d bfe9 c8bf
000002a0: 1a7e 29c0 2488 6f3d 4071 c8bf 3a6c 29c0
000002b0: fcb2 5d3d a5a1 c8bf 4397 29c0 eda8 503d
000002c0: ed40 c8bf 50e5 29c0 d128 483d 7434 c7bf
000002d0: fafb 29c0 2fad 423d 25e5 c6bf d7dd 29c0
000002e0: 2293 353d 4e37 c7bf 8ffc 29c0 1dc4 253d
000002f0: 8007 c7bf f412 2ac0 cf78 143d a366 c7bf
00000300: 8b3d 2ac0 d569 1e3d a560 c7bf 4c54 2ac0
00000310: ca5c 0b3d d38a c7bf 5e76 2ac0 7414 043d
00000320: 067c c7bf 789c 2ac0 be67 e63c 9d5d c7bf
00000330: c9c3 2ac0 f8cc cc3c 8107 c7bf d2e5 2ac0
00000340: bf23 c03c 41c2 c6bf 8b1e 2bc0 8209 a63c
00000350: b85b c6bf 0710 2bc0 fbf0 993c 5726 c7bf
00000360: 662e 2bc0 e085 793c a517 c7bf ed42 2bc0
00000370: 3c1a 3d3c e08e c6bf df66 2bc0 0fe1 353c
00000380: 90a3 c6bf ef78 2bc0 26e4 1f3c a0d5 c6bf
00000390: cb8e 2bc0 3ae5 0e3c 790e c7bf 6ab7 2bc0
000003a0: f0b4 0b3c 7ff0 c6bf 6bc0 2bc0 ca08 fd3b
000003b0: defd c6bf 62e3 2bc0 2b82 d43b 681f c7bf
000003c0: fe08 2cc0 cde7 e23b ee27 c7bf 181a 2cc0
000003d0: 79a3 c73b a747 c7bf 3f3f 2cc0 a014 943b
000003e0: e633 c7bf fd53 2cc0 5a08 af3b 4f5d c7bf
000003f0: ab7e 2cc0 1d1d af3b 5f33 c7bf f990 2cc0
-2.7433808 0.07452942 -1.3153629 -2.7436547 0.073506705 -1.3142831 -2.7449188 0.074584275
-1.312717 -2.7440705 0.0752573 -1.3140973 -2.741956 0.07551813 -1.3179225 -2.7401452
0.07726034 -1.3255725 -2.738445 0.06971335 -1.3281409 -2.7378066 0.07234219 -1.334596
-2.736676 0.076432966 -1.3390709 -2.7353146 0.0778192 -1.3430953 -2.7329786 0.07909278
-1.3477311 -2.7305145 0.08113448 -1.352253 -2.7290423 0.082322404 -1.3555493 -2.7275379
0.08383778 -1.3599856 -2.7249877 0.08447732 -1.3648838 -2.7235825 0.08609946 -1.3705577
-2.7214932 0.086012006 -1.3756338 -2.718798 0.08709922 -1.3833358 -2.716638 0.087298475
-1.3891217 -2.7171483 0.087494045 -1.3887079 -2.712286 0.08862601 -1.3987248 -2.7093241
0.08821482 -1.4042963 -2.706915 0.08918788 -1.4103616 -2.70487 0.088876136 -1.4159406
-2.7031293 0.08926632 -1.4208934 -2.7019184 0.088115476 -1.4261575 -2.6993062 0.088580616
-1.4319025 -2.6961012 0.08733939 -1.4386666 -2.6957242 0.086881675 -1.4434482 -2.6956682
0.0843016 -1.4472212 -2.6973896 0.084858224 -1.4465101 -2.6926012 0.083978705 -1.4583209
-2.6912408 0.08406844 -1.4622563 -2.6906924 0.08436803 -1.4675618 -2.689429 0.08397163
-1.4718497 -2.6856928 0.08239694 -1.4791118 -2.6830552 0.08393533 -1.4868587 -2.6806355
0.08164081 -1.4938728 -2.682247 0.08273319 -1.4947321 -2.677733 0.08254716 -1.5050422
-2.6750934 0.08437092 -1.5099779 -2.674217 0.08374956 -1.5148208 -2.6736393 0.08479753
-1.5182378 -2.6746361 0.08511056 -1.522222 -2.6750677 0.085987166 -1.5274111 -2.6727407
0.08245638 -1.5331258 -2.6719713 0.08058271 -1.535652 -2.669685 0.07571157 -1.5427154
-2.663509 0.07145451 -1.5506703 -2.661986 0.07023027 -1.5506725 -2.6590538 0.068351276
-1.556059 -2.6545606 0.067852736 -1.5630637 -2.65177 0.06527106 -1.5660288 -2.649283
0.0648822 -1.5688381 -2.6501915 0.061939202 -1.5644683 -2.6475987 0.06118906 -1.5696334
-2.6483216 0.058479443 -1.5659561 -2.6472306 0.05412577 -1.567433 -2.6498573 0.05094235
-1.5644814 -2.6546211 0.04886705 -1.5562882 -2.6560044 0.047528442 -1.5538679 -2.654165
0.04432977 -1.5563753 -2.65604 0.04047023 -1.5549164 -2.6574068 0.036248025 -1.5578197
-2.6600063 0.038675148 -1.5576369 -2.661395 0.034024037 -1.5589241 -2.6634746 0.032246068
-1.5584724 -2.6658 0.02812564 -1.5575444 -2.6681998 0.02500008 -1.5549165 -2.670277
0.023454545 -1.5528032 -2.6737392 0.020268206 -1.549674 -2.6728532 0.018791666 -1.5558575
-2.674707 0.015229672 -1.5554091 -2.6759598 0.011541899 -1.5512352 -2.6781538 0.011101021
-1.5518665 -2.6792562 0.009758985 -1.5533943 -2.6805904 0.008721644 -1.5551292 -2.6830697
0.008527026 -1.5542144 -2.6836193 0.007721995 -1.5546224 -2.6857533 0.006485244 -1.555646
-2.6880488 0.0069246055 -1.555906 -2.6890926 0.0060924855 -1.5568742 -2.6913602 0.0045190603
-1.5562713 -2.6926262 0.0053415718 -1.557535 -2.6952312 0.0053440467 -1.5562552 -2.6963484

transl f4 [217, 3]
00000000: 7cc6 02bf 467c 4f3f 6e93 2d40 54de 01bf
00000010: b797 4f3f 7735 2d40 59d2 00bf 58a3 4f3f
00000020: 284e 2d40 aa0b ffbe 22c6 4f3f 8ca1 2d40
00000030: 7054 fcbe 130b 503f 8cd1 2d40 4b7d fabe
00000040: 3164 503f e702 2f40 15a7 f9be 5570 503f
00000050: a6c9 3040 92c9 f7be 6e52 503f 3340 3140
00000060: 7350 f5be d249 503f 06d5 3140 5eff f2be
00000070: aa4c 503f da45 3240 90e1 efbe 0846 503f
00000080: 83cf 3240 934f edbe f42e 503f 397e 3340
00000090: b178 eabe 6e41 503f 222c 3440 1254 e8be
000000a0: 2521 503f 6af2 3440 68ad e5be 8402 503f
000000b0: faa6 3540 d94a e3be 16eb 4f3f 161f 3640
000000c0: 10b8 e1be bcd6 4f3f af0e 3740 026f debe
000000d0: 81a1 4f3f 08ad 3740 4279 dcbe cc7b 4f3f
000000e0: 90d9 3840 7144 dabe 2141 4f3f 3da4 3940
000000f0: f8be d8be 7f4b 4f3f d795 3a40 18d5 d6be
00000100: e230 4f3f 433e 3b40 4d8c d4be 9710 4f3f
00000110: 744a 3c40 bd32 d2be 732d 4f3f e124 3d40
00000120: 990e d0be 293a 4f3f 6634 3e40 f60b cebe
00000130: 361c 4f3f 61ce 3e40 5d3d ccbe e50c 4f3f
00000140: dcf4 3f40 75d6 cabe fe25 4f3f 58e5 4040
00000150: 864a c9be e82b 4f3f 4321 4240 1320 c8be
00000160: 960a 4f3f 0f20 4340 707b c6be c030 4f3f
00000170: f13b 4440 9b8d c4be c521 4f3f 792f 4540
00000180: 80fb c2be e2e9 4e3f d330 4640 f475 c1be
00000190: ddb9 4e3f 8b16 4740 f96b c0be b298 4e3f
000001a0: 93ee 4740 5db7 bfbe 3bb1 4e3f c1d7 4840
000001b0: 6a76 bfbe 99d0 4e3f dee3 4940 df73 bfbe
000001c0: daa2 4e3f 6f53 4b40 9708 bfbe 6e99 4e3f
000001d0: c5bb 4c40 d32f bebe 703d 4e3f bee8 4d40
000001e0: 306a bdbe 3efb 4d3f 34fe 4e40 145b bdbe
000001f0: ec96 4d3f 9483 5040 955f bcbe 4666 4d3f
00000200: 74be 5140 4557 bbbe cce6 4c3f 6985 5340
00000210: 95e7 b8be 586d 4c3f 9704 5540 ea17 b8be
00000220: 6917 4c3f 1890 5640 09aa b7be 2de2 4b3f
00000230: eb87 5740 bfef b6be 8182 4b3f 0469 5840
00000240: ba15 b7be c642 4b3f c712 5a40 7754 b7be
00000250: c8fa 4a3f ac12 5c40 f694 b6be 0eb1 4a3f
00000260: 3853 5d40 a9d2 b5be 30ad 4a3f 48ea 5e40
00000270: f661 b5be 6c87 4a3f 9a92 6040 d1f9 b4be
00000280: ffa3 4a3f 64cc 6140 0fa4 b4be 436c 4a3f
00000290: fdaa 6340 870d b2be 5098 4a3f febc 6340
000002a0: f4f4 b0be e944 4a3f 8fb2 6540 bd21 afbe
000002b0: 8ee7 493f 8678 6740 e97a aebe 96b6 493f
000002c0: 9f9d 6940 ce17 afbe 4c90 493f 9bdc 6b40
000002d0: d223 b0be 9091 493f 4567 6e40 cd4b b1be
000002e0: d7d3 493f cf69 7040 18e4 b2be 169c 493f
000002f0: cf58 7340 8fb5 b2be 7eec 493f 97c1 7540
00000300: 287b b3be 70f5 493f fa09 7940 5411 b4be
00000310: f325 4a3f c790 7b40 a794 b4be e64a 4a3f
00000320: a750 7e40 9bee b5be 6e2a 4a3f 879b 8040
00000330: 6333 b7be 9a24 4a3f 33e0 8140 aabb b8be
00000340: 2afe 493f 1847 8340 f57b b9be 1c61 493f
00000350: a4be 8440 0906 b9be 9e47 493f 83c1 8540
00000360: 1e59 b9be e8e6 483f 525a 8740 a8c8 b9be
00000370: d02e 483f ebfc 8840 5464 babe 05e8 473f
00000380: f750 8a40 8e54 bcbe e95c 473f f0b5 8b40
00000390: 4461 bebe a650 473f d5b3 8c40 2f05 c1be
000003a0: e062 473f 4213 8e40 1cc5 c2be 6f60 473f
000003b0: a751 8f40 0a66 c4be 7657 473f 5cac 9040
000003c0: 44c0 c5be 1160 473f b9fe 9140 ed1b c7be
000003d0: 2e6c 473f 4ef4 9240 fcb0 c9be e41d 473f
000003e0: 273c 9440 edeb cdbe 0e66 473f cdb8 9540
000003f0: 58a2 d2be 82c6 473f 8e4e 9740 6c71 d7be
-0.51084113 0.81049 2.7121234 -0.5072987 0.81090873 2.7063882 -0.50320965 0.8110862
2.7078953 -0.49813586 0.811617 2.712985 -0.4928317 0.812669 2.7159147 -0.48923716
0.8140288 2.7345521 -0.48760286 0.81421405 2.7623076 -0.48395973 0.8137578 2.7695434
-0.4791294 0.8136264 2.778627 -0.47460455 0.8136698 2.7855134 -0.46851778 0.8135686
2.7939155 -0.46349773 0.81321645 2.804579 -0.45795205 0.8134984 2.8151937 -0.4537664
0.81300575 2.8272958 -0.4485886 0.8125384 2.8383164 -0.44393042 0.8121809 2.8456473
-0.4408574 0.81187034 2.8602712 -0.43444067 0.8110581 2.869936 -0.43061262 0.81048274
2.888279 -0.42630342 0.80958754 2.9006493 -0.42333198 0.8097457 2.9153955 -0.41959453
0.80933964 2.9256752 -0.4151329 0.8088469 2.9420443 -0.41054335 0.80928725 2.955376
-0.40636137 0.8094812 2.9719481 -0.402435 0.8090242 2.9813464 -0.39890566 0.8087905
2.99932 -0.39616743 0.80917346 3.013998 -0.3931467 0.8092637 3.0332801 -0.3908697
0.8087553 3.0488317 -0.3876605 0.8093376 3.0661585 -0.38389286 0.80910903 3.0810225
-0.38082504 0.80825627 3.09673 -0.37785304 0.80752355 3.110751 -0.37582377 0.80701745
3.1239364 -0.37444583 0.8073918 3.1381686 -0.3739503 0.80787045 3.154533 -0.3739309
0.8071724 3.1769674 -0.3731124 0.80702865 3.1989605 -0.37145862 0.80562496 3.2173305
-0.36995077 0.8046149 3.2342653 -0.3698355 0.80308414 3.258031 -0.36791673 0.8023418
3.2772493 -0.3659002 0.8003967 3.3050177 -0.36114183 0.79854345 3.3284051 -0.35955745
0.7972322 3.3525448 -0.35871914 0.7964199 3.3676708 -0.35729787 0.7949601 3.3814096
-0.35758764 0.79398763 3.407396 -0.3580663 0.7928891 3.4386396 -0.35660523 0.79176414
3.4582043 -0.35512283 0.79170513 3.4830494 -0.354263 0.7911289 3.5089478 -0.35346845
0.7915649 3.5281 -0.35281417 0.79071444 3.5573113 -0.34775946 0.7913866 3.5584102
-0.34561884 0.790114 3.5890234 -0.34205428 0.7886895 3.6167312 -0.34078148 0.7879423
3.6502454 -0.3419785 0.78735805 3.6853397 -0.3440233 0.78737736 3.725053 -0.34628144
0.78838867 3.756458 -0.34939647 0.78753793 3.8022954 -0.34904143 0.78876483 3.8399408
-0.35054898 0.7889013 3.891234 -0.3516947 0.78964156 3.9307115 -0.35269663 0.79020536
3.9736726 -0.35533604 0.7897099 4.0189853 -0.35781392 0.789621 4.058618 -0.36080676
0.7890345 4.1024284 -0.36227384 0.786638 4.1482716 -0.36137417 0.78624904 4.179872
-0.36200804 0.78477335 4.2297754 -0.362859 0.7819643 4.280874 -0.3640467 0.7808841
4.3223834 -0.3678326 0.77876145 4.365959 -0.37183583 0.77857435 4.396952 -0.37699267
0.77885246 4.439851 -0.38041008 0.7788152 4.4787173 -0.383591 0.7786783 4.52104
-0.3862325 0.7788096 4.562344 -0.38888493 0.77899444 4.5923223 -0.3939284 0.77779984
4.632343 -0.4021906 0.778901 4.6788087 -0.41139483 0.78037274 4.728339 -0.42078722
