inputs/demo/trumpmusk/hmr4d_results.pt (torch, 115775 bytes, 25 tensors)

body_pose f4 [25, 63]
0	0x3e0fa0a4	0.14026123
1	0xbb3c1a51	-0.002870221
2	0x3b4066e4	0.0029358203
3	0x3d3a6151	0.045502964
4	0xbdb87204	-0.09006122
5	0xbd8a2b0a	-0.0674649
6	0x3e626d05	0.221119
7	0x3dd7e857	0.10542362
8	0x3bf01c51	0.0073275943
9	0x3d836480	0.06415653
10	0xbe75f21a	-0.24018136
11	0x3c6a9705	0.014318232
12	0x3d818a85	0.06325249
13	0xbbb93f22	-0.005653278
14	0xbbd35a41	-0.006449968
15	0x3dc1e597	0.09467619
16	0x3c3bbfc3	0.011459294
17	0x3d688db9	0.056775782
18	0xbe0a63f0	-0.13514686
19	0x3df1b7a3	0.11802604
20	0xbd1808c7	-0.037117746
21	0xbce81b32	-0.02833328
22	0xbd855513	-0.06510367
23	0x3dc4aadf	0.096029036
24	0x3d8130fc	0.06308171
25	0x3dcec30f	0.10095798
26	0x3d419bd6	0.047267757
27	0xbbf25826	-0.007395762
28	0xbcd08db1	-0.025458189
29	0x3d2fbb9c	0.042903528
30	0xbc4d374b	-0.01252539
31	0x3c96ddf0	0.018416375
32	0xbb6e7761	-0.0036387073
33	0xbd9ada42	-0.075611606
34	0xbe5c1be6	-0.21495017
35	0x3e074d8d	0.13213177
36	0xbe32685d	-0.17422624
37	0xbecee883	-0.40411767
38	0xbdcc986d	-0.099900104
39	0xbe42b5fd	-0.19014736
40	0x3f0e8894	0.5567715
41	0xbc60cdd3	-0.013720947
42	0xbdffc82f	-0.12489354
43	0xbe825917	-0.25458595
44	0x3e0dc720	0.13845491
45	0x3e053051	0.13006712
46	0xbf2625f7	-0.6490168
47	0xbf84fbd7	-1.0389355
48	0xbe719bd9	-0.23594607
49	0x3f4daf71	0.8034583
50	0x3f181f70	0.5942297
51	0x3e9a6c07	0.30160543
52	0xbf4ac68d	-0.79209214
53	0x3d3bbfde	0.045837276
54	0xbd364b29	-0.044505272
55	0x3ebe1c0c	0.37130773
56	0xbd503d5b	-0.050839763
57	0xbe760046	-0.24023542
58	0xbd5abacd	-0.053400803
59	0x3d23640c	0.039890334
60	0xbe1c0912	-0.15237835
61	0xbdb36342	-0.08759166
62	0x3dab4f4d	0.08364735
63	0x3e0fb15a	0.14032498
64	0xbb22b0a2	-0.002482452
65	0x3b3b336c	0.0028564585
66	0x3d39c7a9	0.045356426
67	0xbdb8280a	-0.08992012
68	0xbd8a41d5	-0.06750838
69	0x3e62636b	0.22108237
70	0x3dd7f419	0.10544605
71	0x3bf01717	0.0073269713
72	0x3d831e77	0.06402295
73	0xbe75e036	-0.24011311
74	0x3c6a4855	0.014299472
75	0x3d81b5b7	0.063334875
76	0xbbbb3c01	-0.00571394
77	0xbbd54e6f	-0.006509594
78	0x3dc25cc1	0.09490348
79	0x3c3bc1a1	0.011459739
80	0x3d68bf48	0.056823045
81	0xbe0aed72	-0.1356714
82	0x3df19818	0.11796588
83	0xbd1706b0	-0.036871612
84	0xbcec906e	-0.028877463
85	0xbd849be6	-0.06475048
86	0x3dc496bd	0.095990635
87	0x3d81137a	0.06302543
88	0x3dceca4b	0.10097178
89	0x3d418e4d	0.04725485
90	0xbbf29f14	-0.0074042175
91	0xbcd06900	-0.025440693
92	0x3d2fc612	0.042913504
93	0xbc4d56f0	-0.012532935
94	0x3c96bd18	0.018400714
95	0xbb6c8b75	-0.0036093865
96	0xbd9a6cea	-0.07540305
97	0xbe5c3feb	-0.21508758
98	0x3e07409f	0.13208245
99	0xbe322ecf	-0.17400669
100	0xbeceac50	-0.4036584
101	0xbdcc3bee	-0.09972368
102	0xbe428fae	-0.19000122
103	0x3f0ea40a	0.55719054
104	0xbc649bd8	-0.013953172
105	0xbe000aa0	-0.12504053
106	0xbe8243e1	-0.25442412
107	0x3e0dd26a	0.13849798
108	0x3e051fca	0.13000408
109	0xbf262d7e	-0.64913166
110	0xbf850a80	-1.0393829
111	0xbe713f55	-0.23559316
112	0x3f4d9e5d	0.8031977
113	0x3f180ab7	0.5939135
114	0x3e9a0723	0.3008357
115	0xbf4b0240	-0.7930031
116	0x3d3dce93	0.046339583
117	0xbd3704e5	-0.044682402
118	0x3ebe84d3	0.37210712
119	0xbd505dab	-0.05087058
120	0xbe767cf9	-0.24071111
121	0xbd59f6a8	-0.053213745
122	0x3d23c5ba	0.03998349
123	0xbe1c0785	-0.15237243
124	0xbdb3931a	-0.08768292
125	0x3dab3044	0.08358815
126	0x3e0fc079	0.14038266
127	0xbb228b89	-0.0024802408
128	0x3b36ad10	0.002787415
129	0x3d3a075b	0.04541717
130	0xbdb825cf	-0.089915864
131	0xbd8a6286	-0.06757073
132	0x3e624fa0	0.22100687
133	0x3dd7e8db	0.105424605
134	0x3beee9c3	0.00729105
135	0x3d82fbe4	0.063957006
136	0xbe75dba2	-0.24009565
137	0x3c6be884	0.014398698
138	0x3d819b85	0.06328491
139	0xbbbee7a2	-0.0058259526
140	0xbbd5cd56	-0.006524722
141	0x3dc27755	0.09495417
142	0x3c3b21cc	0.011421632
143	0x3d68b2b7	0.05681106
144	0xbe0b804d	-0.13623162
145	0x3df146a1	0.117810495
146	0xbd15bd8c	-0.03655772
147	0xbcef97c9	-0.029247181
148	0xbd84671f	-0.06464981
149	0x3dc42b7a	0.09578605
150	0x3d812cbc	0.063073605
151	0x3dcec878	0.1009683
152	0x3d4190f7	0.04725739
153	0xbbf2885e	-0.00740151
154	0xbcd033ff	-0.025415419
155	0x3d2fbc2e	0.04290407
156	0xbc4cdb60	-0.012503475
157	0x3c96a37e	0.018388506
158	0xbb6ded08	-0.0036304612
159	0xbd9a632c	-0.07538447
160	0xbe5c5837	-0.21518026
161	0x3e074536	0.13209996
162	0xbe32204d	-0.17395134
163	0xbecec700	-0.403862
164	0xbdcbe95c	-0.09956619
165	0xbe42c32c	-0.19019765
166	0x3f0e8f7b	0.55687684
167	0xbc64b3be	-0.0139588695
168	0xbdfff344	-0.12497571
169	0xbe824e77	-0.2545049
170	0x3e0ddade	0.13853022
171	0x3e053ddd	0.1301188
172	0xbf262c19	-0.6491104
173	0xbf850aae	-1.0393884
174	0xbe716916	-0.23575243
175	0x3f4da5c8	0.8033109
176	0x3f17e728	0.5933709
177	0x3e9a4f0e	0.3013844
178	0xbf4b1ac3	-0.7933771
179	0x3d3ea4cf	0.046543892
180	0xbd371b58	-0.04470381
181	0x3ebe515f	0.37171456
182	0xbd4d24e7	-0.05008402
183	0xbe769f02	-0.24084094
184	0xbd59c81a	-0.053169347
185	0x3d23f243	0.04002596
186	0xbe1c5bab	-0.15269344
187	0xbdb37b73	-0.087637804
188	0x3dab5372	0.08365525
189	0x3e0fb6ee	0.14034626
190	0xbb1b3746	-0.0023684069
191	0x3b38f568	0.0028222445
192	0x3d39def2	0.045378633
193	0xbdb826e5	-0.089917935
194	0xbd8a5c26	-0.06755857
195	0x3e624b9b	0.22099154
196	0x3dd7eb8a	0.105429724
197	0x3bef1f6e	0.007297448
198	0x3d833f6f	0.064085834
199	0xbe75cf07	-0.24004756
200	0x3c6a0b0b	0.014284859
201	0x3d81b61f	0.06333565
202	0xbbbb3ef8	-0.0057142936
203	0xbbd439b9	-0.0064766076
204	0x3dc27bae	0.09496246
205	0x3c3b3fcb	0.011428784
206	0x3d68ba2e	0.05681818
207	0xbe0bf09f	-0.13666008
208	0x3df19ac2	0.11797096
209	0xbd1503ae	-0.036380462
210	0xbcf4d7b7	-0.029888017
211	0xbd84b1ba	-0.06479211
212	0x3dc3b1e5	0.09555415
213	0x3d810f13	0.06301703
214	0x3dceca64	0.10097197
215	0x3d4185bc	0.04724668
216	0xbbf29867	-0.0074034217
217	0xbcd03905	-0.025417814
218	0x3d2fcb49	0.042918477
219	0xbc4d2ace	-0.012522412
220	0x3c96b359	0.018396067
221	0xbb6af091	-0.0035848955
222	0xbd9a8853	-0.07545533
223	0xbe5c2fd9	-0.21502627
224	0x3e074595	0.13210137
225	0xbe323a88	-0.1740514
226	0xbeceb508	-0.4037249
227	0xbdcbf109	-0.09958083
228	0xbe42c906	-0.19021997
229	0x3f0ea5d2	0.5572177
230	0xbc64d3c2	-0.013966503
231	0xbe00025f	-0.12500905
232	0xbe823bce	-0.25436252
233	0x3e0ddccc	0.13853759
234	0x3e051e33	0.12999801
235	0xbf26308a	-0.64917815
236	0xbf84fa4e	-1.0388887
237	0xbe71243c	-0.23548979
238	0x3f4daa40	0.80337906
239	0x3f17e27a	0.5932995
240	0x3e9a3128	0.30115628
241	0xbf4b0d8d	-0.7931755
242	0x3d3c81f1	0.04602236
243	0xbd352ea9	-0.04423395
244	0x3ebe3f23	0.37157544
245	0xbd4e25ec	-0.050329134
246	0xbe768dd4	-0.2407754
247	0xbd5a1c48	-0.053249627
248	0x3d23a6c6	0.03995397
249	0xbe1c2945	-0.15250118
250	0xbdb3c691	-0.08778108
251	0x3dab633c	0.08368537
252	0x3e0fbbbf	0.14036463
253	0xbb36c39c	-0.0027887588
254	0x3b359f5f	0.00277134
255	0x3d39a3ca	0.045322217

betas f4 [25, 10]
0	0x3efd4763	0.49468526
1	0x3fcb4a11	1.5881978
2	0x3f185766	0.5950836
3	0x3f159c00	0.5844116
4	0xbf2e5811	-0.6810313
5	0xbf57b616	-0.84262216
6	0xbf5483a4	-0.8301337
7	0xbf887257	-1.0659894
8	0xbfea458c	-1.8302474
9	0xbf1e4e10	-0.61837864
10	0x3efd4763	0.49468526
11	0x3fcb4a11	1.5881978
12	0x3f185766	0.5950836
13	0x3f159c00	0.5844116
14	0xbf2e5811	-0.6810313
15	0xbf57b616	-0.84262216
16	0xbf5483a4	-0.8301337
17	0xbf887257	-1.0659894
18	0xbfea458c	-1.8302474
19	0xbf1e4e10	-0.61837864
20	0x3efd4763	0.49468526
21	0x3fcb4a11	1.5881978
22	0x3f185766	0.5950836
23	0x3f159c00	0.5844116
24	0xbf2e5811	-0.6810313
25	0xbf57b616	-0.84262216
26	0xbf5483a4	-0.8301337
27	0xbf887257	-1.0659894
28	0xbfea458c	-1.8302474
29	0xbf1e4e10	-0.61837864
30	0x3efd4763	0.49468526
31	0x3fcb4a11	1.5881978
32	0x3f185766	0.5950836
33	0x3f159c00	0.5844116
34	0xbf2e5811	-0.6810313
35	0xbf57b616	-0.84262216
36	0xbf5483a4	-0.8301337
37	0xbf887257	-1.0659894
38	0xbfea458c	-1.8302474
39	0xbf1e4e10	-0.61837864
40	0x3efd4763	0.49468526
41	0x3fcb4a11	1.5881978
42	0x3f185766	0.5950836
43	0x3f159c00	0.5844116
44	0xbf2e5811	-0.6810313
45	0xbf57b616	-0.84262216
46	0xbf5483a4	-0.8301337
47	0xbf887257	-1.0659894
48	0xbfea458c	-1.8302474
49	0xbf1e4e10	-0.61837864
50	0x3efd4763	0.49468526
51	0x3fcb4a11	1.5881978
52	0x3f185766	0.5950836
53	0x3f159c00	0.5844116
54	0xbf2e5811	-0.6810313
55	0xbf57b616	-0.84262216
56	0xbf5483a4	-0.8301337
57	0xbf887257	-1.0659894
58	0xbfea458c	-1.8302474
59	0xbf1e4e10	-0.61837864
60	0x3efd4763	0.49468526
61	0x3fcb4a11	1.5881978
62	0x3f185766	0.5950836
63	0x3f159c00	0.5844116
64	0xbf2e5811	-0.6810313
65	0xbf57b616	-0.84262216
66	0xbf5483a4	-0.8301337
67	0xbf887257	-1.0659894
68	0xbfea458c	-1.8302474
69	0xbf1e4e10	-0.61837864
70	0x3efd4763	0.49468526
71	0x3fcb4a11	1.5881978
72	0x3f185766	0.5950836
73	0x3f159c00	0.5844116
74	0xbf2e5811	-0.6810313
75	0xbf57b616	-0.84262216
76	0xbf5483a4	-0.8301337
77	0xbf887257	-1.0659894
78	0xbfea458c	-1.8302474
79	0xbf1e4e10	-0.61837864
80	0x3efd4763	0.49468526
81	0x3fcb4a11	1.5881978
82	0x3f185766	0.5950836
83	0x3f159c00	0.5844116
84	0xbf2e5811	-0.6810313
85	0xbf57b616	-0.84262216
86	0xbf5483a4	-0.8301337
87	0xbf887257	-1.0659894
88	0xbfea458c	-1.8302474
89	0xbf1e4e10	-0.61837864
90	0x3efd4763	0.49468526
91	0x3fcb4a11	1.5881978
92	0x3f185766	0.5950836
93	0x3f159c00	0.5844116
94	0xbf2e5811	-0.6810313
95	0xbf57b616	-0.84262216
96	0xbf5483a4	-0.8301337
97	0xbf887257	-1.0659894
98	0xbfea458c	-1.8302474
99	0xbf1e4e10	-0.61837864
100	0x3efd4763	0.49468526
101	0x3fcb4a11	1.5881978
102	0x3f185766	0.5950836
103	0x3f159c00	0.5844116
104	0xbf2e5811	-0.6810313
105	0xbf57b616	-0.84262216
106	0xbf5483a4	-0.8301337
107	0xbf887257	-1.0659894
108	0xbfea458c	-1.8302474
109	0xbf1e4e10	-0.61837864
110	0x3efd4763	0.49468526
111	0x3fcb4a11	1.5881978
112	0x3f185766	0.5950836
113	0x3f159c00	0.5844116
114	0xbf2e5811	-0.6810313
115	0xbf57b616	-0.84262216
116	0xbf5483a4	-0.8301337
117	0xbf887257	-1.0659894
118	0xbfea458c	-1.8302474
119	0xbf1e4e10	-0.61837864
120	0x3efd4763	0.49468526
121	0x3fcb4a11	1.5881978
122	0x3f185766	0.5950836
123	0x3f159c00	0.5844116
124	0xbf2e5811	-0.6810313
125	0xbf57b616	-0.84262216
126	0xbf5483a4	-0.8301337
127	0xbf887257	-1.0659894
128	0xbfea458c	-1.8302474
129	0xbf1e4e10	-0.61837864
130	0x3efd4763	0.49468526
131	0x3fcb4a11	1.5881978
132	0x3f185766	0.5950836
133	0x3f159c00	0.5844116
134	0xbf2e5811	-0.6810313
135	0xbf57b616	-0.84262216
136	0xbf5483a4	-0.8301337
137	0xbf887257	-1.0659894
138	0xbfea458c	-1.8302474
139	0xbf1e4e10	-0.61837864
140	0x3efd4763	0.49468526
141	0x3fcb4a11	1.5881978
142	0x3f185766	0.5950836
143	0x3f159c00	0.5844116
144	0xbf2e5811	-0.6810313
145	0xbf57b616	-0.84262216
146	0xbf5483a4	-0.8301337
147	0xbf887257	-1.0659894
148	0xbfea458c	-1.8302474
149	0xbf1e4e10	-0.61837864
150	0x3efd4763	0.49468526
151	0x3fcb4a11	1.5881978
152	0x3f185766	0.5950836
153	0x3f159c00	0.5844116
154	0xbf2e5811	-0.6810313
155	0xbf57b616	-0.84262216
156	0xbf5483a4	-0.8301337
157	0xbf887257	-1.0659894
158	0xbfea458c	-1.8302474
159	0xbf1e4e10	-0.61837864
160	0x3efd4763	0.49468526
161	0x3fcb4a11	1.5881978
162	0x3f185766	0.5950836
163	0x3f159c00	0.5844116
164	0xbf2e5811	-0.6810313
165	0xbf57b616	-0.84262216
166	0xbf5483a4	-0.8301337
167	0xbf887257	-1.0659894
168	0xbfea458c	-1.8302474
169	0xbf1e4e10	-0.61837864
170	0x3efd4763	0.49468526
171	0x3fcb4a11	1.5881978
172	0x3f185766	0.5950836
173	0x3f159c00	0.5844116
174	0xbf2e5811	-0.6810313
175	0xbf57b616	-0.84262216
176	0xbf5483a4	-0.8301337
177	0xbf887257	-1.0659894
178	0xbfea458c	-1.8302474
179	0xbf1e4e10	-0.61837864
180	0x3efd4763	0.49468526
181	0x3fcb4a11	1.5881978
182	0x3f185766	0.5950836
183	0x3f159c00	0.5844116
184	0xbf2e5811	-0.6810313
185	0xbf57b616	-0.84262216
186	0xbf5483a4	-0.8301337
187	0xbf887257	-1.0659894
188	0xbfea458c	-1.8302474
189	0xbf1e4e10	-0.61837864
190	0x3efd4763	0.49468526
191	0x3fcb4a11	1.5881978
192	0x3f185766	0.5950836
193	0x3f159c00	0.5844116
194	0xbf2e5811	-0.6810313
195	0xbf57b616	-0.84262216
196	0xbf5483a4	-0.8301337
197	0xbf887257	-1.0659894
198	0xbfea458c	-1.8302474
199	0xbf1e4e10	-0.61837864
200	0x3efd4763	0.49468526
201	0x3fcb4a11	1.5881978
202	0x3f185766	0.5950836
203	0x3f159c00	0.5844116
204	0xbf2e5811	-0.6810313
205	0xbf57b616	-0.84262216
206	0xbf5483a4	-0.8301337
207	0xbf887257	-1.0659894
208	0xbfea458c	-1.8302474
209	0xbf1e4e10	-0.61837864
210	0x3efd4763	0.49468526
211	0x3fcb4a11	1.5881978
212	0x3f185766	0.5950836
213	0x3f159c00	0.5844116
214	0xbf2e5811	-0.6810313
215	0xbf57b616	-0.84262216
216	0xbf5483a4	-0.8301337
217	0xbf887257	-1.0659894
218	0xbfea458c	-1.8302474
219	0xbf1e4e10	-0.61837864
220	0x3efd4763	0.49468526
221	0x3fcb4a11	1.5881978
222	0x3f185766	0.5950836
223	0x3f159c00	0.5844116
224	0xbf2e5811	-0.6810313
225	0xbf57b616	-0.84262216
226	0xbf5483a4	-0.8301337
227	0xbf887257	-1.0659894
228	0xbfea458c	-1.8302474
229	0xbf1e4e10	-0.61837864
230	0x3efd4763	0.49468526
231	0x3fcb4a11	1.5881978
232	0x3f185766	0.5950836
233	0x3f159c00	0.5844116
234	0xbf2e5811	-0.6810313
235	0xbf57b616	-0.84262216
236	0xbf5483a4	-0.8301337
237	0xbf887257	-1.0659894
238	0xbfea458c	-1.8302474
239	0xbf1e4e10	-0.61837864
240	0x3efd4763	0.49468526
241	0x3fcb4a11	1.5881978
242	0x3f185766	0.5950836
243	0x3f159c00	0.5844116
244	0xbf2e5811	-0.6810313
245	0xbf57b616	-0.84262216
246	0xbf5483a4	-0.8301337
247	0xbf887257	-1.0659894
248	0xbfea458c	-1.8302474
249	0xbf1e4e10	-0.61837864

global_orient f4 [25, 3]
0	0xbcf27247	-0.029595507
1	0xc0351379	-2.8293135
2	0xbdaa2bcd	-0.083091356
3	0xbcf13268	-0.02944298
4	0xc0351a3b	-2.829726
5	0xbda93382	-0.082617775
6	0xbcf14cd8	-0.029455587
7	0xc03516d9	-2.8295195
8	0xbda96fce	-0.08273278
9	0xbcf1bdb2	-0.0295094
10	0xc0351a3c	-2.8297262
11	0xbda95655	-0.0826842
12	0xbcf1709a	-0.029472638
13	0xc0351d5a	-2.8299165
14	0xbda99ee4	-0.08282259
15	0xbcf2b171	-0.029625626
16	0xc0351a3e	-2.8297267
17	0xbda984c4	-0.08277276
18	0xbcf27b92	-0.029599939
19	0xc0351d5b	-2.8299167
20	0xbda9b61b	-0.08286687
21	0xbcf1aaa3	-0.029500311
22	0xc0351d5a	-2.8299165
23	0xbda987ad	-0.08277831
24	0xbcf36b26	-0.029714178
25	0xc0351a3f	-2.829727
26	0xbda99bfc	-0.08281705
27	0xbcf24188	-0.029572263
28	0xc0351d5a	-2.8299165
29	0xbda987ad	-0.08277831
30	0xbcf25150	-0.029579788
31	0xc0352079	-2.830107
32	0xbda9d03f	-0.08291673
33	0xbcf25cec	-0.029585324
34	0xc0352079	-2.830107
35	0xbda9d03f	-0.08291673
36	0xbcf22a55	-0.029561201
37	0xc0351d5d	-2.8299172
38	0xbda9fbc2	-0.08299972
39	0xbcf2d103	-0.02964068
40	0xc035207b	-2.8301075
41	0xbda9feaf	-0.0830053
42	0xbcf258c2	-0.029583339
43	0xc0351d5c	-2.829917
44	0xbda9e48a	-0.082955435
45	0xbcf29a3b	-0.029614558
46	0xc0351a3f	-2.829727
47	0xbda9b332	-0.08286132
48	0xbcf0f864	-0.029415317
49	0xc0351a3e	-2.8297267
50	0xbda9a795	-0.08283917
51	0xbcf11b36	-0.02943192
52	0xc0351a3e	-2.8297267
53	0xbda9becc	-0.08288345
54	0xbcf1a8c8	-0.029499426
55	0xc035105b	-2.8291233
56	0xbda9e33b	-0.08295294
57	0xbcf16ebe	-0.029471751
58	0xc035105a	-2.829123
59	0xbda9b4cc	-0.082864374
60	0xbcf0d3b6	-0.029397827
61	0xc0350d3c	-2.8289328
62	0xbda98374	-0.08277026
63	0xbcf18943	-0.029484397
64	0xc0350a20	-2.828743
65	0xbda9aef7	-0.08285325
66	0xbcf0aaae	-0.029378261
67	0xc0350891	-2.8286479
68	0xbda98ab0	-0.08278406
69	0xbcf18943	-0.029484397
70	0xc0350a20	-2.828743
71	0xbda9c62c	-0.082897514
72	0xbcf0d709	-0.029399412
73	0xc0350703	-2.828553
74	0xbda97da0	-0.08275914

body_pose f4 [25, 63]
0	0x3e0fa0a4	0.14026123
1	0xbb3c1a51	-0.002870221
2	0x3b4066e4	0.0029358203
3	0x3d3a6151	0.045502964
4	0xbdb87204	-0.09006122
5	0xbd8a2b0a	-0.0674649
6	0x3e626d05	0.221119
7	0x3dd7e857	0.10542362
8	0x3bf01c51	0.0073275943
9	0x3d836480	0.06415653
10	0xbe75f21a	-0.24018136
11	0x3c6a9705	0.014318232
12	0x3d818a85	0.06325249
13	0xbbb93f22	-0.005653278
14	0xbbd35a41	-0.006449968
15	0x3dc1e597	0.09467619
16	0x3c3bbfc3	0.011459294
17	0x3d688db9	0.056775782
18	0xbe0a63f0	-0.13514686
19	0x3df1b7a3	0.11802604
20	0xbd1808c7	-0.037117746
21	0xbce81b32	-0.02833328
22	0xbd855513	-0.06510367
23	0x3dc4aadf	0.096029036
24	0x3d8130fc	0.06308171
25	0x3dcec30f	0.10095798
26	0x3d419bd6	0.047267757
27	0xbbf25826	-0.007395762
28	0xbcd08db1	-0.025458189
29	0x3d2fbb9c	0.042903528
30	0xbc4d374b	-0.01252539
31	0x3c96ddf0	0.018416375
32	0xbb6e7761	-0.0036387073
33	0xbd9ada42	-0.075611606
34	0xbe5c1be6	-0.21495017
35	0x3e074d8d	0.13213177
36	0xbe32685d	-0.17422624
37	0xbecee883	-0.40411767
38	0xbdcc986d	-0.099900104
39	0xbe42b5fd	-0.19014736
40	0x3f0e8894	0.5567715
41	0xbc60cdd3	-0.013720947
42	0xbdffc82f	-0.12489354
43	0xbe825917	-0.25458595
44	0x3e0dc720	0.13845491
45	0x3e053051	0.13006712
46	0xbf2625f7	-0.6490168
47	0xbf84fbd7	-1.0389355
48	0xbe719bd9	-0.23594607
49	0x3f4daf71	0.8034583
50	0x3f181f70	0.5942297
51	0x3e9a6c07	0.30160543
52	0xbf4ac68d	-0.79209214
53	0x3d3bbfde	0.045837276
54	0xbd364b29	-0.044505272
55	0x3ebe1c0c	0.37130773
56	0xbd503d5b	-0.050839763
57	0xbe760046	-0.24023542
58	0xbd5abacd	-0.053400803
59	0x3d23640c	0.039890334
60	0xbe1c0912	-0.15237835
61	0xbdb36342	-0.08759166
62	0x3dab4f4d	0.08364735
63	0x3e0fb15a	0.14032498
64	0xbb22b0a2	-0.002482452
65	0x3b3b336c	0.0028564585
66	0x3d39c7a9	0.045356426
67	0xbdb8280a	-0.08992012
68	0xbd8a41d5	-0.06750838
69	0x3e62636b	0.22108237
70	0x3dd7f419	0.10544605
71	0x3bf01717	0.0073269713
72	0x3d831e77	0.06402295
73	0xbe75e036	-0.24011311
74	0x3c6a4855	0.014299472
75	0x3d81b5b7	0.063334875
76	0xbbbb3c01	-0.00571394
77	0xbbd54e6f	-0.006509594
78	0x3dc25cc1	0.09490348
79	0x3c3bc1a1	0.011459739
80	0x3d68bf48	0.056823045
81	0xbe0aed72	-0.1356714
82	0x3df19818	0.11796588
83	0xbd1706b0	-0.036871612
84	0xbcec906e	-0.028877463
85	0xbd849be6	-0.06475048
86	0x3dc496bd	0.095990635
87	0x3d81137a	0.06302543
88	0x3dceca4b	0.10097178
89	0x3d418e4d	0.04725485
90	0xbbf29f14	-0.0074042175
91	0xbcd06900	-0.025440693
92	0x3d2fc612	0.042913504
93	0xbc4d56f0	-0.012532935
94	0x3c96bd18	0.018400714
95	0xbb6c8b75	-0.0036093865
96	0xbd9a6cea	-0.07540305
97	0xbe5c3feb	-0.21508758
98	0x3e07409f	0.13208245
99	0xbe322ecf	-0.17400669
100	0xbeceac50	-0.4036584
101	0xbdcc3bee	-0.09972368
102	0xbe428fae	-0.19000122
103	0x3f0ea40a	0.55719054
104	0xbc649bd8	-0.013953172
105	0xbe000aa0	-0.12504053
106	0xbe8243e1	-0.25442412
107	0x3e0dd26a	0.13849798
108	0x3e051fca	0.13000408
109	0xbf262d7e	-0.64913166
110	0xbf850a80	-1.0393829
111	0xbe713f55	-0.23559316
112	0x3f4d9e5d	0.8031977
113	0x3f180ab7	0.5939135
114	0x3e9a0723	0.3008357
115	0xbf4b0240	-0.7930031
116	0x3d3dce93	0.046339583
117	0xbd3704e5	-0.044682402
118	0x3ebe84d3	0.37210712
119	0xbd505dab	-0.05087058
120	0xbe767cf9	-0.24071111
121	0xbd59f6a8	-0.053213745
122	0x3d23c5ba	0.03998349
123	0xbe1c0785	-0.15237243
124	0xbdb3931a	-0.08768292
125	0x3dab3044	0.08358815
126	0x3e0fc079	0.14038266
127	0xbb228b89	-0.0024802408
128	0x3b36ad10	0.002787415
129	0x3d3a075b	0.04541717
130	0xbdb825cf	-0.089915864
131	0xbd8a6286	-0.06757073
132	0x3e624fa0	0.22100687
133	0x3dd7e8db	0.105424605
134	0x3beee9c3	0.00729105
135	0x3d82fbe4	0.063957006
136	0xbe75dba2	-0.24009565
137	0x3c6be884	0.014398698
138	0x3d819b85	0.06328491
139	0xbbbee7a2	-0.0058259526
140	0xbbd5cd56	-0.006524722
141	0x3dc27755	0.09495417
142	0x3c3b21cc	0.011421632
143	0x3d68b2b7	0.05681106
144	0xbe0b804d	-0.13623162
145	0x3df146a1	0.117810495
146	0xbd15bd8c	-0.03655772
147	0xbcef97c9	-0.029247181
148	0xbd84671f	-0.06464981
149	0x3dc42b7a	0.09578605
150	0x3d812cbc	0.063073605
151	0x3dcec878	0.1009683
152	0x3d4190f7	0.04725739
153	0xbbf2885e	-0.00740151
154	0xbcd033ff	-0.025415419
155	0x3d2fbc2e	0.04290407
156	0xbc4cdb60	-0.012503475
157	0x3c96a37e	0.018388506
158	0xbb6ded08	-0.0036304612
159	0xbd9a632c	-0.07538447
160	0xbe5c5837	-0.21518026
161	0x3e074536	0.13209996
162	0xbe32204d	-0.17395134
163	0xbecec700	-0.403862
164	0xbdcbe95c	-0.09956619
165	0xbe42c32c	-0.19019765
166	0x3f0e8f7b	0.55687684
167	0xbc64b3be	-0.0139588695
168	0xbdfff344	-0.12497571
169	0xbe824e77	-0.2545049
170	0x3e0ddade	0.13853022
171	0x3e053ddd	0.1301188
172	0xbf262c19	-0.6491104
173	0xbf850aae	-1.0393884
174	0xbe716916	-0.23575243
175	0x3f4da5c8	0.8033109
176	0x3f17e728	0.5933709
177	0x3e9a4f0e	0.3013844
178	0xbf4b1ac3	-0.7933771
179	0x3d3ea4cf	0.046543892
180	0xbd371b58	-0.04470381
181	0x3ebe515f	0.37171456
182	0xbd4d24e7	-0.05008402
183	0xbe769f02	-0.24084094
184	0xbd59c81a	-0.053169347
185	0x3d23f243	0.04002596
186	0xbe1c5bab	-0.15269344
187	0xbdb37b73	-0.087637804
188	0x3dab5372	0.08365525
189	0x3e0fb6ee	0.14034626
190	0xbb1b3746	-0.0023684069
191	0x3b38f568	0.0028222445
192	0x3d39def2	0.045378633
193	0xbdb826e5	-0.089917935
194	0xbd8a5c26	-0.06755857
195	0x3e624b9b	0.22099154
196	0x3dd7eb8a	0.105429724
197	0x3bef1f6e	0.007297448
198	0x3d833f6f	0.064085834
199	0xbe75cf07	-0.24004756
200	0x3c6a0b0b	0.014284859
201	0x3d81b61f	0.06333565
202	0xbbbb3ef8	-0.0057142936
203	0xbbd439b9	-0.0064766076
204	0x3dc27bae	0.09496246
205	0x3c3b3fcb	0.011428784
206	0x3d68ba2e	0.05681818
207	0xbe0bf09f	-0.13666008
208	0x3df19ac2	0.11797096
209	0xbd1503ae	-0.036380462
210	0xbcf4d7b7	-0.029888017
211	0xbd84b1ba	-0.06479211
212	0x3dc3b1e5	0.09555415
213	0x3d810f13	0.06301703
214	0x3dceca64	0.10097197
215	0x3d4185bc	0.04724668
216	0xbbf29867	-0.0074034217
217	0xbcd03905	-0.025417814
218	0x3d2fcb49	0.042918477
219	0xbc4d2ace	-0.012522412
220	0x3c96b359	0.018396067
221	0xbb6af091	-0.0035848955
222	0xbd9a8853	-0.07545533
223	0xbe5c2fd9	-0.21502627
224	0x3e074595	0.13210137
225	0xbe323a88	-0.1740514
226	0xbeceb508	-0.4037249
227	0xbdcbf109	-0.09958083
228	0xbe42c906	-0.19021997
229	0x3f0ea5d2	0.5572177
230	0xbc64d3c2	-0.013966503
231	0xbe00025f	-0.12500905
232	0xbe823bce	-0.25436252
233	0x3e0ddccc	0.13853759
234	0x3e051e33	0.12999801
235	0xbf26308a	-0.64917815
236	0xbf84fa4e	-1.0388887
237	0xbe71243c	-0.23548979
238	0x3f4daa40	0.80337906
239	0x3f17e27a	0.5932995
240	0x3e9a3128	0.30115628
241	0xbf4b0d8d	-0.7931755
242	0x3d3c81f1	0.04602236
243	0xbd352ea9	-0.04423395
244	0x3ebe3f23	0.37157544
245	0xbd4e25ec	-0.050329134
246	0xbe768dd4	-0.2407754
247	0xbd5a1c48	-0.053249627
248	0x3d23a6c6	0.03995397
249	0xbe1c2945	-0.15250118
250	0xbdb3c691	-0.08778108
251	0x3dab633c	0.08368537
252	0x3e0fbbbf	0.14036463
253	0xbb36c39c	-0.0027887588
254	0x3b359f5f	0.00277134
255	0x3d39a3ca	0.045322217

betas f4 [25, 10]
0	0x3efd4763	0.49468526
1	0x3fcb4a11	1.5881978
2	0x3f185766	0.5950836
3	0x3f159c00	0.5844116
4	0xbf2e5811	-0.6810313
5	0xbf57b616	-0.84262216
6	0xbf5483a4	-0.8301337
7	0xbf887257	-1.0659894
8	0xbfea458c	-1.8302474
9	0xbf1e4e10	-0.61837864
10	0x3efd4763	0.49468526
11	0x3fcb4a11	1.5881978
12	0x3f185766	0.5950836
13	0x3f159c00	0.5844116
14	0xbf2e5811	-0.6810313
15	0xbf57b616	-0.84262216
16	0xbf5483a4	-0.8301337
17	0xbf887257	-1.0659894
18	0xbfea458c	-1.8302474
19	0xbf1e4e10	-0.61837864
20	0x3efd4763	0.49468526
21	0x3fcb4a11	1.5881978
22	0x3f185766	0.5950836
23	0x3f159c00	0.5844116
24	0xbf2e5811	-0.6810313
25	0xbf57b616	-0.84262216
26	0xbf5483a4	-0.8301337
27	0xbf887257	-1.0659894
28	0xbfea458c	-1.8302474
29	0xbf1e4e10	-0.61837864
30	0x3efd4763	0.49468526
31	0x3fcb4a11	1.5881978
32	0x3f185766	0.5950836
33	0x3f159c00	0.5844116
34	0xbf2e5811	-0.6810313
35	0xbf57b616	-0.84262216
36	0xbf5483a4	-0.8301337
37	0xbf887257	-1.0659894
38	0xbfea458c	-1.8302474
39	0xbf1e4e10	-0.61837864
40	0x3efd4763	0.49468526
41	0x3fcb4a11	1.5881978
42	0x3f185766	0.5950836
43	0x3f159c00	0.5844116
44	0xbf2e5811	-0.6810313
45	0xbf57b616	-0.84262216
46	0xbf5483a4	-0.8301337
47	0xbf887257	-1.0659894
48	0xbfea458c	-1.8302474
49	0xbf1e4e10	-0.61837864
50	0x3efd4763	0.49468526
51	0x3fcb4a11	1.5881978
52	0x3f185766	0.5950836
53	0x3f159c00	0.5844116
54	0xbf2e5811	-0.6810313
55	0xbf57b616	-0.84262216
56	0xbf5483a4	-0.8301337
57	0xbf887257	-1.0659894
58	0xbfea458c	-1.8302474
59	0xbf1e4e10	-0.61837864
60	0x3efd4763	0.49468526
61	0x3fcb4a11	1.5881978
62	0x3f185766	0.5950836
63	0x3f159c00	0.5844116
64	0xbf2e5811	-0.6810313
65	0xbf57b616	-0.84262216
66	0xbf5483a4	-0.8301337
67	0xbf887257	-1.0659894
68	0xbfea458c	-1.8302474
69	0xbf1e4e10	-0.61837864
70	0x3efd4763	0.49468526
71	0x3fcb4a11	1.5881978
72	0x3f185766	0.5950836
73	0x3f159c00	0.5844116
74	0xbf2e5811	-0.6810313
75	0xbf57b616	-0.84262216
76	0xbf5483a4	-0.8301337
77	0xbf887257	-1.0659894
78	0xbfea458c	-1.8302474
79	0xbf1e4e10	-0.61837864
80	0x3efd4763	0.49468526
81	0x3fcb4a11	1.5881978
82	0x3f185766	0.5950836
83	0x3f159c00	0.5844116
84	0xbf2e5811	-0.6810313
85	0xbf57b616	-0.84262216
86	0xbf5483a4	-0.8301337
87	0xbf887257	-1.0659894
88	0xbfea458c	-1.8302474
89	0xbf1e4e10	-0.61837864
90	0x3efd4763	0.49468526
91	0x3fcb4a11	1.5881978
92	0x3f185766	0.5950836
93	0x3f159c00	0.5844116
94	0xbf2e5811	-0.6810313
95	0xbf57b616	-0.84262216
96	0xbf5483a4	-0.8301337
97	0xbf887257	-1.0659894
98	0xbfea458c	-1.8302474
99	0xbf1e4e10	-0.61837864
100	0x3efd4763	0.49468526
101	0x3fcb4a11	1.5881978
102	0x3f185766	0.5950836
103	0x3f159c00	0.5844116
104	0xbf2e5811	-0.6810313
105	0xbf57b616	-0.84262216
106	0xbf5483a4	-0.8301337
107	0xbf887257	-1.0659894
108	0xbfea458c	-1.8302474
109	0xbf1e4e10	-0.61837864
110	0x3efd4763	0.49468526
111	0x3fcb4a11	1.5881978
112	0x3f185766	0.5950836
113	0x3f159c00	0.5844116
114	0xbf2e5811	-0.6810313
115	0xbf57b616	-0.84262216
116	0xbf5483a4	-0.8301337
117	0xbf887257	-1.0659894
118	0xbfea458c	-1.8302474
119	0xbf1e4e10	-0.61837864
120	0x3efd4763	0.49468526
121	0x3fcb4a11	1.5881978
122	0x3f185766	0.5950836
123	0x3f159c00	0.5844116
124	0xbf2e5811	-0.6810313
125	0xbf57b616	-0.84262216
126	0xbf5483a4	-0.8301337
127	0xbf887257	-1.0659894
128	0xbfea458c	-1.8302474
129	0xbf1e4e10	-0.61837864
130	0x3efd4763	0.49468526
131	0x3fcb4a11	1.5881978
132	0x3f185766	0.5950836
133	0x3f159c00	0.5844116
134	0xbf2e5811	-0.6810313
135	0xbf57b616	-0.84262216
136	0xbf5483a4	-0.8301337
137	0xbf887257	-1.0659894
138	0xbfea458c	-1.8302474
139	0xbf1e4e10	-0.61837864
140	0x3efd4763	0.49468526
141	0x3fcb4a11	1.5881978
142	0x3f185766	0.5950836
143	0x3f159c00	0.5844116
144	0xbf2e5811	-0.6810313
145	0xbf57b616	-0.84262216
146	0xbf5483a4	-0.8301337
147	0xbf887257	-1.0659894
148	0xbfea458c	-1.8302474
149	0xbf1e4e10	-0.61837864
150	0x3efd4763	0.49468526
151	0x3fcb4a11	1.5881978
152	0x3f185766	0.5950836
153	0x3f159c00	0.5844116
154	0xbf2e5811	-0.6810313
155	0xbf57b616	-0.84262216
156	0xbf5483a4	-0.8301337
157	0xbf887257	-1.0659894
158	0xbfea458c	-1.8302474
159	0xbf1e4e10	-0.61837864
160	0x3efd4763	0.49468526
161	0x3fcb4a11	1.5881978
162	0x3f185766	0.5950836
163	0x3f159c00	0.5844116
164	0xbf2e5811	-0.6810313
165	0xbf57b616	-0.84262216
166	0xbf5483a4	-0.8301337
167	0xbf887257	-1.0659894
168	0xbfea458c	-1.8302474
169	0xbf1e4e10	-0.61837864
170	0x3efd4763	0.49468526
171	0x3fcb4a11	1.5881978
172	0x3f185766	0.5950836
173	0x3f159c00	0.5844116
174	0xbf2e5811	-0.6810313
175	0xbf57b616	-0.84262216
176	0xbf5483a4	-0.8301337
177	0xbf887257	-1.0659894
178	0xbfea458c	-1.8302474
179	0xbf1e4e10	-0.61837864
180	0x3efd4763	0.49468526
181	0x3fcb4a11	1.5881978
182	0x3f185766	0.5950836
183	0x3f159c00	0.5844116
184	0xbf2e5811	-0.6810313
185	0xbf57b616	-0.84262216
186	0xbf5483a4	-0.8301337
187	0xbf887257	-1.0659894
188	0xbfea458c	-1.8302474
189	0xbf1e4e10	-0.61837864
190	0x3efd4763	0.49468526
191	0x3fcb4a11	1.5881978
192	0x3f185766	0.5950836
193	0x3f159c00	0.5844116
194	0xbf2e5811	-0.6810313
195	0xbf57b616	-0.84262216
196	0xbf5483a4	-0.8301337
197	0xbf887257	-1.0659894
198	0xbfea458c	-1.8302474
199	0xbf1e4e10	-0.61837864
200	0x3efd4763	0.49468526
201	0x3fcb4a11	1.5881978
202	0x3f185766	0.5950836
203	0x3f159c00	0.5844116
204	0xbf2e5811	-0.6810313
205	0xbf57b616	-0.84262216
206	0xbf5483a4	-0.8301337
207	0xbf887257	-1.0659894
208	0xbfea458c	-1.8302474
209	0xbf1e4e10	-0.61837864
210	0x3efd4763	0.49468526
211	0x3fcb4a11	1.5881978
212	0x3f185766	0.5950836
213	0x3f159c00	0.5844116
214	0xbf2e5811	-0.6810313
215	0xbf57b616	-0.84262216
216	0xbf5483a4	-0.8301337
217	0xbf887257	-1.0659894
218	0xbfea458c	-1.8302474
219	0xbf1e4e10	-0.61837864
220	0x3efd4763	0.49468526
221	0x3fcb4a11	1.5881978
222	0x3f185766	0.5950836
223	0x3f159c00	0.5844116
224	0xbf2e5811	-0.6810313
225	0xbf57b616	-0.84262216
226	0xbf5483a4	-0.8301337
227	0xbf887257	-1.0659894
228	0xbfea458c	-1.8302474
229	0xbf1e4e10	-0.61837864
230	0x3efd4763	0.49468526
231	0x3fcb4a11	1.5881978
232	0x3f185766	0.5950836
233	0x3f159c00	0.5844116
234	0xbf2e5811	-0.6810313
235	0xbf57b616	-0.84262216
236	0xbf5483a4	-0.8301337
237	0xbf887257	-1.0659894
238	0xbfea458c	-1.8302474
239	0xbf1e4e10	-0.61837864
240	0x3efd4763	0.49468526
241	0x3fcb4a11	1.5881978
242	0x3f185766	0.5950836
243	0x3f159c00	0.5844116
244	0xbf2e5811	-0.6810313
245	0xbf57b616	-0.84262216
246	0xbf5483a4	-0.8301337
247	0xbf887257	-1.0659894
248	0xbfea458c	-1.8302474
249	0xbf1e4e10	-0.61837864

global_orient f4 [25, 3]
0	0xc03cc618	-2.9495907
1	0x3a7b0917	0.00095762446
2	0xbef91e4b	-0.48655924
3	0xc03cc837	-2.9497201
4	0x3a810a12	0.000984492
5	0xbef8fd49	-0.4863074
6	0xc03cc7d3	-2.9496963
7	0x3a893ed3	0.0010470994
8	0xbef902f6	-0.48635072
9	0xc03cc880	-2.9497375
10	0x3a822c8c	0.0009931489
11	0xbef8f7e0	-0.48626614
12	0xc03cc7d1	-2.9496958
13	0x3a81ef5f	0.0009913257
14	0xbef8e8ff	-0.48615262
15	0xc03cc71c	-2.9496527
16	0x3a92e71f	0.0011207795
17	0xbef8f207	-0.48622152
18	0xc03cc6f2	-2.9496427
19	0x3a8c0491	0.0010682513
20	0xbef8ea41	-0.48616222
21	0xc03cc61b	-2.9495914
22	0x3a862d52	0.0010236895
23	0xbef8e73d	-0.4861392
24	0xc03cc639	-2.9495986
25	0x3a97adae	0.0011572146
26	0xbef8f99f	-0.48627946
27	0xc03cc608	-2.9495869
28	0x3a951fcc	0.0011377274
29	0xbef90d4b	-0.48642954
30	0xc03cc879	-2.9497359
31	0x3a8b9ddf	0.0010651908
32	0xbef8dd7f	-0.48606488
33	0xc03cc76e	-2.9496722
34	0x3a8c7f78	0.0010719141
35	0xbef8ed33	-0.4861847
36	0xc03cc7f2	-2.9497037
37	0x3a919572	0.001110716
38	0xbef8eda4	-0.48618805
39	0xc03cc7c7	-2.9496934
40	0x3a944582	0.0011312219
41	0xbef8e913	-0.48615322
42	0xc03cc7ea	-2.9497018
43	0x3a934bf8	0.001123785
44	0xbef8edba	-0.4861887
45	0xc03cc7a3	-2.9496849
46	0x3a877cd0	0.001033688
47	0xbef8ed6f	-0.48618647
48	0xc03cc7bb	-2.9496906
49	0x3a8b0948	0.0010607624
50	0xbef8eba5	-0.48617283
51	0xc03cc81c	-2.9497137
52	0x3a835d49	0.0010022308
53	0xbef8d33f	-0.48598668
54	0xc03cc8dc	-2.9497595
55	0x3a894b49	0.0010474707
56	0xbef8d353	-0.48598728
57	0xc03cc902	-2.9497685
58	0x3a7cf324	0.0009649268
59	0xbef8be96	-0.48582906
60	0xc03cc874	-2.9497347
61	0x3a711caa	0.00091976917
62	0xbef8d32c	-0.4859861
63	0xc03cc8f5	-2.9497654
64	0x3a6ca07b	0.0009026599
65	0xbef8d20b	-0.4859775
66	0xc03cc816	-2.9497123
67	0x3a687ab2	0.00088683807
68	0xbef8d367	-0.48598787
69	0xc03cc938	-2.9497814
70	0x3a6316a8	0.0008662739
71	0xbef8c628	-0.4858868
72	0xc03cc7c1	-2.949692
73	0x3a665ebf	0.0008787922
74	0xbef8d198	-0.48597407

transl f4 [25, 3]
0	0x3f048457	0.51764435
1	0x3f185780	0.59508514
2	0x4007feb9	2.124922
3	0x3f0486f2	0.5176841
4	0x3f1856fd	0.59507734
5	0x400800ff	2.1250608
6	0x3f048a92	0.5177394
7	0x3f185670	0.59506893
8	0x40080161	2.1250842
9	0x3f0489fe	0.5177306
10	0x3f185533	0.59505004
11	0x4008017f	2.1250913
12	0x3f048f36	0.5178102
13	0x3f18567f	0.5950698
14	0x4008036c	2.1252089
15	0x3f049059	0.5178276
16	0x3f18543d	0.5950354
17	0x40080541	2.1253207
18	0x3f049145	0.51784164
19	0x3f185532	0.59505
20	0x4008053c	2.1253195
21	0x3f049279	0.51786
22	0x3f185549	0.59505135
23	0x40080598	2.1253414
24	0x3f048d18	0.5177779
25	0x3f1857f7	0.59509224
26	0x40080238	2.1251354
27	0x3f048e29	0.5177942
28	0x3f185917	0.5951094
29	0x400801de	2.125114
30	0x3f0491d6	0.5178503
31	0x3f18544a	0.59503615
32	0x40080467	2.1252687
33	0x3f0491a4	0.5178473
34	0x3f185434	0.59503484
35	0x400803e4	2.1252375
36	0x3f049135	0.5178407
37	0x3f185671	0.595069
38	0x400802aa	2.1251626
39	0x3f0490ce	0.51783454
40	0x3f18543e	0.59503543
41	0x400803a7	2.125223
42	0x3f048e48	0.51779604
43	0x3f185610	0.5950632
44	0x40080106	2.1250625
45	0x3f048e72	0.51779854
46	0x3f1856f8	0.59507704
47	0x40080246	2.1251388
48	0x3f048db8	0.51778746
49	0x3f1855b5	0.5950578
50	0x4008008d	2.1250336
51	0x3f048cd0	0.5177736
52	0x3f18561b	0.59506387
53	0x40080055	2.1250203
54	0x3f048ce7	0.517775
55	0x3f18575e	0.5950831
56	0x400800f5	2.1250584
57	0x3f048a96	0.51773965
58	0x3f1856ee	0.59507644
59	0x40080072	2.1250272
60	0x3f048735	0.5176881
61	0x3f1859d9	0.59512097
62	0x4007fe69	2.124903
63	0x3f048675	0.51767665
64	0x3f185aec	0.59513736
65	0x4007fe01	2.1248782
66	0x3f04852c	0.51765704
67	0x3f185aa8	0.5951333
68	0x4007fd89	2.1248496
69	0x3f0488ff	0.5177154
70	0x3f185aee	0.5951375
71	0x4007fee3	2.124932
72	0x3f0486f9	0.5176845
73	0x3f18596b	0.5951144
74	0x4007fe31	2.1248896

K_fullimg f4 [25, 3, 3]
0	0x44a00000	1280.0
1	0x00000000	0.0
2	0x44000000	512.0
3	0x00000000	0.0
4	0x44a00000	1280.0
5	0x43c00000	384.0
6	0x00000000	0.0
7	0x00000000	0.0
8	0x3f800000	1.0
9	0x44a00000	1280.0
10	0x00000000	0.0
11	0x44000000	512.0
12	0x00000000	0.0
13	0x44a00000	1280.0
14	0x43c00000	384.0
15	0x00000000	0.0
16	0x00000000	0.0
17	0x3f800000	1.0
18	0x44a00000	1280.0
19	0x00000000	0.0
20	0x44000000	512.0
21	0x00000000	0.0
22	0x44a00000	1280.0
23	0x43c00000	384.0
24	0x00000000	0.0
25	0x00000000	0.0
26	0x3f800000	1.0
27	0x44a00000	1280.0
28	0x00000000	0.0
29	0x44000000	512.0
30	0x00000000	0.0
31	0x44a00000	1280.0
32	0x43c00000	384.0
33	0x00000000	0.0
34	0x00000000	0.0
35	0x3f800000	1.0
36	0x44a00000	1280.0
37	0x00000000	0.0
38	0x44000000	512.0
39	0x00000000	0.0
40	0x44a00000	1280.0
41	0x43c00000	384.0
42	0x00000000	0.0
43	0x00000000	0.0
44	0x3f800000	1.0
45	0x44a00000	1280.0
46	0x00000000	0.0
47	0x44000000	512.0
48	0x00000000	0.0
49	0x44a00000	1280.0
50	0x43c00000	384.0
51	0x00000000	0.0
52	0x00000000	0.0
53	0x3f800000	1.0
54	0x44a00000	1280.0
55	0x00000000	0.0
56	0x44000000	512.0
57	0x00000000	0.0
58	0x44a00000	1280.0
59	0x43c00000	384.0
60	0x00000000	0.0
61	0x00000000	0.0
62	0x3f800000	1.0
63	0x44a00000	1280.0
64	0x00000000	0.0
65	0x44000000	512.0
66	0x00000000	0.0
67	0x44a00000	1280.0
68	0x43c00000	384.0
69	0x00000000	0.0
70	0x00000000	0.0
71	0x3f800000	1.0
72	0x44a00000	1280.0
73	0x00000000	0.0
74	0x44000000	512.0
75	0x00000000	0.0
76	0x44a00000	1280.0
77	0x43c00000	384.0
78	0x00000000	0.0
79	0x00000000	0.0
80	0x3f800000	1.0
81	0x44a00000	1280.0
82	0x00000000	0.0
83	0x44000000	512.0
84	0x00000000	0.0
85	0x44a00000	1280.0
86	0x43c00000	384.0
87	0x00000000	0.0
88	0x00000000	0.0
89	0x3f800000	1.0
90	0x44a00000	1280.0
91	0x00000000	0.0
92	0x44000000	512.0
93	0x00000000	0.0
94	0x44a00000	1280.0
95	0x43c00000	384.0
96	0x00000000	0.0
97	0x00000000	0.0
98	0x3f800000	1.0
99	0x44a00000	1280.0
100	0x00000000	0.0
101	0x44000000	512.0
102	0x00000000	0.0
103	0x44a00000	1280.0
104	0x43c00000	384.0
105	0x00000000	0.0
106	0x00000000	0.0
107	0x3f800000	1.0
108	0x44a00000	1280.0
109	0x00000000	0.0
110	0x44000000	512.0
111	0x00000000	0.0
112	0x44a00000	1280.0
113	0x43c00000	384.0
114	0x00000000	0.0
115	0x00000000	0.0
116	0x3f800000	1.0
117	0x44a00000	1280.0
118	0x00000000	0.0
119	0x44000000	512.0
120	0x00000000	0.0
121	0x44a00000	1280.0
122	0x43c00000	384.0
123	0x00000000	0.0
124	0x00000000	0.0
125	0x3f800000	1.0
126	0x44a00000	1280.0
127	0x00000000	0.0
128	0x44000000	512.0
129	0x00000000	0.0
130	0x44a00000	1280.0
131	0x43c00000	384.0
132	0x00000000	0.0
133	0x00000000	0.0
134	0x3f800000	1.0
135	0x44a00000	1280.0
136	0x00000000	0.0
137	0x44000000	512.0
138	0x00000000	0.0
139	0x44a00000	1280.0
140	0x43c00000	384.0
141	0x00000000	0.0
142	0x00000000	0.0
143	0x3f800000	1.0
144	0x44a00000	1280.0
145	0x00000000	0.0
146	0x44000000	512.0
147	0x00000000	0.0
148	0x44a00000	1280.0
149	0x43c00000	384.0
150	0x00000000	0.0
151	0x00000000	0.0
152	0x3f800000	1.0
153	0x44a00000	1280.0
154	0x00000000	0.0
155	0x44000000	512.0
156	0x00000000	0.0
157	0x44a00000	1280.0
158	0x43c00000	384.0
159	0x00000000	0.0
160	0x00000000	0.0
161	0x3f800000	1.0
162	0x44a00000	1280.0
163	0x00000000	0.0
164	0x44000000	512.0
165	0x00000000	0.0
166	0x44a00000	1280.0
167	0x43c00000	384.0
168	0x00000000	0.0
169	0x00000000	0.0
170	0x3f800000	1.0
171	0x44a00000	1280.0
172	0x00000000	0.0
173	0x44000000	512.0
174	0x00000000	0.0
175	0x44a00000	1280.0
176	0x43c00000	384.0
177	0x00000000	0.0
178	0x00000000	0.0
179	0x3f800000	1.0
180	0x44a00000	1280.0
181	0x00000000	0.0
182	0x44000000	512.0
183	0x00000000	0.0
184	0x44a00000	1280.0
185	0x43c00000	384.0
186	0x00000000	0.0
187	0x00000000	0.0
188	0x3f800000	1.0
189	0x44a00000	1280.0
190	0x00000000	0.0
191	0x44000000	512.0
192	0x00000000	0.0
193	0x44a00000	1280.0
194	0x43c00000	384.0
195	0x00000000	0.0
196	0x00000000	0.0
197	0x3f800000	1.0
198	0x44a00000	1280.0
199	0x00000000	0.0
200	0x44000000	512.0
201	0x00000000	0.0
202	0x44a00000	1280.0
203	0x43c00000	384.0
204	0x00000000	0.0
205	0x00000000	0.0
206	0x3f800000	1.0
207	0x44a00000	1280.0
208	0x00000000	0.0
209	0x44000000	512.0
210	0x00000000	0.0
211	0x44a00000	1280.0
212	0x43c00000	384.0
213	0x00000000	0.0
214	0x00000000	0.0
215	0x3f800000	1.0
216	0x44a00000	1280.0
217	0x00000000	0.0
218	0x44000000	512.0
219	0x00000000	0.0
220	0x44a00000	1280.0
221	0x43c00000	384.0
222	0x00000000	0.0
223	0x00000000	0.0
224	0x3f800000	1.0

pred_context f4 [1, 25, 512]
0	0xbfcac32c	-1.5840812
1	0xbeb9124e	-0.36146778
2	0xbdd024e7	-0.101632886
3	0x3e05e6dd	0.13076349
4	0x3fbba2cd	1.4659058
5	0xbf3afa62	-0.73038304
6	0xbed9ba61	-0.42525008
7	0xbfbfc4a2	-1.4981883
8	0x3c75c010	0.014999405
9	0x3ef1027b	0.47072205
10	0xbf6426ba	-0.8912159
11	0xc006f703	-2.1088264
12	0x3fae5468	1.3619509
13	0xbf8dbd66	-1.1073425
14	0xbf8ee4ac	-1.1163535
15	0x3ece3670	0.40275908
16	0xbf7fc7b2	-0.99914086
17	0xbebaaef6	-0.3646161
18	0xbfee0c01	-1.8597413
19	0xbead794c	-0.33881605
20	0xbf03062d	-0.511813
21	0xbe63acf5	-0.22233947
22	0xbef1ceda	-0.47228128
23	0xc00e37ce	-2.222156
24	0xbeac8f70	-0.33703184
25	0x3ea56d2c	0.32309854
26	0xbf162a62	-0.5865842
27	0x3f2c740b	0.6736457
28	0xbd892430	-0.06696355
29	0xbed4c14c	-0.41553724
30	0xbe77a031	-0.24182202
31	0xbf2e4088	-0.68067217
32	0xbfb25de2	-1.3934901
33	0x3f6abd90	0.916955
34	0xbed49bcc	-0.41525114
35	0x3cb48510	0.022036105
36	0x3eb42c12	0.35189873
37	0xbf9af18c	-1.2104964
38	0xc00fd0f0	-2.2471275
39	0xbf8e9963	-1.114056
40	0x3e8d5e82	0.27611166
41	0x3f02e7e9	0.51135117
42	0xbf3498fc	-0.70545936
43	0xc027830e	-2.617374
44	0x3d84eed8	0.06490868
45	0x3ee3c458	0.44485736
46	0xbe506511	-0.20351054
47	0x3f5355ae	0.8255261
48	0x3eaeff0c	0.3417896
49	0x3fba6932	1.4563353
50	0x3fcd4f07	1.6039742
51	0x3deab19f	0.1145966
52	0x3fe81047	1.8129967
53	0xbf01d5a6	-0.50716627
54	0x3e6a5e9c	0.22887653
55	0x3ee69a84	0.4503976
56	0xbf0a50f3	-0.5402977
57	0x3f86fd97	1.054614
58	0x3e4c7d75	0.19969733
59	0x3fd0cbd4	1.6312203
60	0xbc5cba82	-0.013472201
61	0xbfc727dc	-1.5559039
62	0x3fb2c70e	1.3966997
63	0xbe37064a	-0.17873493
64	0x3f6f7619	0.9353958
65	0x3dd09a0b	0.10185631
66	0xbf114596	-0.56746805
67	0xbeb76cb1	-0.35825112
68	0xbf230cf0	-0.63691616
69	0x3dcca1fd	0.09991834
70	0x3ec34068	0.38135076
71	0x3f13decd	0.5776184
72	0x4008b311	2.1359293
73	0xbed43a65	-0.41450801
74	0x3eecbb7a	0.46236783
75	0x3e99a1dc	0.300063
76	0x3fc4cd5a	1.5375168
77	0xbe397060	-0.18109274
78	0x3f06ecd7	0.5270514
79	0xbf7e06b5	-0.99228984
80	0xbe22e642	-0.15908149
81	0xc0186db1	-2.381695
82	0xbe4856be	-0.1956434
83	0xbfa10102	-1.2578433
84	0x3ebf3689	0.37346295
85	0x3d35fc49	0.04443005
86	0xbef9d482	-0.48794943
87	0x3f15532c	0.58330035
88	0x3f824db5	1.0179964
89	0xbf810dc0	-1.0082321
90	0x3e72c191	0.23706652
91	0xbdb9987a	-0.09062286
92	0x3cc6f1dd	0.024285251
93	0xbe2bdd91	-0.1678374
94	0x3efbd43b	0.49185356
95	0x3dbabc48	0.09117943
96	0xbfbb06e5	-1.4611479
97	0xbf591bf8	-0.848083
98	0xbf224495	-0.633859
99	0x3f528292	0.82230484
100	0x3eb79f0e	0.35863537
101	0xbe56d18a	-0.2097837
102	0x3fbc8a65	1.4729735
103	0x3d10d77a	0.035361744
104	0x3e06e042	0.13171485
105	0x3e9ea999	0.30988768
106	0x3e9963ce	0.29958957
107	0x3e0ffc30	0.14061046
108	0xbf397d09	-0.72456414
109	0x3d3563c0	0.044284582
110	0xbf41496f	-0.75502676
111	0xbf10f65a	-0.566259
112	0x3fa11de7	1.258725
113	0x3f61e53f	0.88240427
114	0x3fa28bc4	1.2698903
115	0x3f286b92	0.6578914
116	0x40148827	2.32081
117	0xbe0c905e	-0.13726947
118	0xbfd92fe5	-1.6967741
119	0x3ee1a534	0.44071352
120	0xbe2adef2	-0.1668661
121	0x3f2434ec	0.6414325
122	0x3f5510c2	0.83228695
123	0xbee2da29	-0.44307068
124	0x3f171864	0.5902159
125	0xbf37dd67	-0.7182221
126	0x3ee56a55	0.44807687
127	0x3ec76dfb	0.38951096
128	0x3d1758a1	0.036949757
129	0x3e236b8f	0.15958999
130	0xbeb49854	-0.35272467
131	0xbe45c3b2	-0.19312933
132	0x3ec3954d	0.38199845
133	0xbfb78b41	-1.4339372
134	0x401bf167	2.436609
135	0x3f7b96a6	0.98276746
136	0x3e6c89a7	0.23099385
137	0x3ef5edc0	0.4803295
138	0x3f68d030	0.9094267
139	0x40003b36	2.003614
140	0xbf1980ad	-0.5996197
141	0x3f408e2c	0.7521694
142	0x3e20c63c	0.1570062
143	0x3f34c58b	0.70613927
144	0x3f5d2ee0	0.8639965
145	0xbe279152	-0.16364029
146	0xc00e447a	-2.2229295
147	0xbec37e10	-0.38182116
148	0xbf9c9c17	-1.2235135
149	0xbff05aae	-1.8777673
150	0x3e778207	0.24170695
151	0x3ef48730	0.4775939
152	0xbfae44b7	-1.361472
153	0x3e425557	0.18977867
154	0x3e46cfc2	0.19415191
155	0xbf9a9c46	-1.2078941
156	0x3f0c3286	0.5476459
157	0xbfcc902d	-1.5981499
158	0xc009735c	-2.147666
159	0x3e85ad4e	0.26108783
160	0xbf7b4409	-0.9815069
161	0x3f1af446	0.6052898
162	0xbf5df386	-0.8669971
163	0xbf0720e5	-0.5278457
164	0x3ec3a386	0.38210696
165	0xbf9b68d5	-1.2141367
166	0x3bb45d70	0.0055043027
167	0xbf0220f5	-0.5083154
168	0xbfb22dd6	-1.3920238
169	0x3f7bad83	0.9831163
170	0xbf29cf79	-0.66332203
171	0xbf22b49f	-0.63556856
172	0xbf8063cc	-1.0030456
173	0xbfe283f8	-1.7696524
174	0xbe838822	-0.256898
175	0xbfa2781a	-1.2692902
176	0x3f6d1c8d	0.9262169
177	0xbe95e222	-0.29274088
178	0xbc063a30	-0.008192584
179	0xbf4088a6	-0.7520851
180	0xbf4b8961	-0.795065
181	0x3fa4ce57	1.287547
182	0x3fa3be10	1.2792377
183	0xbf7c93dd	-0.9866312
184	0xbed95e58	-0.4245479
185	0x3ff43cc7	1.9081048
186	0x3f3f0ce7	0.7462906
187	0x3fab0069	1.33595
188	0x3dcdabb2	0.10042514
189	0xbde823d3	-0.11334958
190	0x3fdf327c	1.7437282
191	0x3d88ecf0	0.06685817
192	0x3f48a608	0.78378344
193	0xbf631c52	-0.8871509
194	0xbeddf22c	-0.43348825
195	0xbe93387f	-0.2875404
196	0xbfa11384	-1.2584081
197	0xbef5e72e	-0.4802794
198	0xbefa8ff6	-0.48937958
199	0xbf139ff2	-0.5766593
200	0xbd9ebbc2	-0.07750656
201	0x3f916c0c	1.1361098
202	0x3fcd0589	1.6017314
203	0xbee6e974	-0.45099986
204	0xbe17746d	-0.14790507
205	0x3f1464ba	0.57966197
206	0x3fb4d322	1.4126933
207	0x3ebc1e9c	0.36742103
208	0xbf5e6729	-0.8687616
209	0x3ec19efe	0.37816614
210	0xbdc7660d	-0.097362615
211	0x3ec035e4	0.37541115
212	0xbede8b4c	-0.4346565
213	0xbedcbeb9	-0.4311426
214	0x3f4117ab	0.7542674
215	0xbf9353ea	-1.1509984
216	0xbe428bdc	-0.18998665
217	0xbf0c6c2a	-0.54852545
218	0xbde1f448	-0.11032921
219	0xbfabb4b9	-1.3414527
220	0x3eb9c6f7	0.3628461
221	0xbf147858	-0.5799613
222	0x3eaa7cd8	0.33298373
223	0x3f8d2e6a	1.102979
224	0xbf555aa7	-0.8334145
225	0xbff2a81d	-1.8957554
226	0xbcd88a38	-0.026433095
227	0xbf69e466	-0.91364133
228	0x3dd11edd	0.10210965
229	0x3fad0c59	1.3519393
230	0xbe4c93d0	-0.19978261
231	0xbf7b4dad	-0.981654
232	0xbf53f4a6	-0.8279518
233	0xbf0705f2	-0.52743447
234	0xbf563a42	-0.83682644
235	0xc034ed19	-2.8269713
236	0x3f01b8ae	0.50672424
237	0x3f84371f	1.0329322
238	0x3f13b42a	0.57696784
239	0xbf285d91	-0.6576777
240	0xbe3b4a70	-0.18290114
241	0xbf099d7d	-0.53755933
242	0xbfdda48e	-1.7315843
243	0x3fa1fc40	1.2655106
244	0x3fffd839	1.9987861
245	0xbf287b4c	-0.65813136
246	0xbe6e53f8	-0.23274219
247	0x3f99b366	1.2007873
248	0x3e0795a0	0.13240671
249	0xbf481369	-0.7815462
250	0x3eb9914f	0.36243674
251	0x3c78e7a0	0.015191942
252	0x3f4343b8	0.76275206
253	0x3ee2de2a	0.44310123
254	0x3e2d62b3	0.16932182
255	0xbf8911e3	-1.0708584

pred_x f4 [1, 25, 151]
0	0x3efd0f0c	0.49425542
1	0x3ed086c8	0.4072783
2	0x3e49c1c2	0.19702819
3	0xbed31448	-0.4122641
4	0x3f029d45	0.51021224
5	0xbf44a250	-0.7681017
6	0x3d6377fb	0.055534344
7	0x3e1aa88b	0.15103357
8	0xbf1c9425	-0.6116355
9	0xbd4818a1	-0.048851613
10	0x3eeffc0e	0.4687199
11	0xbf139efa	-0.57664454
12	0xbd2dfaa0	-0.042475343
13	0x3c1cbf00	0.009567022
14	0x3f84c620	1.0372963
15	0x3f0651ff	0.52468866
16	0x3ec703e3	0.38870153
17	0x3d96d9e8	0.07365781
18	0xbe28ccc8	-0.16484368
19	0xbf2e9b21	-0.6820546
20	0xbf51ca95	-0.8194974
21	0x3ee6bf0d	0.45067635
22	0x3ecb158f	0.39664885
23	0x3f045670	0.51694393
24	0x3d16b942	0.03679777
25	0x3ed30077	0.41211292
26	0xbd93cc1e	-0.07216667
27	0xbf04426e	-0.51663864
28	0x3efb6c22	0.49105936
29	0x3f3997d0	0.7249727
30	0x3e8af06e	0.27136558
31	0xbf37e4c8	-0.7183347
32	0x3f65ed7a	0.89815485
33	0x3f3db9eb	0.74111813
34	0x3de24e9f	0.11050152
35	0xbf346f8a	-0.70482695
36	0x3ed0a096	0.40747517
37	0x3f0b9ccd	0.54536134
38	0xbf0473ce	-0.51739204
39	0xbf17568e	-0.59116447
40	0x3e9fef1f	0.31237122
41	0xbd11398d	-0.035455275
42	0x3e39cc90	0.1814444
43	0xbec1c382	-0.37844473
44	0x3f051936	0.51991594
45	0x3e4d86bc	0.20070928
46	0x3e7aa644	0.24477488
47	0xbeeaa41c	-0.4582833
48	0xbeefc23c	-0.46827877
49	0xbf3637a3	-0.71178645
50	0x4002b8cb	2.0425289
51	0x3f32dce0	0.6986828
52	0x3eb6a647	0.35673735
53	0xbe87f69a	-0.2655533
54	0x3d708e42	0.058729418
55	0xbee3b78c	-0.44475973
56	0xbf1e2001	-0.61767584
57	0x3ed6f01b	0.4198006
58	0x3dc9f4e4	0.09861162
59	0xbe0d4eb7	-0.13799559
60	0x3e291260	0.16510916
61	0xbd23d037	-0.03999349
62	0x3e62400a	0.22094741
63	0x3dac61cf	0.08417093
64	0x3e1e3579	0.15450086
65	0x3e0f0002	0.13964847
66	0xbe4d305e	-0.20037982
67	0xbfb6336e	-1.4234445
68	0xbf99936b	-1.1998113
69	0x3fdda65c	1.7316394
70	0x3e2d1fb2	0.16906622
71	0x3f2b3c79	0.6688915
72	0xbf017f8a	-0.50585234
73	0xbf2898a9	-0.6585794
74	0xbfd7b81f	-1.6853064
75	0x3f4ffdb8	0.8124652
76	0x3f38e8e3	0.72230357
77	0x3fd34100	1.6504211
78	0xbfa6e5f1	-1.3038923
79	0x3f610755	0.8790181
80	0x400edc21	2.2321856
81	0xbf9392e0	-1.1529198
82	0x3f135578	0.5755229
83	0x3fe1bae5	1.7635161
84	0xbf322fa1	-0.69603926
85	0xbf3e8f5f	-0.74437517
86	0xbfba9845	-1.4577719
87	0x3f962914	1.1731286
88	0xbde3ff2a	-0.11132653
89	0x3ef9e2b0	0.4880576
90	0xbfdda89c	-1.731708
91	0x3f133306	0.5749973
92	0xbfd09bef	-1.6297587
93	0xbf1a4f00	-0.60276794
94	0xbf643107	-0.8913731
95	0x3f340ddd	0.70333654
96	0xbf60eb08	-0.8785863
97	0x3e307765	0.17233045
98	0x3fc985ea	1.5743992
99	0xbf21bdd5	-0.63180286
100	0x3f0bccce	0.5460938
101	0x3fd55216	1.6665676
102	0xbd6b5cb0	-0.05746144
103	0xbe34692e	-0.17618248
104	0xbf1092e7	-0.56474155
105	0xbf115bdf	-0.5678081
106	0xbc1d17f8	-0.009588234
107	0xbf102af2	-0.5631553
108	0x3f06f77b	0.52721375
109	0xbf1cefa9	-0.6130319
110	0xbf4580e3	-0.7714979
111	0x3eed9218	0.46400523
112	0xbeaafd00	-0.3339615
113	0x3f2a8904	0.6661532
114	0x3ea6d2e2	0.32582766
115	0x3e3ab638	0.18233573
116	0x3ee5b457	0.4486415
117	0xbe8015a4	-0.2501651
118	0x3e3c7ebd	0.18407722
119	0x3f0ebbcc	0.55755305
120	0x3e8bfe21	0.27342322
121	0xbef6f332	-0.48232418
122	0xbf983eca	-1.1894162
123	0x3f1e2aca	0.6178404
124	0xbe8785a9	-0.26469162
125	0x3e7d6d58	0.24748743
126	0x3e98e0da	0.29859048
127	0x3fe31af1	1.7742597
128	0x3e8ddcb8	0.27707458
129	0x3f2749e0	0.653471
130	0x3eb7c12d	0.3588957
131	0x3e706e72	0.23479632
132	0xbf15f1b6	-0.58571947
133	0xbf9f2198	-1.2432127
134	0xc025f217	-2.592901
135	0xbf49cfb3	-0.7883255
136	0x3fc5150e	1.539705
137	0x3e290f60	0.16509771
138	0x3f07f3cc	0.5310638
139	0xbebd5618	-0.36979747
140	0xbee1e682	-0.44121176
141	0x3f541387	0.82842296
142	0x3fd1705f	1.6362418
143	0xbd687454	-0.056751564
144	0x3f09d16a	0.53835166
145	0x3d3e0f83	0.046401512
146	0xbdb3a924	-0.087724954
147	0xbe57a4b0	-0.21058917
148	0xbc9e84f6	-0.01935051
149	0x3d959ad3	0.07304921
150	0xbefdc327	-0.49562952
151	0x3efd1903	0.49433145
152	0x3ed0a031	0.40747216
153	0x3e4a6ddf	0.19768475
154	0xbed310b6	-0.41223687
155	0x3f02ad68	0.51045847
156	0xbf44be5e	-0.7685298
157	0x3d6273f9	0.05528638
158	0x3e1b3928	0.15158522
159	0xbf1cabaf	-0.6119947
160	0xbd4961dc	-0.04916559
161	0x3ef00e40	0.46885872
162	0xbf13912b	-0.57643384
163	0xbd2b2917	-0.041787233
164	0x3c1cfe9a	0.009582186
165	0x3f84cf17	1.0375699
166	0x3f065d48	0.52486086
167	0x3ec6fd45	0.38865104
168	0x3d973a23	0.073841356
169	0xbe2825b7	-0.16420637
170	0xbf2e9687	-0.68198436
171	0xbf5199b6	-0.8187517
172	0x3ee6a8a3	0.45050535
173	0x3ecb1f85	0.39672485
174	0x3f045e6e	0.5170659
175	0x3d1722ec	0.03689854
176	0x3ed34ee7	0.41271135
177	0xbd93701a	-0.07199116
178	0xbf0478c7	-0.5174679
179	0x3efb6160	0.4909773
180	0x3f398d24	0.7248099
181	0x3e8b08b0	0.27155066
182	0xbf3812d6	-0.7190374
183	0x3f65f7b0	0.89831066
184	0x3f3dd3fd	0.74151593
185	0x3de232d8	0.11044854
186	0xbf34df3a	-0.70653117
187	0x3ed0c29f	0.40773484
188	0x3f0b9646	0.54526174
189	0xbf0477d3	-0.5174534
190	0xbf173184	-0.5905993
191	0x3ea02ed6	0.31285733
192	0xbd125b74	-0.035731748
193	0x3e3a1c31	0.18174817
194	0xbec1f378	-0.37881064
195	0x3f0535b2	0.5203506
196	0x3e4d1a16	0.20029482
197	0x3e7b5384	0.24543577
198	0xbeeb4844	-0.45953572
199	0xbeef80f1	-0.46778062
200	0xbf36285d	-0.7115534
201	0x4002bcdd	2.0427773
202	0x3f32ce7c	0.6984632
203	0x3eb6b1fc	0.35682666
204	0xbe87a86a	-0.26495677
205	0x3d705e4e	0.058683686
206	0xbee3c970	-0.44489622
207	0xbf1e0d77	-0.61739296
208	0x3ed7061b	0.41996846
209	0x3dca2f8c	0.0987235
210	0xbe0d36ff	-0.1379051
211	0x3e291c96	0.16514811
212	0xbd25159a	-0.040303804
213	0x3e61fc24	0.2206884
214	0x3dad02c7	0.08447795
215	0x3e1e406c	0.15454262
216	0x3e0f1c15	0.13975556
217	0xbe4e0322	-0.20118383
218	0xbfb62880	-1.423111
219	0xbf99a87a	-1.200454
220	0x3fdd851c	1.7306247
221	0x3e2c93a0	0.1685319
222	0x3f2af4aa	0.6677958
223	0xbf01a3ce	-0.5064057
224	0xbf28c092	-0.6591884
225	0xbfd7c2d4	-1.6856332
226	0x3f5022d1	0.81303126
227	0x3f38eab5	0.72233135
228	0x3fd3275d	1.6496388
229	0xbfa6f384	-1.3043065
230	0x3f613b4e	0.87981117
231	0x400ee51e	2.2327342
232	0xbf93a854	-1.1535745
233	0x3f135ee1	0.5756665
234	0x3fe1a8da	1.7629654
235	0xbf31ef4d	-0.6950577
236	0xbf3ea510	-0.74470615
237	0xbfba7df9	-1.4569694
238	0x3f963382	1.1734469
239	0xbde46eb2	-0.11153926
240	0x3efa4d10	0.4888692
241	0xbfddba39	-1.7322456
242	0x3f133fea	0.575194
243	0xbfd09d97	-1.6298093
244	0xbf1a4d46	-0.6027416
245	0xbf644b3e	-0.8917731
246	0x3f34310e	0.7038735
247	0xbf60eb51	-0.87859064
248	0x3e30e2a7	0.17273961
249	0x3fc986c0	1.5744247
250	0xbf21e5cc	-0.6324127
251	0x3f0be980	0.5465317
252	0x3fd55f64	1.6669736
253	0xbd6c9ba6	-0.057765625
254	0xbe342c10	-0.17594934
255	0xbf10cd1d	-0.5656298
