inputs/motion_bank/love1/hmr4d_results.pt (torch, 788351 bytes, 25 tensors)

body_pose f4 [180, 63]
-0.18461347 -0.047808927 -0.052190576 0.108496554 -0.034305394 -0.05206254 0.10212514 0.08959591
0.0026383393 0.16773398 -0.035417218 -0.04638074 0.7060996 0.100074574 0.048393693 -0.11034091
-0.027169406 -0.010244891 -0.09395782 0.23548655 0.108746946 0.13029891 -0.07610991 0.11146049
0.124022484 -0.010011323 0.024658438 -0.016101914 -0.024686856 0.04283875 -0.016420372 0.019101594
0.0297635 0.07552215 -0.0074204355 0.0032536748 0.04853175 0.058902547 -0.22487447 -0.07228702
0.07545032 0.13790722 -0.046985272 -0.04165484 0.0048686103 0.2439713 -0.037652276 -1.0012361
0.2621172 0.3156576 1.0190598 0.3796013 -0.20919989 -0.077275194 0.30068254 0.701291
-0.013199273 -0.12647948 -0.16100314 0.1451768 -0.16742441 0.15976669 -0.2620192 -0.13646217
-0.054937392 -0.07092272 0.0035912597 -0.018727656 -0.06817642 0.11453322 0.0658822 -0.0033595765
0.18927401 -0.051479515 -0.05133018 0.8876099 0.05733177 0.061954014 -0.11789706 -0.022239974
-0.011976779 -0.12185627 0.24919125 0.14566278 0.18618408 -0.09095018 0.11311877 0.124220826
-0.013993914 0.020231152 -0.014149451 -0.022486934 0.03857054 -0.013961894 0.01948727 0.026812233
0.08222215 -0.012290271 0.00027839557 0.037215084 0.048252326 -0.22826958 -0.06485835 0.07065613
0.14837916 -0.044274513 -0.032150496 0.0049837637 0.2409578 -0.08453653 -1.0187331 0.28646627
0.28976884 1.0342485 0.35383776 -0.2179357 -0.06877676 0.31383532 0.6569353 -0.0014101273
-0.14065376 -0.16453771 0.14738008 -0.13670954 0.15410751 -0.24344626 -0.079061195 -0.051305033
-0.083889045 -0.11029413 -0.0018177148 -0.07467911 0.13741362 0.03706178 -0.008793391 0.19633539
-0.08574303 -0.056252334 1.0517789 0.02860059 0.07626357 -0.12463505 -0.018005388 -0.011166905
-0.1505943 0.2628114 0.16618904 0.17207502 -0.10924115 0.08740069 0.12567905 -0.016995102
0.016433561 -0.012781721 -0.021218812 0.039859667 -0.010537313 0.019908225 0.02696689 0.0823083
-0.014464666 -0.0041428157 0.021877846 0.02495553 -0.22615516 -0.060516648 0.073674396 0.15745893
-0.04204901 -0.024370413 0.004964809 0.23293978 -0.14613828 -1.0388937 0.3010771 0.26613432
1.049442 0.33729103 -0.22561568 -0.060130414 0.3278076 0.59571695 0.012334676 -0.14418498
-0.16434641 0.15377536 -0.10394106 0.14759576 -0.22744569 -0.026331963 -0.041987058 -0.08869563
-0.2202859 0.014996017 -0.06960506 0.16509068 0.0058173058 -0.013065166 0.20014726 -0.12242279
-0.05663335 1.1664777 0.013475654 0.09466041 -0.12800631 -0.01534777 -0.006017753 -0.17042674
0.27462274 0.17142628 0.12886293 -0.11873715 0.059490982 0.12917215 -0.021399839 0.0130233755
-0.012796076 -0.020339929 0.041570924 -0.00830237 0.02106505 0.027903918 0.077736 -0.0071459846
-0.0062380247 0.005823129 -0.0018773485 -0.22614689 -0.05812862 0.07556365 0.1695981 -0.044410806
-0.019950006 0.0036680498 0.219269 -0.21150562 -1.0476809 0.30928135 0.24459097 1.0560632
0.3246579 -0.23938401 -0.05165432 0.346667 0.5277237 0.020939214 -0.13620411 -0.1568735
0.15600152 -0.0695643 0.13743702 -0.20862785 0.031140381 -0.032625273 -0.08354404 -0.3164181
00000000: 500b 3dbe 4bd3 43bd c9c5 55bd 7133 de3d
00000010: d083 0cbd 883f 55bd fc26 d13d 0f7e b73d
00000020: fde7 2c3b 75c2 2b3e a511 11bd bbf9 3dbd
00000030: f2c2 343f e6f3 cc3d 7738 463d 6afa e1bd
00000040: 6092 debc 30da 27bc f56c c0bd 6323 713e
00000050: b8b6 de3d 146d 053e 83df 9bbd 6645 e43d
00000060: 80ff fd3d 8806 24bc 7e00 ca3c 29e8 83bc
00000070: 173c cabc af77 2f3d 0484 86bc f27a 9c3c
00000080: 95d2 f33c 5bab 9a3d 2027 f3bb 9b3b 553b
00000090: 3ac9 463d cc43 713d 7e45 66be 380b 94bd
000000a0: b385 9a3d 8d37 0d3e a173 40bd 449e 2abd
000000b0: dd88 9f3b 9dd3 793e 4639 1abd 8128 80bf
000000c0: 3a34 863e df9d a13e 8d70 823f 1a5b c23e
000000d0: 7f38 56be 7542 9ebd 10f3 993e cf87 333f
000000e0: c341 58bc d683 01be 02de 24be 3aa9 143e
000000f0: 4e71 2bbe e199 233e 6127 86be bdbc 0bbe
00000100: 0806 61bd ee3f 91bd 575b 6b3b be6a 99bc
00000110: 14a0 8bbd 6590 ea3d 3fed 863d 572c 5cbb
00000120: 0cd1 413e 2fdc 52bd 983f 52bd 673a 633f
00000130: b8d4 6a3d 7ec3 7d3d 0474 f1bd 9b30 b6bc
00000140: 413a 44bc c88f f9bd fe2b 7f3e a028 153e
00000150: 0aa7 3e3e 1744 babd d0aa e73d 7d67 fe3d
00000160: bb46 65bc cdbb a53c 19d3 67bc 8536 b8bc
00000170: 24fc 1d3d 6ec0 64bc c4a3 9f3c 54a5 db3c
00000180: 1664 a83d 225d 49bc 9ff5 9139 d86e 183d
00000190: 3ba4 453d 80bf 69be 74d4 84bd 29b4 903d
000001a0: b5f0 173e 3159 35bd 3db0 03bd d74e a33b
000001b0: a4bd 763e 7d21 adbd d965 82bf b5ab 923e
000001c0: 955c 943e 4162 843f 392a b53e 892a 5fbe
000001d0: d4da 8cbd 06af a03e e92c 283f 05d4 b8ba
000001e0: 8a07 10be 937c 28be ceea 163e 96fd 0bbe
000001f0: 5cce 1d3e fa49 79be d6ea a1bd 3a25 52bd
00000200: 05ce abbd e4e1 e1bd 6340 eeba 5cf1 98bd
00000210: 28b6 0c3e 18ce 173d 2812 10bc 250c 493e
00000220: 0b9a afbd d968 66bd b1a0 863f c94b ea3c
00000230: 1330 9c3d a940 ffbd 0980 93bc 65f5 36bc
00000240: 6435 1abe 378f 863e 762d 2a3e 6f34 303e
00000250: d3b9 dfbd 22ff b23d 02b2 003e 5039 8bbc
00000260: ad9f 863c 6c6a 51bc 13d3 adbc e443 233d
00000270: b2a4 2cbc 9316 a33c abe9 dc3c 4191 a83d
00000280: 35fd 6cbc 75c0 87bb 2b39 b33c 8a6f cc3c
00000290: 3895 67be 4ee0 77bd 9ae2 963d ea3c 213e
000002a0: 953b 2cbd 76a4 c7bc d6af a23b c487 6e3e
000002b0: 46a5 15be 78fa 84bf c726 9a3e c242 883e
000002c0: 1e54 863f 69b1 ac3e cc07 67be 4f4b 76bd
000002d0: 66d6 a73e e880 183f 6217 4a3c 3aa5 13be
000002e0: 6d4a 28be 4a77 1d3e 0ddf d4bd 5823 173e
000002f0: 86e7 68be 21b6 d7bc 9ffa 2bbd 0ea6 b5bd
00000300: a192 61be dbb1 753c 198d 8ebd 880d 293e
00000310: 199f be3b 470f 56bc 67f3 4c3e cdb8 fabd
00000320: 5ff8 67bd 244f 953f fdc8 5c3c 51dd c13d
00000330: 1614 03be 3775 7bbc 9230 c5bb 5984 2ebe
00000340: 5a9b 8c3e 5f8a 2f3e a5f4 033e 772c f3bd
00000350: d1ac 733d b445 043e b74e afbc ff5f 553c
00000360: a2a6 51bc ec9f a6bc 4646 2a3d aa06 08bc
00000370: 9d90 ac3c c296 e43c 0d34 9f3d dd28 eabb
00000380: 5868 ccbb f2cf be3b 5d11 f6ba 0d93 67be
00000390: 4718 6ebd 1dc1 9a3d 20ab 2d3e 1be8 35bd
000003a0: 326e a3bc aa63 703b 0e88 603e ee94 58be
000003b0: 681a 86bf 205a 9e3e 0e76 7a3e 142d 873f
000003c0: 8f39 a63e 1521 75be 7b93 53bd 567e b13e
000003d0: e718 073f b788 ab3c 1779 0bbe 72a3 20be
000003e0: ddbe 1f3e ba77 8ebd 4abc 0c3e 8aa2 55be
000003f0: 1d1a ff3c 14a2 05bd 2319 abbd 8e01 a2be

betas f4 [180, 10]
0.5885254 -0.050824746 0.048311368 -0.66543126 -0.244685 -0.45147073 -0.18282445 -0.28195933
-0.28301942 0.024253845 0.5885254 -0.050824746 0.048311368 -0.66543126 -0.244685 -0.45147073
-0.18282445 -0.28195933 -0.28301942 0.024253845 0.5885254 -0.050824746 0.048311368 -0.66543126
-0.244685 -0.45147073 -0.18282445 -0.28195933 -0.28301942 0.024253845 0.5885254 -0.050824746
0.048311368 -0.66543126 -0.244685 -0.45147073 -0.18282445 -0.28195933 -0.28301942 0.024253845
0.5885254 -0.050824746 0.048311368 -0.66543126 -0.244685 -0.45147073 -0.18282445 -0.28195933
-0.28301942 0.024253845 0.5885254 -0.050824746 0.048311368 -0.66543126 -0.244685 -0.45147073
-0.18282445 -0.28195933 -0.28301942 0.024253845 0.5885254 -0.050824746 0.048311368 -0.66543126
-0.244685 -0.45147073 -0.18282445 -0.28195933 -0.28301942 0.024253845 0.5885254 -0.050824746
0.048311368 -0.66543126 -0.244685 -0.45147073 -0.18282445 -0.28195933 -0.28301942 0.024253845
0.5885254 -0.050824746 0.048311368 -0.66543126 -0.244685 -0.45147073 -0.18282445 -0.28195933
-0.28301942 0.024253845 0.5885254 -0.050824746 0.048311368 -0.66543126 -0.244685 -0.45147073
-0.18282445 -0.28195933 -0.28301942 0.024253845 0.5885254 -0.050824746 0.048311368 -0.66543126
-0.244685 -0.45147073 -0.18282445 -0.28195933 -0.28301942 0.024253845 0.5885254 -0.050824746
0.048311368 -0.66543126 -0.244685 -0.45147073 -0.18282445 -0.28195933 -0.28301942 0.024253845
0.5885254 -0.050824746 0.048311368 -0.66543126 -0.244685 -0.45147073 -0.18282445 -0.28195933
-0.28301942 0.024253845 0.5885254 -0.050824746 0.048311368 -0.66543126 -0.244685 -0.45147073
-0.18282445 -0.28195933 -0.28301942 0.024253845 0.5885254 -0.050824746 0.048311368 -0.66543126
-0.244685 -0.45147073 -0.18282445 -0.28195933 -0.28301942 0.024253845 0.5885254 -0.050824746
0.048311368 -0.66543126 -0.244685 -0.45147073 -0.18282445 -0.28195933 -0.28301942 0.024253845
0.5885254 -0.050824746 0.048311368 -0.66543126 -0.244685 -0.45147073 -0.18282445 -0.28195933
-0.28301942 0.024253845 0.5885254 -0.050824746 0.048311368 -0.66543126 -0.244685 -0.45147073
-0.18282445 -0.28195933 -0.28301942 0.024253845 0.5885254 -0.050824746 0.048311368 -0.66543126
-0.244685 -0.45147073 -0.18282445 -0.28195933 -0.28301942 0.024253845 0.5885254 -0.050824746
0.048311368 -0.66543126 -0.244685 -0.45147073 -0.18282445 -0.28195933 -0.28301942 0.024253845
0.5885254 -0.050824746 0.048311368 -0.66543126 -0.244685 -0.45147073 -0.18282445 -0.28195933
-0.28301942 0.024253845 0.5885254 -0.050824746 0.048311368 -0.66543126 -0.244685 -0.45147073
-0.18282445 -0.28195933 -0.28301942 0.024253845 0.5885254 -0.050824746 0.048311368 -0.66543126
-0.244685 -0.45147073 -0.18282445 -0.28195933 -0.28301942 0.024253845 0.5885254 -0.050824746
0.048311368 -0.66543126 -0.244685 -0.45147073 -0.18282445 -0.28195933 -0.28301942 0.024253845
0.5885254 -0.050824746 0.048311368 -0.66543126 -0.244685 -0.45147073 -0.18282445 -0.28195933
-0.28301942 0.024253845 0.5885254 -0.050824746 0.048311368 -0.66543126 -0.244685 -0.45147073
00000000: 9aa9 163f 9c2d 50bd 24e2 453d b459 2abf
00000010: b48e 7abe 2c27 e7be 5536 3bbe f95c 90be
00000020: ece7 90be 00b0 c63c 9aa9 163f 9c2d 50bd
00000030: 24e2 453d b459 2abf b48e 7abe 2c27 e7be
00000040: 5536 3bbe f95c 90be ece7 90be 00b0 c63c
00000050: 9aa9 163f 9c2d 50bd 24e2 453d b459 2abf
00000060: b48e 7abe 2c27 e7be 5536 3bbe f95c 90be
00000070: ece7 90be 00b0 c63c 9aa9 163f 9c2d 50bd
00000080: 24e2 453d b459 2abf b48e 7abe 2c27 e7be
00000090: 5536 3bbe f95c 90be ece7 90be 00b0 c63c
000000a0: 9aa9 163f 9c2d 50bd 24e2 453d b459 2abf
000000b0: b48e 7abe 2c27 e7be 5536 3bbe f95c 90be
000000c0: ece7 90be 00b0 c63c 9aa9 163f 9c2d 50bd
000000d0: 24e2 453d b459 2abf b48e 7abe 2c27 e7be
000000e0: 5536 3bbe f95c 90be ece7 90be 00b0 c63c
000000f0: 9aa9 163f 9c2d 50bd 24e2 453d b459 2abf
00000100: b48e 7abe 2c27 e7be 5536 3bbe f95c 90be
00000110: ece7 90be 00b0 c63c 9aa9 163f 9c2d 50bd
00000120: 24e2 453d b459 2abf b48e 7abe 2c27 e7be
00000130: 5536 3bbe f95c 90be ece7 90be 00b0 c63c
00000140: 9aa9 163f 9c2d 50bd 24e2 453d b459 2abf
00000150: b48e 7abe 2c27 e7be 5536 3bbe f95c 90be
00000160: ece7 90be 00b0 c63c 9aa9 163f 9c2d 50bd
00000170: 24e2 453d b459 2abf b48e 7abe 2c27 e7be
00000180: 5536 3bbe f95c 90be ece7 90be 00b0 c63c
00000190: 9aa9 163f 9c2d 50bd 24e2 453d b459 2abf
000001a0: b48e 7abe 2c27 e7be 5536 3bbe f95c 90be
000001b0: ece7 90be 00b0 c63c 9aa9 163f 9c2d 50bd
000001c0: 24e2 453d b459 2abf b48e 7abe 2c27 e7be
000001d0: 5536 3bbe f95c 90be ece7 90be 00b0 c63c
000001e0: 9aa9 163f 9c2d 50bd 24e2 453d b459 2abf
000001f0: b48e 7abe 2c27 e7be 5536 3bbe f95c 90be
00000200: ece7 90be 00b0 c63c 9aa9 163f 9c2d 50bd
00000210: 24e2 453d b459 2abf b48e 7abe 2c27 e7be
00000220: 5536 3bbe f95c 90be ece7 90be 00b0 c63c
00000230: 9aa9 163f 9c2d 50bd 24e2 453d b459 2abf
00000240: b48e 7abe 2c27 e7be 5536 3bbe f95c 90be
00000250: ece7 90be 00b0 c63c 9aa9 163f 9c2d 50bd
00000260: 24e2 453d b459 2abf b48e 7abe 2c27 e7be
00000270: 5536 3bbe f95c 90be ece7 90be 00b0 c63c
00000280: 9aa9 163f 9c2d 50bd 24e2 453d b459 2abf
00000290: b48e 7abe 2c27 e7be 5536 3bbe f95c 90be
000002a0: ece7 90be 00b0 c63c 9aa9 163f 9c2d 50bd
000002b0: 24e2 453d b459 2abf b48e 7abe 2c27 e7be
000002c0: 5536 3bbe f95c 90be ece7 90be 00b0 c63c
000002d0: 9aa9 163f 9c2d 50bd 24e2 453d b459 2abf
000002e0: b48e 7abe 2c27 e7be 5536 3bbe f95c 90be
000002f0: ece7 90be 00b0 c63c 9aa9 163f 9c2d 50bd
00000300: 24e2 453d b459 2abf b48e 7abe 2c27 e7be
00000310: 5536 3bbe f95c 90be ece7 90be 00b0 c63c
00000320: 9aa9 163f 9c2d 50bd 24e2 453d b459 2abf
00000330: b48e 7abe 2c27 e7be 5536 3bbe f95c 90be
00000340: ece7 90be 00b0 c63c 9aa9 163f 9c2d 50bd
00000350: 24e2 453d b459 2abf b48e 7abe 2c27 e7be
00000360: 5536 3bbe f95c 90be ece7 90be 00b0 c63c
00000370: 9aa9 163f 9c2d 50bd 24e2 453d b459 2abf
00000380: b48e 7abe 2c27 e7be 5536 3bbe f95c 90be
00000390: ece7 90be 00b0 c63c 9aa9 163f 9c2d 50bd
000003a0: 24e2 453d b459 2abf b48e 7abe 2c27 e7be
000003b0: 5536 3bbe f95c 90be ece7 90be 00b0 c63c
000003c0: 9aa9 163f 9c2d 50bd 24e2 453d b459 2abf
000003d0: b48e 7abe 2c27 e7be 5536 3bbe f95c 90be
000003e0: ece7 90be 00b0 c63c 9aa9 163f 9c2d 50bd
000003f0: 24e2 453d b459 2abf b48e 7abe 2c27 e7be

global_orient f4 [180, 3]
0.053556897 3.0701323 0.043705005 0.06361477 3.0796075 0.07151134 0.06704588 3.0885973
0.11208011 0.0622706 3.0986755 0.15248717 0.047939386 3.1112976 0.18363783 0.020852398
3.1315756 0.21161993 0.004707848 -3.116711 -0.2217071 0.01946059 -3.095135 -0.22424228
0.025512641 -3.0777478 -0.22183272 0.025232328 -3.0604298 -0.22093852 0.019511577 -3.04783
-0.21467254 0.010129195 -3.0376806 -0.2019493 0.007305969 -3.0299525 -0.18242587 0.0023589644
-3.0251045 -0.14981987 0.0036662512 -3.022287 -0.12096274 0.010547773 -3.0213914 -0.097226806
0.013054396 -3.0219667 -0.08183749 0.02119318 -3.0300832 -0.07990347 0.027282855 -3.040061
-0.08500668 0.030709296 -3.0541475 -0.0977925 0.032498583 -3.0693796 -0.11305625 0.022748915
-3.0909286 -0.13223937 0.00802597 -3.112226 -0.14844863 0.008367597 3.1361125 0.15166277
0.024367366 3.1087618 0.14834403 0.032794137 3.0798793 0.13823356 0.037305694 3.0479205
0.12655386 0.03648326 3.0221493 0.122309536 0.022669148 3.001528 0.11758145 0.010539783
2.990671 0.10883611 0.0014507324 2.9808884 0.10282591 -0.0018322113 2.9765344 0.091284834
0.0045675742 2.9775205 0.07515911 0.0162508 2.9857612 0.059069946 0.036407284 2.9971993
0.06052717 0.051658608 3.012906 0.078733936 0.061470207 3.032785 0.10732609 0.0653882
3.0528524 0.14460579 0.062066287 3.071789 0.17516963 0.051039502 3.098972 0.213595
0.029662143 3.1260428 0.24150485 -0.005689673 -3.1105335 -0.25358972 0.004708592 -3.080373
-0.2444642 0.0008572081 -3.0553417 -0.23905236 -0.00696659 -3.032171 -0.23630151 -0.021436669
-3.0175073 -0.2329773 -0.02992532 -3.005162 -0.22224514 -0.03624743 -3.000409 -0.19851854
-0.03518072 -2.999763 -0.1743642 -0.029319718 -2.9986565 -0.15591411 -0.024128586 -3.0044522
-0.13770086 -0.017508278 -3.0155032 -0.1307949 -0.0032484154 -3.025893 -0.12829573 0.0049531152
-3.0400589 -0.13645095 0.0052941157 -3.057918 -0.14515135 0.0005251686 -3.076246 -0.15879905
-0.013910201 -3.0969281 -0.1704689 -0.029162567 -3.115972 -0.17642705 0.04357272 3.1355605
0.177019 0.05291106 3.1144962 0.17236392 0.048878383 3.0908463 0.158703 0.039579608
3.0732965 0.13924374 0.027495895 3.059757 0.11923603 0.014003366 3.052718 0.104060456
0.0031662353 3.044318 0.10059359 -0.009214052 3.0413024 0.1001921 -0.013161635 3.0415616
0.09590464 -0.010697813 3.0433242 0.08661868 -0.0028346537 3.0467372 0.08176747 0.0066099144
3.0569508 0.08745138 0.01674185 3.0626287 0.09986038 0.023129337 3.066513 0.12140733
0.02043898 3.0682795 0.14668567 0.012755141 3.0689156 0.16296206 0.002740277 3.071696
0.17358357 -0.006320673 3.0776007 0.1774519 -0.009125695 3.083459 0.16799805 -0.0062473663
3.0897908 0.16227719 -0.00035738215 3.0955923 0.16054852 0.0058132242 3.0992684 0.16697067
0.009072479 3.1025116 0.17264701 0.010497951 3.1035144 0.17545891 0.008924844 3.102257
0.17766611 0.011135681 3.1033165 0.17669597 0.014414595 3.1043901 0.17615555 0.014783367
00000000: 7a5e 5b3d 0c7d 4440 0504 333d 7648 823d
00000010: 4a18 4540 8a74 923d 5a4f 893d 94ab 4540
00000020: 428a e53d 750f 7f3d b350 4640 9925 1c3e
00000030: 175c 443d 801f 4740 8e0b 3c3e a6d2 aa3c
00000040: bc6b 4840 e5b2 583e 4b44 9a3b 3178 47c0
00000050: 3007 63be d16b 9f3c b116 46c0 c59f 65be
00000060: e3ff d03c d2f9 44c0 1e28 63be 07b4 ce3c
00000070: 15de 43c0 b53d 62be bed6 9f3c a60f 43c0
00000080: 1ed3 5bbe ecf4 253c 5c69 42c0 cccb 4ebe
00000090: e966 ef3b beea 41c0 d9cd 3abe db98 1a3b
000000a0: 509b 41c0 616a 19be 7d45 703b 266d 41c0
000000b0: 50bb f7bd 91d0 2c3c 7a5e 41c0 d91e c7bd
000000c0: 1be2 553c e767 41c0 6a9a a7bd 529d ad3c
000000d0: e2ec 41c0 6ea4 a3bd 4b80 df3c 5c90 42c0
000000e0: fb17 aebd 1092 fb3c 2777 43c0 6f47 c8bd
000000f0: 3c1d 053d b770 44c0 098a e7bd ef5b ba3c
00000100: c6d1 45c0 c269 07be 5c7f 033c b62e 47c0
00000110: eb02 18be 3f18 093c 11b6 4840 7c4d 1b3e
00000120: 129e c73c f4f5 4640 7fe7 173e 2553 063d
00000130: be1c 4540 198d 0d3e dbcd 183d 2111 4340
00000140: 5697 013e 796f 153d e56a 4140 6c7d fa3d
00000150: a6b4 b93c 0919 4040 8bce f03d 0eaf 2c3c
00000160: 2767 3f40 77e5 de3d 8026 be3a e0c6 3e40
00000170: 6496 d23d cf26 f0ba 8a7f 3e40 8bf3 ba3d
00000180: 97ab 953b b28f 3e40 05ed 993d 6620 853c
00000190: b616 3f40 54f3 713d ce1f 153d 1dd2 3f40
000001a0: 56eb 773d fa97 533d 74d3 4040 423f a13d
000001b0: 2fc8 7b3d 2619 4240 c8cd db3d 40ea 853d
000001c0: ef61 4340 8a13 143e 3839 7e3d 3198 4440
000001d0: ab5f 333e cc0e 513d 8f55 4640 a6b8 5a3e
000001e0: 06fe f23c 1611 4840 0c4d 773e 7070 babb
000001f0: fb12 47c0 83d6 81be 884a 9a3b d524 45c0
00000200: d354 7abe 43b6 603a b88a 43c0 24ca 74be
00000210: fe47 e4bb 170f 42c0 06f9 71be f49b afbc
00000220: d71e 41c0 9a91 6ebe f225 f5bc 9354 40c0
00000230: 3b94 63be 2f78 14bd b306 40c0 7248 4bbe
00000240: a919 10bd 1efc 3fc0 878c 32be e82f f0bc
00000250: fde9 3fc0 f3a7 1fbe 50a9 c5bc f248 40c0
00000260: 7401 0dbe 856d 8fbc 01fe 40c0 19ef 05be
00000270: 5ee3 54bb 3ba8 41c0 f55f 03be be4d a23b
00000280: 5390 42c0 ccb9 0bbe 437a ad3b eeb4 43c0
00000290: 8ea2 14be 78ab 093a 37e1 44c0 389c 22be
000002a0: 9de7 63bc 1234 46c0 668f 2ebe 56e6 eebc
000002b0: 166c 47c0 4ba9 34be 4f79 323d 06ad 4840
000002c0: 7844 353e 45b9 583d e853 4740 2b80 303e
000002d0: b334 483d 6dd0 4540 0a83 223e 3a1e 223d
000002e0: e4b0 4440 e995 0e3e 123f e13c 0fd3 4340
000002f0: 0532 f43d 606e 653c bb5f 4340 a61d d53d
00000300: 9d80 4f3b 1bd6 4240 0304 ce3d 89f6 16bc
00000310: b3a4 4240 8431 cd3d e6a3 57bc f2a8 4240
00000320: a769 c43d e145 2fbc d3c5 4240 2265 b13d
00000330: 99c5 39bb befd 4240 b475 a73d fb97 d83b
00000340: 15a5 4340 b619 b33d 3426 893c 1c02 4440
00000350: 9983 cc3d bc79 bd3c c041 4440 68a4 f83d
00000360: a66f a73c b15e 4440 c534 163e f0fa 503c
00000370: 1d69 4440 87df 263e 3896 333b ab96 4440
00000380: e4bf 313e a61d cfbb 69f7 4440 f3b5 353e
00000390: f083 15bc 6457 4540 ae07 2c3e b5b6 ccbb
000003a0: 22bf 4540 fe2b 263e 055f bbb9 2f1e 4640
000003b0: d566 243e dc7c be3b 6a5a 4640 5cfa 2a3e
000003c0: bca4 143c 8d8f 4640 61ca 303e 99ff 2b3c
000003d0: fb9f 4640 80ab 333e 8239 123c 618b 4640
000003e0: 1bee 353e 6e72 363c bd9c 4640 caef 343e
000003f0: 322b 6c3c 54ae 4640 1f62 343e ef35 723c

body_pose f4 [180, 63]
-0.18461347 -0.047808927 -0.052190576 0.108496554 -0.034305394 -0.05206254 0.10212514 0.08959591
0.0026383393 0.16773398 -0.035417218 -0.04638074 0.7060996 0.100074574 0.048393693 -0.11034091
-0.027169406 -0.010244891 -0.09395782 0.23548655 0.108746946 0.13029891 -0.07610991 0.11146049
0.124022484 -0.010011323 0.024658438 -0.016101914 -0.024686856 0.04283875 -0.016420372 0.019101594
0.0297635 0.07552215 -0.0074204355 0.0032536748 0.04853175 0.058902547 -0.22487447 -0.07228702
0.07545032 0.13790722 -0.046985272 -0.04165484 0.0048686103 0.2439713 -0.037652276 -1.0012361
0.2621172 0.3156576 1.0190598 0.3796013 -0.20919989 -0.077275194 0.30068254 0.701291
-0.013199273 -0.12647948 -0.16100314 0.1451768 -0.16742441 0.15976669 -0.2620192 -0.13646217
-0.054937392 -0.07092272 0.0035912597 -0.018727656 -0.06817642 0.11453322 0.0658822 -0.0033595765
0.18927401 -0.051479515 -0.05133018 0.8876099 0.05733177 0.061954014 -0.11789706 -0.022239974
-0.011976779 -0.12185627 0.24919125 0.14566278 0.18618408 -0.09095018 0.11311877 0.124220826
-0.013993914 0.020231152 -0.014149451 -0.022486934 0.03857054 -0.013961894 0.01948727 0.026812233
0.08222215 -0.012290271 0.00027839557 0.037215084 0.048252326 -0.22826958 -0.06485835 0.07065613
0.14837916 -0.044274513 -0.032150496 0.0049837637 0.2409578 -0.08453653 -1.0187331 0.28646627
0.28976884 1.0342485 0.35383776 -0.2179357 -0.06877676 0.31383532 0.6569353 -0.0014101273
-0.14065376 -0.16453771 0.14738008 -0.13670954 0.15410751 -0.24344626 -0.079061195 -0.051305033
-0.083889045 -0.11029413 -0.0018177148 -0.07467911 0.13741362 0.03706178 -0.008793391 0.19633539
-0.08574303 -0.056252334 1.0517789 0.02860059 0.07626357 -0.12463505 -0.018005388 -0.011166905
-0.1505943 0.2628114 0.16618904 0.17207502 -0.10924115 0.08740069 0.12567905 -0.016995102
0.016433561 -0.012781721 -0.021218812 0.039859667 -0.010537313 0.019908225 0.02696689 0.0823083
-0.014464666 -0.0041428157 0.021877846 0.02495553 -0.22615516 -0.060516648 0.073674396 0.15745893
-0.04204901 -0.024370413 0.004964809 0.23293978 -0.14613828 -1.0388937 0.3010771 0.26613432
1.049442 0.33729103 -0.22561568 -0.060130414 0.3278076 0.59571695 0.012334676 -0.14418498
-0.16434641 0.15377536 -0.10394106 0.14759576 -0.22744569 -0.026331963 -0.041987058 -0.08869563
-0.2202859 0.014996017 -0.06960506 0.16509068 0.0058173058 -0.013065166 0.20014726 -0.12242279
-0.05663335 1.1664777 0.013475654 0.09466041 -0.12800631 -0.01534777 -0.006017753 -0.17042674
0.27462274 0.17142628 0.12886293 -0.11873715 0.059490982 0.12917215 -0.021399839 0.0130233755
-0.012796076 -0.020339929 0.041570924 -0.00830237 0.02106505 0.027903918 0.077736 -0.0071459846
-0.0062380247 0.005823129 -0.0018773485 -0.22614689 -0.05812862 0.07556365 0.1695981 -0.044410806
-0.019950006 0.0036680498 0.219269 -0.21150562 -1.0476809 0.30928135 0.24459097 1.0560632
0.3246579 -0.23938401 -0.05165432 0.346667 0.5277237 0.020939214 -0.13620411 -0.1568735
0.15600152 -0.0695643 0.13743702 -0.20862785 0.031140381 -0.032625273 -0.08354404 -0.3164181
00000000: 500b 3dbe 4bd3 43bd c9c5 55bd 7133 de3d
00000010: d083 0cbd 883f 55bd fc26 d13d 0f7e b73d
00000020: fde7 2c3b 75c2 2b3e a511 11bd bbf9 3dbd
00000030: f2c2 343f e6f3 cc3d 7738 463d 6afa e1bd
00000040: 6092 debc 30da 27bc f56c c0bd 6323 713e
00000050: b8b6 de3d 146d 053e 83df 9bbd 6645 e43d
00000060: 80ff fd3d 8806 24bc 7e00 ca3c 29e8 83bc
00000070: 173c cabc af77 2f3d 0484 86bc f27a 9c3c
00000080: 95d2 f33c 5bab 9a3d 2027 f3bb 9b3b 553b
00000090: 3ac9 463d cc43 713d 7e45 66be 380b 94bd
000000a0: b385 9a3d 8d37 0d3e a173 40bd 449e 2abd
000000b0: dd88 9f3b 9dd3 793e 4639 1abd 8128 80bf
000000c0: 3a34 863e df9d a13e 8d70 823f 1a5b c23e
000000d0: 7f38 56be 7542 9ebd 10f3 993e cf87 333f
000000e0: c341 58bc d683 01be 02de 24be 3aa9 143e
000000f0: 4e71 2bbe e199 233e 6127 86be bdbc 0bbe
00000100: 0806 61bd ee3f 91bd 575b 6b3b be6a 99bc
00000110: 14a0 8bbd 6590 ea3d 3fed 863d 572c 5cbb
00000120: 0cd1 413e 2fdc 52bd 983f 52bd 673a 633f
00000130: b8d4 6a3d 7ec3 7d3d 0474 f1bd 9b30 b6bc
00000140: 413a 44bc c88f f9bd fe2b 7f3e a028 153e
00000150: 0aa7 3e3e 1744 babd d0aa e73d 7d67 fe3d
00000160: bb46 65bc cdbb a53c 19d3 67bc 8536 b8bc
00000170: 24fc 1d3d 6ec0 64bc c4a3 9f3c 54a5 db3c
00000180: 1664 a83d 225d 49bc 9ff5 9139 d86e 183d
00000190: 3ba4 453d 80bf 69be 74d4 84bd 29b4 903d
000001a0: b5f0 173e 3159 35bd 3db0 03bd d74e a33b
000001b0: a4bd 763e 7d21 adbd d965 82bf b5ab 923e
000001c0: 955c 943e 4162 843f 392a b53e 892a 5fbe
000001d0: d4da 8cbd 06af a03e e92c 283f 05d4 b8ba
000001e0: 8a07 10be 937c 28be ceea 163e 96fd 0bbe
000001f0: 5cce 1d3e fa49 79be d6ea a1bd 3a25 52bd
00000200: 05ce abbd e4e1 e1bd 6340 eeba 5cf1 98bd
00000210: 28b6 0c3e 18ce 173d 2812 10bc 250c 493e
00000220: 0b9a afbd d968 66bd b1a0 863f c94b ea3c
00000230: 1330 9c3d a940 ffbd 0980 93bc 65f5 36bc
00000240: 6435 1abe 378f 863e 762d 2a3e 6f34 303e
00000250: d3b9 dfbd 22ff b23d 02b2 003e 5039 8bbc
00000260: ad9f 863c 6c6a 51bc 13d3 adbc e443 233d
00000270: b2a4 2cbc 9316 a33c abe9 dc3c 4191 a83d
00000280: 35fd 6cbc 75c0 87bb 2b39 b33c 8a6f cc3c
00000290: 3895 67be 4ee0 77bd 9ae2 963d ea3c 213e
000002a0: 953b 2cbd 76a4 c7bc d6af a23b c487 6e3e
000002b0: 46a5 15be 78fa 84bf c726 9a3e c242 883e
000002c0: 1e54 863f 69b1 ac3e cc07 67be 4f4b 76bd
000002d0: 66d6 a73e e880 183f 6217 4a3c 3aa5 13be
000002e0: 6d4a 28be 4a77 1d3e 0ddf d4bd 5823 173e
000002f0: 86e7 68be 21b6 d7bc 9ffa 2bbd 0ea6 b5bd
00000300: a192 61be dbb1 753c 198d 8ebd 880d 293e
00000310: 199f be3b 470f 56bc 67f3 4c3e cdb8 fabd
00000320: 5ff8 67bd 244f 953f fdc8 5c3c 51dd c13d
00000330: 1614 03be 3775 7bbc 9230 c5bb 5984 2ebe
00000340: 5a9b 8c3e 5f8a 2f3e a5f4 033e 772c f3bd
00000350: d1ac 733d b445 043e b74e afbc ff5f 553c
00000360: a2a6 51bc ec9f a6bc 4646 2a3d aa06 08bc
00000370: 9d90 ac3c c296 e43c 0d34 9f3d dd28 eabb
00000380: 5868 ccbb f2cf be3b 5d11 f6ba 0d93 67be
00000390: 4718 6ebd 1dc1 9a3d 20ab 2d3e 1be8 35bd
000003a0: 326e a3bc aa63 703b 0e88 603e ee94 58be
000003b0: 681a 86bf 205a 9e3e 0e76 7a3e 142d 873f
000003c0: 8f39 a63e 1521 75be 7b93 53bd 567e b13e
000003d0: e718 073f b788 ab3c 1779 0bbe 72a3 20be
000003e0: ddbe 1f3e ba77 8ebd 4abc 0c3e 8aa2 55be
000003f0: 1d1a ff3c 14a2 05bd 2319 abbd 8e01 a2be

betas f4 [180, 10]
0.5885254 -0.050824746 0.048311368 -0.66543126 -0.244685 -0.45147073 -0.18282445 -0.28195933
-0.28301942 0.024253845 0.5885254 -0.050824746 0.048311368 -0.66543126 -0.244685 -0.45147073
-0.18282445 -0.28195933 -0.28301942 0.024253845 0.5885254 -0.050824746 0.048311368 -0.66543126
-0.244685 -0.45147073 -0.18282445 -0.28195933 -0.28301942 0.024253845 0.5885254 -0.050824746
0.048311368 -0.66543126 -0.244685 -0.45147073 -0.18282445 -0.28195933 -0.28301942 0.024253845
0.5885254 -0.050824746 0.048311368 -0.66543126 -0.244685 -0.45147073 -0.18282445 -0.28195933
-0.28301942 0.024253845 0.5885254 -0.050824746 0.048311368 -0.66543126 -0.244685 -0.45147073
-0.18282445 -0.28195933 -0.28301942 0.024253845 0.5885254 -0.050824746 0.048311368 -0.66543126
-0.244685 -0.45147073 -0.18282445 -0.28195933 -0.28301942 0.024253845 0.5885254 -0.050824746
0.048311368 -0.66543126 -0.244685 -0.45147073 -0.18282445 -0.28195933 -0.28301942 0.024253845
0.5885254 -0.050824746 0.048311368 -0.66543126 -0.244685 -0.45147073 -0.18282445 -0.28195933
-0.28301942 0.024253845 0.5885254 -0.050824746 0.048311368 -0.66543126 -0.244685 -0.45147073
-0.18282445 -0.28195933 -0.28301942 0.024253845 0.5885254 -0.050824746 0.048311368 -0.66543126
-0.244685 -0.45147073 -0.18282445 -0.28195933 -0.28301942 0.024253845 0.5885254 -0.050824746
0.048311368 -0.66543126 -0.244685 -0.45147073 -0.18282445 -0.28195933 -0.28301942 0.024253845
0.5885254 -0.050824746 0.048311368 -0.66543126 -0.244685 -0.45147073 -0.18282445 -0.28195933
-0.28301942 0.024253845 0.5885254 -0.050824746 0.048311368 -0.66543126 -0.244685 -0.45147073
-0.18282445 -0.28195933 -0.28301942 0.024253845 0.5885254 -0.050824746 0.048311368 -0.66543126
-0.244685 -0.45147073 -0.18282445 -0.28195933 -0.28301942 0.024253845 0.5885254 -0.050824746
0.048311368 -0.66543126 -0.244685 -0.45147073 -0.18282445 -0.28195933 -0.28301942 0.024253845
0.5885254 -0.050824746 0.048311368 -0.66543126 -0.244685 -0.45147073 -0.18282445 -0.28195933
-0.28301942 0.024253845 0.5885254 -0.050824746 0.048311368 -0.66543126 -0.244685 -0.45147073
-0.18282445 -0.28195933 -0.28301942 0.024253845 0.5885254 -0.050824746 0.048311368 -0.66543126
-0.244685 -0.45147073 -0.18282445 -0.28195933 -0.28301942 0.024253845 0.5885254 -0.050824746
0.048311368 -0.66543126 -0.244685 -0.45147073 -0.18282445 -0.28195933 -0.28301942 0.024253845
0.5885254 -0.050824746 0.048311368 -0.66543126 -0.244685 -0.45147073 -0.18282445 -0.28195933
-0.28301942 0.024253845 0.5885254 -0.050824746 0.048311368 -0.66543126 -0.244685 -0.45147073
-0.18282445 -0.28195933 -0.28301942 0.024253845 0.5885254 -0.050824746 0.048311368 -0.66543126
-0.244685 -0.45147073 -0.18282445 -0.28195933 -0.28301942 0.024253845 0.5885254 -0.050824746
0.048311368 -0.66543126 -0.244685 -0.45147073 -0.18282445 -0.28195933 -0.28301942 0.024253845
0.5885254 -0.050824746 0.048311368 -0.66543126 -0.244685 -0.45147073 -0.18282445 -0.28195933
-0.28301942 0.024253845 0.5885254 -0.050824746 0.048311368 -0.66543126 -0.244685 -0.45147073
00000000: 9aa9 163f 9c2d 50bd 24e2 453d b459 2abf
00000010: b48e 7abe 2c27 e7be 5536 3bbe f95c 90be
00000020: ece7 90be 00b0 c63c 9aa9 163f 9c2d 50bd
00000030: 24e2 453d b459 2abf b48e 7abe 2c27 e7be
00000040: 5536 3bbe f95c 90be ece7 90be 00b0 c63c
00000050: 9aa9 163f 9c2d 50bd 24e2 453d b459 2abf
00000060: b48e 7abe 2c27 e7be 5536 3bbe f95c 90be
00000070: ece7 90be 00b0 c63c 9aa9 163f 9c2d 50bd
00000080: 24e2 453d b459 2abf b48e 7abe 2c27 e7be
00000090: 5536 3bbe f95c 90be ece7 90be 00b0 c63c
000000a0: 9aa9 163f 9c2d 50bd 24e2 453d b459 2abf
000000b0: b48e 7abe 2c27 e7be 5536 3bbe f95c 90be
000000c0: ece7 90be 00b0 c63c 9aa9 163f 9c2d 50bd
000000d0: 24e2 453d b459 2abf b48e 7abe 2c27 e7be
000000e0: 5536 3bbe f95c 90be ece7 90be 00b0 c63c
000000f0: 9aa9 163f 9c2d 50bd 24e2 453d b459 2abf
00000100: b48e 7abe 2c27 e7be 5536 3bbe f95c 90be
00000110: ece7 90be 00b0 c63c 9aa9 163f 9c2d 50bd
00000120: 24e2 453d b459 2abf b48e 7abe 2c27 e7be
00000130: 5536 3bbe f95c 90be ece7 90be 00b0 c63c
00000140: 9aa9 163f 9c2d 50bd 24e2 453d b459 2abf
00000150: b48e 7abe 2c27 e7be 5536 3bbe f95c 90be
00000160: ece7 90be 00b0 c63c 9aa9 163f 9c2d 50bd
00000170: 24e2 453d b459 2abf b48e 7abe 2c27 e7be
00000180: 5536 3bbe f95c 90be ece7 90be 00b0 c63c
00000190: 9aa9 163f 9c2d 50bd 24e2 453d b459 2abf
000001a0: b48e 7abe 2c27 e7be 5536 3bbe f95c 90be
000001b0: ece7 90be 00b0 c63c 9aa9 163f 9c2d 50bd
000001c0: 24e2 453d b459 2abf b48e 7abe 2c27 e7be
000001d0: 5536 3bbe f95c 90be ece7 90be 00b0 c63c
000001e0: 9aa9 163f 9c2d 50bd 24e2 453d b459 2abf
000001f0: b48e 7abe 2c27 e7be 5536 3bbe f95c 90be
00000200: ece7 90be 00b0 c63c 9aa9 163f 9c2d 50bd
00000210: 24e2 453d b459 2abf b48e 7abe 2c27 e7be
00000220: 5536 3bbe f95c 90be ece7 90be 00b0 c63c
00000230: 9aa9 163f 9c2d 50bd 24e2 453d b459 2abf
00000240: b48e 7abe 2c27 e7be 5536 3bbe f95c 90be
00000250: ece7 90be 00b0 c63c 9aa9 163f 9c2d 50bd
00000260: 24e2 453d b459 2abf b48e 7abe 2c27 e7be
00000270: 5536 3bbe f95c 90be ece7 90be 00b0 c63c
00000280: 9aa9 163f 9c2d 50bd 24e2 453d b459 2abf
00000290: b48e 7abe 2c27 e7be 5536 3bbe f95c 90be
000002a0: ece7 90be 00b0 c63c 9aa9 163f 9c2d 50bd
000002b0: 24e2 453d b459 2abf b48e 7abe 2c27 e7be
000002c0: 5536 3bbe f95c 90be ece7 90be 00b0 c63c
000002d0: 9aa9 163f 9c2d 50bd 24e2 453d b459 2abf
000002e0: b48e 7abe 2c27 e7be 5536 3bbe f95c 90be
000002f0: ece7 90be 00b0 c63c 9aa9 163f 9c2d 50bd
00000300: 24e2 453d b459 2abf b48e 7abe 2c27 e7be
00000310: 5536 3bbe f95c 90be ece7 90be 00b0 c63c
00000320: 9aa9 163f 9c2d 50bd 24e2 453d b459 2abf
00000330: b48e 7abe 2c27 e7be 5536 3bbe f95c 90be
00000340: ece7 90be 00b0 c63c 9aa9 163f 9c2d 50bd
00000350: 24e2 453d b459 2abf b48e 7abe 2c27 e7be
00000360: 5536 3bbe f95c 90be ece7 90be 00b0 c63c
00000370: 9aa9 163f 9c2d 50bd 24e2 453d b459 2abf
00000380: b48e 7abe 2c27 e7be 5536 3bbe f95c 90be
00000390: ece7 90be 00b0 c63c 9aa9 163f 9c2d 50bd
000003a0: 24e2 453d b459 2abf b48e 7abe 2c27 e7be
000003b0: 5536 3bbe f95c 90be ece7 90be 00b0 c63c
000003c0: 9aa9 163f 9c2d 50bd 24e2 453d b459 2abf
000003d0: b48e 7abe 2c27 e7be 5536 3bbe f95c 90be
000003e0: ece7 90be 00b0 c63c 9aa9 163f 9c2d 50bd
000003f0: 24e2 453d b459 2abf b48e 7abe 2c27 e7be

global_orient f4 [180, 3]
3.1206543 -0.023913842 -0.11856279 3.1090999 -0.03580746 -0.10089596 3.0918274 -0.040056042
-0.08169897 3.0729609 -0.036509003 -0.060611613 3.0566425 -0.022567444 -0.03586163 3.0449185
-0.003024998 -0.0009530137 3.037591 0.015029091 0.029960578 3.0379987 0.027095767 0.06149021
3.0399387 0.03279747 0.08803823 3.0453882 0.034117788 0.11249347 3.0546536 0.032727387
0.12862934 3.0632336 0.027329218 0.14368391 3.0703928 0.023608258 0.15455012 3.0787108
0.01865221 0.1612443 3.0879261 0.018525187 0.1648034 3.0934422 0.022083795 0.16545567
3.096435 0.023993291 0.16373245 3.0938 0.027783586 0.15056774 3.088377 0.03064878
0.13784541 3.082691 0.03281993 0.11711227 3.0759997 0.03329009 0.096428074 3.067276
0.027502496 0.066781335 3.0610006 0.017070781 0.035652593 3.0585358 0.0035254972 -0.001694121
3.0591 -0.010658869 -0.0412036 3.060762 -0.014679531 -0.0816104 3.0597193 -0.010655812
-0.12480152 3.057209 0.002005801 -0.16071634 3.0541873 0.018937279 -0.18881363 3.0539365
0.03222334 -0.20525144 3.05514 0.040237892 -0.21953617 3.0615895 0.038753137 -0.22697788
3.0707614 0.027027585 -0.22998488 3.0783305 0.01052835 -0.22311912 3.0779853 -0.010349608
-0.20936367 3.0713537 -0.027242694 -0.18885754 3.063143 -0.038523618 -0.15962991 3.0494957
-0.041020367 -0.12654257 3.0355928 -0.035146996 -0.09319141 3.0205786 -0.02408021 -0.05007636
3.0083659 -0.009918707 -0.005984633 3.0012217 0.0027226943 0.033778287 3.002847 0.008718565
0.07913677 3.0061057 0.006854916 0.116259865 3.0117276 0.003207016 0.14920437 3.0193894
-0.003501373 0.16946599 3.0256288 -0.008078813 0.18640272 3.0316637 -0.012091599 0.19466628
3.036992 -0.0116320215 0.19563808 3.0402267 -0.008391887 0.19674604 3.0452983 -0.004383615
0.18822566 3.0458393 -0.0017003797 0.17241864 3.0439792 0.006872194 0.15742983 3.039602
0.010609197 0.1345802 3.0355241 0.013070649 0.10757508 3.0316186 0.011358453 0.080934756
3.0268574 0.0027229723 0.05108452 3.0259674 -0.0063787373 0.02589638 3.0284529 -0.017888019
-0.0019859816 3.0299475 -0.023961501 -0.030104997 3.0305543 -0.021475913 -0.061744027 3.0336373
-0.01088101 -0.08637271 3.038568 0.004411661 -0.10725861 3.0435772 0.01691747 -0.118167326
3.047446 0.026057709 -0.12984096 3.0527513 0.03158506 -0.13389984 3.061179 0.028622838
-0.13301112 3.0694518 0.02191307 -0.12995884 3.0754018 0.011823882 -0.12451557 3.076963
0.0022860304 -0.11070073 3.0751998 -0.0036209656 -0.102080956 3.0701308 -0.0065531824 -0.09601409
3.0636158 -0.004978766 -0.09265058 3.0586421 0.001792773 -0.090846054 3.0562956 0.009802734
-0.0886409 3.0557938 0.018758642 -0.08278677 3.0591261 0.02256063 -0.07702988 3.0631566
0.019803569 -0.0701857 3.066671 0.01660497 -0.06445028 3.0668497 0.013717457 -0.06045247
3.0660295 0.0139144715 -0.055567402 3.0655274 0.015465661 -0.053379986 3.065283 0.017239703
-0.05475882 3.066534 0.017701153 -0.053352833 3.067615 0.018237913 -0.051772956 3.070779
00000000: cdb8 4740 f6e6 c3bc 0cd1 f2bd 7efb 4640
00000010: d8aa 12bd 8ba2 cebd 80e0 4540 ce11 24bd
00000020: ca51 a7bd 64ab 4440 778a 15bd e243 78bd
00000030: 08a0 4340 5cdf b8bc a5e3 12bd f2df 4240
00000040: 0b3f 46bb abd3 79ba e467 4240 943c 763c
00000050: e36f f53c 926e 4240 f1f7 dd3c 29dd 7b3d
00000060: 5b8e 4240 a456 063d 634d b43d a4e7 4240
00000070: 18bf 0b3d fa62 e63d 727f 4340 270d 063d
00000080: 69b7 033e 050c 4440 86e1 df3c e021 133e
00000090: 5181 4440 1b66 c13c 6342 1e3e 9909 4540
000000a0: 85cc 983c 3a1d 253e 95a0 4540 22c2 973c
000000b0: 39c2 283e f5fa 4540 13e9 b43c 366d 293e
000000c0: fe2b 4640 948d c43c 7ba9 273e d200 4640
000000d0: 679a e33c 6e2e 1a3e f8a7 4540 2613 fb3c
000000e0: 5927 0d3e cf4a 4540 316e 063d 8fd8 ef3d
000000f0: 2edd 4440 305b 083d 157c c53d 404e 4440
00000100: ea4c e13c a7c4 883d 6fe7 4340 06d8 8b3c
00000110: 7408 123d 0dbf 4340 070c 673b 450d deba
00000120: 4bc8 4340 89a2 2ebc 1bc5 28bd 86e3 4340
00000130: 6a82 70bc 5a23 a7bd 71d2 4340 b795 2ebc
00000140: f097 ffbd 50a9 4340 c273 033b d392 24be
00000150: ce77 4340 5a22 9b3c 5c58 41be b273 4340
00000160: 9ffc 033d 6f2d 52be 6a87 4340 7dd0 243d
00000170: 17ce 60be 15f1 4340 9cbb 1e3d e46c 68be
00000180: 5b87 4440 f468 dd3c 2881 6bbe 5e03 4540
00000190: 1a7f 2c3c 5779 64be b6fd 4440 6791 29bc
000001a0: 6e63 56be 0f91 4440 122c dfbc df63 41be
000001b0: 890a 4440 f1ca 1dbd 0676 23be f02a 4340
000001c0: f904 28bd 6094 01be 2747 4240 4cf6 0fbd
000001d0: 23db bebd 2951 4140 dc43 c5bc df1c 4dbd
000001e0: 1189 4040 1382 22bc be1a c4bb 0414 4040
000001f0: 3b6f 323b 1a5b 0a3d a52e 4040 50d8 0e3c
00000200: 7512 a23d 0964 4040 349f e03b a719 ee3d
00000210: 25c0 4040 cd2c 523b 08c9 183e ad3d 4140
00000220: 4b77 65bb 7e88 2d3e e7a3 4140 ff5c 04bc
00000230: 5be0 3e3e c706 4240 d81b 46bc 9956 473e
00000240: 145e 4240 3c94 3ebc 5955 483e 1393 4240
00000250: 207e 09bc cb77 493e 2be6 4240 6ea4 8fbb
00000260: 3abe 403e 08ef 4240 46df deba 838e 303e
00000270: 8ed0 4240 2430 e13b 4935 213e d788 4240
00000280: 33d2 2d3c 64cf 093e 0746 4240 4626 563c
00000290: 5350 dc3d 0a06 4240 ce18 3a3c 1fc1 a53d
000002a0: 08b8 4140 e573 323b 003e 513d 73a9 4140
000002b0: ba04 d1bb a524 d43c 2cd2 4140 e589 92bc
000002c0: 3e27 02bb a9ea 4140 e94a c4bc c19e f6bc
000002d0: 9af4 4140 41ee afbc 4ee7 7cbd 1d27 4240
000002e0: 4446 32bc 2de4 b0bd e677 4240 b28f 903b
000002f0: 67aa dbbd f8c9 4240 8296 8a3c b601 f2bd
00000300: 5b09 4340 fa76 d53c 07f5 04be 4760 4340
00000310: 565f 013d 0a1d 09be 5bea 4340 717a ea3c
00000320: 1134 08be e671 4440 0a83 b33c ee13 05be
00000330: 62d3 4440 f5b8 413c 0502 ffbd f6ec 4440
00000340: 3ad1 153b 10b7 e2bd 13d0 4440 b94d 6dbb
00000350: d20f d1bd 067d 4440 14bc d6bb 09a3 c4bd
00000360: 4812 4440 eb24 a3bb 96bf bdbd cbc0 4340
00000370: 7bfb ea3a 7f0d babd 599a 4340 a59b 203c
00000380: 5c89 b5bd 2092 4340 b9ab 993c 1c8c a9bd
00000390: b9c8 4340 12d1 b83c d7c1 9dbd c20a 4440
000003a0: 183b a23c 85bd 8fbd 5644 4440 2507 883c
000003b0: 82fe 83bd 4447 4440 2fbf 603c 029d 77bd
000003c0: d439 4440 86f9 633c a59a 63bd 9a31 4440
000003d0: af63 7d3c f9a4 5abd 992d 4440 473a 8d3c
000003e0: c94a 60bd 1842 4440 0202 913c 8088 5abd
000003f0: ce53 4440 ad67 953c e10f 54bd a587 4440

transl f4 [180, 3]
0.11941982 0.6729871 5.780457 0.12410722 0.67223245 5.74977 0.12673707 0.6712214
5.709404 0.12723425 0.66955304 5.655945 0.1276698 0.6671668 5.6087546 0.12865564
0.6647929 5.5650306 0.1295315 0.66318923 5.5293465 0.13014188 0.6628572 5.4967904
0.12908363 0.6640586 5.4586096 0.12966698 0.668437 5.422538 0.12939903 0.6736532
5.39456 0.12816878 0.67961645 5.3575597 0.1244816 0.6847507 5.3118005 0.12146458
0.69024086 5.259579 0.11774008 0.69470227 5.2094464 0.11336411 0.69716346 5.1604667
0.107857056 0.6972064 5.1068845 0.10241084 0.6971031 5.0643497 0.098023206 0.6973806
5.0233974 0.09429052 0.69820523 4.982307 0.09353164 0.6986002 4.9396377 0.09309804
0.69907176 4.8945613 0.0928479 0.6983688 4.864294 0.09309612 0.69906247 4.832588
0.093940124 0.6998277 4.8017654 0.09482926 0.70174634 4.770129 0.09573042 0.705314
4.7330594 0.09676051 0.7104858 4.68881 0.09889947 0.71681094 4.6404414 0.100888796
0.7241535 4.594829 0.10308346 0.7309881 4.55425 0.107476875 0.73715675 4.51419
0.112343535 0.742502 4.477241 0.11937248 0.74575514 4.4360476 0.12493932 0.7469342
4.38979 0.13189603 0.7456643 4.3481374 0.13693969 0.7443135 4.308284 0.13947468
0.74325186 4.260254 0.14147352 0.7410863 4.220448 0.14069796 0.73922485 4.1782618
0.13997164 0.7377875 4.134143 0.13876785 0.7360881 4.0976 0.13724364 0.7358111
4.065213 0.13632159 0.7370306 4.026015 0.13570479 0.73979944 3.9885976 0.13276881
0.7443739 3.9421787 0.12918918 0.7491659 3.8963969 0.12615487 0.75485325 3.8522167
0.122246034 0.7602209 3.8113508 0.11589768 0.7644071 3.7670724 0.11107963 0.7671585
3.722485 0.10583645 0.76787174 3.6822343 0.10050673 0.76933765 3.6440377 0.09572241
0.7693918 3.6139235 0.09302662 0.7702319 3.5838428 0.091838576 0.7700394 3.5529654
0.09155296 0.76887316 3.5244968 0.09226131 0.76775444 3.4932802 0.09277447 0.76773584
3.4624286 0.093674 0.7682494 3.4312956 0.09482713 0.7707356 3.405721 0.09760601
0.7749227 3.3784187 0.10136644 0.78031826 3.350492 0.10456403 0.7867558 3.3244703
0.108981244 0.7924617 3.3005865 0.11424526 0.79835415 3.2741275 0.119435206 0.8025323
3.2496924 0.1248001 0.8056109 3.2268143 0.13077943 0.8063593 3.2018476 0.13578743
0.8049433 3.1832297 0.13941817 0.8027376 3.158832 0.1424997 0.8009564 3.1336906
0.14405182 0.7987574 3.1143324 0.14529236 0.7970236 3.0956976 0.14480714 0.79476917
3.0739758 0.1440919 0.7931922 3.0600467 0.14219613 0.7919935 3.0364077 0.14108053
0.79094917 3.0156589 0.14091945 0.7900348 2.997828 0.14040045 0.7897881 2.984186
0.14005454 0.78947437 2.9756954 0.1393835 0.7894967 2.9647665 0.13864926 0.7893264
2.9527123 0.13732691 0.79040456 2.9441936 0.13704196 0.7912061 2.9374683 0.13652237
00000000: 6192 f43d e248 2c3f 81f9 b840 ed2b fe3d
00000010: 6d17 2c3f 1efe b740 5dc7 013e 2ad5 2b3f
00000020: 70b3 b640 b249 023e d467 2b3f 80fd b440
00000030: dfbb 023e 72cb 2a3f eb7a b340 4ebe 033e
00000040: de2f 2a3f bb14 b240 e8a3 043e c5c6 293f
00000050: 68f0 b040 ea43 053e 02b1 293f b5e5 af40
00000060: 802e 043e bfff 293f eeac ae40 6cc7 043e
00000070: b01e 2b3f 6e85 ad40 2e81 043e 8974 2c3f
00000080: 3ca0 ac40 ad3e 033e 58fb 2d3f 2171 ab40
00000090: 36f0 fe3d d24b 2f3f 45fa a940 6cc2 f83d
000000a0: a0b3 303f 794e a840 b621 f13d 02d8 313f
000000b0: c9b3 a640 712b e83d 4e79 323f 8b22 a540
000000c0: 29e4 dc3d 1e7c 323f 996b a340 c6bc d13d
000000d0: 5975 323f 270f a240 64c0 c83d 8987 323f
000000e0: acbf a040 631b c13d 94bd 323f 0f6f 9f40
000000f0: 848d bf3d 76d7 323f 8311 9e40 2faa be3d
00000100: 5ef6 323f 3fa0 9c40 0a27 be3d 4cc8 323f
00000110: 4ca8 9b40 2ea9 be3d c2f5 323f 90a4 9a40
00000120: ae63 c03d e827 333f 10a8 9940 d835 c23d
00000130: a6a5 333f e6a4 9840 4f0e c43d 758f 343f
00000140: 3975 9740 602a c63d 66e2 353f bb0a 9640
00000150: ce8b ca3d ec80 373f 7f7e 9440 c99e ce3d
00000160: 2062 393f d708 9340 6c1d d33d 0922 3b3f
00000170: 6abc 9140 d61c dc3d 4eb6 3c3f 3f74 9040
00000180: 5e14 e63d 9c14 3e3f 8f45 8f40 8f79 f43d
00000190: cfe9 3e3f 1af4 8d40 30e0 ff3d 1437 3f3f
000001a0: 2979 8c40 c10f 073e dbe3 3e3f f123 8b40
000001b0: eb39 0c3e 548b 3e3f 76dd 8940 73d2 0e3e
000001c0: c145 3e3f 0054 8840 6fde 103e d5b7 3d3f
000001d0: e90d 8740 2013 103e d73d 3d3f 52b4 8540
000001e0: ba54 0f3e a4df 3c3f e64a 8440 2919 0e3e
000001f0: 4570 3c3f 8a1f 8340 9989 0c3e 1e5e 3c3f
00000200: 3a16 8240 e397 0b3e 0aae 3c3f 1dd5 8040
00000210: 32f6 0a3e 7f63 3d3f 2f45 7f40 8cf4 073e
00000220: 4a8f 3e3f a84c 7c40 2b4a 043e 56c9 3f3f
00000230: 915e 7940 be2e 013e 103e 413f b88a 7640
00000240: 215c fa3d d69d 423f 2ced 7340 c35b ed3d
00000250: 2fb0 433f b717 7140 b87d e33d 8064 443f
00000260: 323d 6e40 c8c0 d83d 3e93 443f baa9 6b40
00000270: 79d6 cd3d 50f3 443f ea37 6940 1c0a c43d
00000280: dcf6 443f 864a 6740 be84 be3d eb2d 453f
00000290: ae5d 6540 dd15 bc3d 4d21 453f c963 6340
000002a0: 1e80 bb3d dfd4 443f 5b91 6140 7ff3 bc3d
000002b0: 8e8b 443f e791 5f40 8b00 be3d 568a 443f
000002c0: 6e98 5d40 27d8 bf3d feab 443f 599a 5b40
000002d0: ba34 c23d ee4e 453f 55f7 5940 a9e5 c73d
000002e0: 5661 463f 0338 5840 3599 cf3d f0c2 473f
000002f0: 766e 5640 ab25 d63d d468 493f 1fc4 5440
00000300: 8f31 df3d c5de 4a3f cf3c 5340 6bf9 e93d
00000310: f060 4c3f 4e8b 5140 729a f43d c272 4d3f
00000320: f6fa 4f40 3297 ff3d 843c 4e3f 2084 4e40
00000330: 0beb 053e 906d 4e3f 12eb 4c40 dc0b 0b3e
00000340: c410 4e3f 09ba 4b40 a3c3 0e3e 3680 4d3f
00000350: 4e2a 4a40 71eb 113e 7b0b 4d3f 638e 4840
00000360: 5282 133e 5d7b 4c3f 3951 4740 85c7 143e
00000370: bd09 4c3f e91f 4640 5348 143e fe75 4b3f
00000380: 05bc 4440 d48c 133e a50e 4b3f ced7 4340
00000390: dd9b 113e 16c0 4a3f 8154 4240 6a77 103e
000003a0: a57b 4a3f 8e00 4140 304d 103e b83f 4a3f
000003b0: 6adc 3f40 23c5 0f3e 8e2f 4a3f e7fc 3e40
000003c0: 756a 0f3e fe1a 4a3f cb71 3e40 8cba 0e3e
000003d0: 751c 4a3f bcbe 3d40 12fa 0d3e 4c11 4a3f
000003e0: 3df9 3c40 6d9f 0c3e f457 4a3f ab6d 3c40
000003f0: ba54 0c3e 7c8c 4a3f 7bff 3b40 85cc 0b3e

K_fullimg f4 [180, 3, 3]
1468.6047 0.0 360.0 0.0 1468.6047 640.0 0.0 0.0
1.0 1468.6047 0.0 360.0 0.0 1468.6047 640.0 0.0
0.0 1.0 1468.6047 0.0 360.0 0.0 1468.6047 640.0
0.0 0.0 1.0 1468.6047 0.0 360.0 0.0 1468.6047
640.0 0.0 0.0 1.0 1468.6047 0.0 360.0 0.0
1468.6047 640.0 0.0 0.0 1.0 1468.6047 0.0 360.0
0.0 1468.6047 640.0 0.0 0.0 1.0 1468.6047 0.0
360.0 0.0 1468.6047 640.0 0.0 0.0 1.0 1468.6047
0.0 360.0 0.0 1468.6047 640.0 0.0 0.0 1.0
1468.6047 0.0 360.0 0.0 1468.6047 640.0 0.0 0.0
1.0 1468.6047 0.0 360.0 0.0 1468.6047 640.0 0.0
0.0 1.0 1468.6047 0.0 360.0 0.0 1468.6047 640.0
0.0 0.0 1.0 1468.6047 0.0 360.0 0.0 1468.6047
640.0 0.0 0.0 1.0 1468.6047 0.0 360.0 0.0
1468.6047 640.0 0.0 0.0 1.0 1468.6047 0.0 360.0
0.0 1468.6047 640.0 0.0 0.0 1.0 1468.6047 0.0
360.0 0.0 1468.6047 640.0 0.0 0.0 1.0 1468.6047
0.0 360.0 0.0 1468.6047 640.0 0.0 0.0 1.0
1468.6047 0.0 360.0 0.0 1468.6047 640.0 0.0 0.0
1.0 1468.6047 0.0 360.0 0.0 1468.6047 640.0 0.0
0.0 1.0 1468.6047 0.0 360.0 0.0 1468.6047 640.0
0.0 0.0 1.0 1468.6047 0.0 360.0 0.0 1468.6047
640.0 0.0 0.0 1.0 1468.6047 0.0 360.0 0.0
1468.6047 640.0 0.0 0.0 1.0 1468.6047 0.0 360.0
0.0 1468.6047 640.0 0.0 0.0 1.0 1468.6047 0.0
360.0 0.0 1468.6047 640.0 0.0 0.0 1.0 1468.6047
0.0 360.0 0.0 1468.6047 640.0 0.0 0.0 1.0
1468.6047 0.0 360.0 0.0 1468.6047 640.0 0.0 0.0
1.0 1468.6047 0.0 360.0 0.0 1468.6047 640.0 0.0
0.0 1.0 1468.6047 0.0 360.0 0.0 1468.6047 640.0
0.0 0.0 1.0 1468.6047 0.0 360.0 0.0 1468.6047
640.0 0.0 0.0 1.0 1468.6047 0.0 360.0 0.0
00000000: 5a93 b744 0000 0000 0000 b443 0000 0000
00000010: 5a93 b744 0000 2044 0000 0000 0000 0000
00000020: 0000 803f 5a93 b744 0000 0000 0000 b443
00000030: 0000 0000 5a93 b744 0000 2044 0000 0000
00000040: 0000 0000 0000 803f 5a93 b744 0000 0000
00000050: 0000 b443 0000 0000 5a93 b744 0000 2044
00000060: 0000 0000 0000 0000 0000 803f 5a93 b744
00000070: 0000 0000 0000 b443 0000 0000 5a93 b744
00000080: 0000 2044 0000 0000 0000 0000 0000 803f
00000090: 5a93 b744 0000 0000 0000 b443 0000 0000
000000a0: 5a93 b744 0000 2044 0000 0000 0000 0000
000000b0: 0000 803f 5a93 b744 0000 0000 0000 b443
000000c0: 0000 0000 5a93 b744 0000 2044 0000 0000
000000d0: 0000 0000 0000 803f 5a93 b744 0000 0000
000000e0: 0000 b443 0000 0000 5a93 b744 0000 2044
000000f0: 0000 0000 0000 0000 0000 803f 5a93 b744
00000100: 0000 0000 0000 b443 0000 0000 5a93 b744
00000110: 0000 2044 0000 0000 0000 0000 0000 803f
00000120: 5a93 b744 0000 0000 0000 b443 0000 0000
00000130: 5a93 b744 0000 2044 0000 0000 0000 0000
00000140: 0000 803f 5a93 b744 0000 0000 0000 b443
00000150: 0000 0000 5a93 b744 0000 2044 0000 0000
00000160: 0000 0000 0000 803f 5a93 b744 0000 0000
00000170: 0000 b443 0000 0000 5a93 b744 0000 2044
00000180: 0000 0000 0000 0000 0000 803f 5a93 b744
00000190: 0000 0000 0000 b443 0000 0000 5a93 b744
000001a0: 0000 2044 0000 0000 0000 0000 0000 803f
000001b0: 5a93 b744 0000 0000 0000 b443 0000 0000
000001c0: 5a93 b744 0000 2044 0000 0000 0000 0000
000001d0: 0000 803f 5a93 b744 0000 0000 0000 b443
000001e0: 0000 0000 5a93 b744 0000 2044 0000 0000
000001f0: 0000 0000 0000 803f 5a93 b744 0000 0000
00000200: 0000 b443 0000 0000 5a93 b744 0000 2044
00000210: 0000 0000 0000 0000 0000 803f 5a93 b744
00000220: 0000 0000 0000 b443 0000 0000 5a93 b744
00000230: 0000 2044 0000 0000 0000 0000 0000 803f
00000240: 5a93 b744 0000 0000 0000 b443 0000 0000
00000250: 5a93 b744 0000 2044 0000 0000 0000 0000
00000260: 0000 803f 5a93 b744 0000 0000 0000 b443
00000270: 0000 0000 5a93 b744 0000 2044 0000 0000
00000280: 0000 0000 0000 803f 5a93 b744 0000 0000
00000290: 0000 b443 0000 0000 5a93 b744 0000 2044
000002a0: 0000 0000 0000 0000 0000 803f 5a93 b744
000002b0: 0000 0000 0000 b443 0000 0000 5a93 b744
000002c0: 0000 2044 0000 0000 0000 0000 0000 803f
000002d0: 5a93 b744 0000 0000 0000 b443 0000 0000
000002e0: 5a93 b744 0000 2044 0000 0000 0000 0000
000002f0: 0000 803f 5a93 b744 0000 0000 0000 b443
00000300: 0000 0000 5a93 b744 0000 2044 0000 0000
00000310: 0000 0000 0000 803f 5a93 b744 0000 0000
00000320: 0000 b443 0000 0000 5a93 b744 0000 2044
00000330: 0000 0000 0000 0000 0000 803f 5a93 b744
00000340: 0000 0000 0000 b443 0000 0000 5a93 b744
00000350: 0000 2044 0000 0000 0000 0000 0000 803f
00000360: 5a93 b744 0000 0000 0000 b443 0000 0000
00000370: 5a93 b744 0000 2044 0000 0000 0000 0000
00000380: 0000 803f 5a93 b744 0000 0000 0000 b443
00000390: 0000 0000 5a93 b744 0000 2044 0000 0000
000003a0: 0000 0000 0000 803f 5a93 b744 0000 0000
000003b0: 0000 b443 0000 0000 5a93 b744 0000 2044
000003c0: 0000 0000 0000 0000 0000 803f 5a93 b744
000003d0: 0000 0000 0000 b443 0000 0000 5a93 b744
000003e0: 0000 2044 0000 0000 0000 0000 0000 803f
000003f0: 5a93 b744 0000 0000 0000 b443 0000 0000
