inputs/motion_bank/ycma/hmr4d_results.pt (torch, 754175 bytes, 27 tensors)

body_pose f4 [172, 63]
000000 ca b7 54 3e ed f0 50 3d fe 5c 3f bc 54 7c ba 3d
       0.20773235 0.051011015 -0.011679886 0.09105745
000010 9b 26 b3 bd ca 57 00 3d d4 8f 48 3e f9 5f 32 3c
       -0.08747598 0.031333722 0.19586116 0.0108871395
000020 52 66 4d bd 49 2a 2d 3d 3c 79 18 be 27 73 2c bc
       -0.05014641 0.042276654 -0.14889997 -0.010525501
000030 82 58 a2 3e e8 f3 97 bd f1 29 21 bd 5e 93 28 3e
       0.3170815 -0.07419568 -0.03934664 0.16462466
000040 a2 ef 83 bc d2 d4 30 3b 41 68 af bd 3b 39 f0 3d
       -0.016105477 0.002698232 -0.08564807 0.11729666
000050 49 cd 23 bc 8f 55 af bd 60 98 0f be 32 55 a9 bc
       -0.009997674 -0.08561241 -0.1402297 -0.020670507
000060 cf ce db 3c 7e a2 b0 3b 88 c2 08 3a 58 b9 4c bc
       0.026832012 0.0053904643 0.00052169757 -0.012495361
000070 4a b7 cd 3c 38 aa f4 3c f6 74 22 bd be a3 f5 3c
       0.025111813 0.029866323 -0.039662324 0.029985305
000080 a8 f5 bd 3c 72 cc f4 3e 97 34 f7 bd 51 de 02 bd
       0.023188427 0.4781223 -0.120705776 -0.0319503
000090 9a da 10 be 04 69 8b be 24 4d 34 3d b7 f6 de bd
       -0.1414589 -0.27228558 0.04401888 -0.10886901
0000a0 a7 fa 69 3e 46 65 8d be 13 f6 dd 3d f1 68 7a 3d
       0.22849523 -0.27616328 0.108379506 0.061135236
0000b0 45 82 26 3e 13 11 6c be 36 9b 19 bf f6 5f 63 bf
       0.16260631 -0.23053388 -0.6000246 -0.888183
0000c0 bd 21 e5 bd 54 f5 50 3e c9 9a 0c 3f 3f d1 52 be
       -0.11188076 0.20406085 0.54923683 -0.20587634
0000d0 ec 35 92 bf 37 95 b9 3e 6a 7a 0d be 94 34 b1 3f
       -1.1422706 0.36246654 -0.13816229 1.384417
0000e0 e1 29 d4 be 16 d0 d9 3d b4 51 08 be 50 93 28 3f
       -0.414382 0.10635392 -0.13312417 0.6584978
0000f0 2e bf 5d 3c 3e 72 2a 3e 22 35 00 bf 2e a4 58 3e
       0.01353435 0.16645142 -0.50081074 0.2115638
000100 19 97 55 3d 82 e3 43 bc 36 43 ad 3d a7 5a af bd
       0.05214605 -0.011956098 0.08460085 -0.085622124
000110 20 34 fd 3c c0 31 4c 3e af 4f 08 3c db 4f 4b bd
       0.030908644 0.19940853 0.008319779 -0.049636703
000120 61 0c 1a 3d 69 ea 19 be df 8d 34 bc e2 af a9 3e
       0.03760946 -0.15030827 -0.011020153 0.33142
000130 8a 1a 91 bd 62 93 22 bd 38 9a 27 3e c2 57 75 bc
       -0.0708514 -0.039691336 0.16367424 -0.014974536
000140 c4 80 6c 3b 31 59 ae bd dc 20 ee 3d bc bd 32 bc
       0.0036087492 -0.08513106 0.11627361 -0.010909494
000150 dc 9d a8 bd 69 9b 16 be c9 f5 b6 bc d7 0e ca 3c
       -0.08233234 -0.14707722 -0.022333996 0.02466528
000160 bd 1c aa 3b 4a 4a 97 ba 15 81 83 bc 8f ca b6 3c
       0.005191414 -0.0011542526 -0.016052762 0.022313384
000170 d9 15 02 3d 9a 27 2d bd 99 3c 03 3d 4b 82 a4 3c
       0.031759117 -0.042274095 0.032040212 0.02008166
000180 46 f8 f3 3e 9a df fd bd 6b a1 02 bd 9d af 12 be
       0.47650355 -0.12396164 -0.03189222 -0.14324804
000190 68 2e 8f be b0 05 44 3d 67 4e dd bd ee 04 72 3e
       -0.27965093 0.047856987 -0.1080597 0.23634693
0001a0 ce a2 8e be 10 33 e2 3d 4d e4 78 3d da fb 27 3e
       -0.27858585 0.11044896 0.0607646 0.16404667
0001b0 7d 54 6c be 6f bc 1d bf 2f df 63 bf 25 ba f8 bd
       -0.23079105 -0.6161565 -0.89012426 -0.12144879
0001c0 a7 1c 54 3e e8 fc 08 3f 40 78 47 be e7 a6 90 bf
       0.20714055 0.53510904 -0.19479465 -1.1300935
0001d0 b4 78 ba 3e db e1 0c be 6c c6 aa 3f d2 10 cd be
       0.36420214 -0.13758032 1.3341804 -0.40051895
0001e0 ac b0 ea 3d a1 ae 0c be 0e 0f 2a 3f 66 6d 85 3c
       0.11459479 -0.1373849 0.6642922 0.016287517
0001f0 67 e7 2d 3e bf 5f 02 bf 58 de 60 3e 74 a3 57 3d
       0.16982804 -0.50927347 0.21959817 0.052646115
000200 e8 2a 29 bc c5 d8 a8 3d ac 4a ac bd 5e f4 fe 3c
       -0.010325171 0.082444705 -0.0841268 0.031122383
000210 84 50 4f 3e 80 b1 b0 3b 0c f7 43 bd e6 1e 16 3d
       0.20245558 0.0053922534 -0.047843024 0.03665056
000220 bb 4e 1c be 62 f8 16 bc 93 05 b2 3e 3e 2d 8d bd
       -0.15264408 -0.0092144925 0.34769878 -0.06893395
000230 92 72 14 bd b7 cd 26 3e 78 a5 55 bc 4d 8d 94 3b
       -0.036242075 0.16289411 -0.013039939 0.004533446
000240 1b 6e b1 bd d8 e1 f3 3d 96 1c 25 bc 10 03 9f bd
       -0.08663579 0.11908311 -0.010077616 -0.07764256
000250 97 d3 1a be cc a8 b3 bc 85 51 aa 3c 46 0c ab 3b
       -0.15119778 -0.021931075 0.020790825 0.005219969
000260 03 3d 3e bb dc 5e 92 bc 4b f2 86 3c 7e 95 fd 3c
       -0.0029028065 -0.017867498 0.016472956 0.030955072
000270 dc 01 2c bd 15 3f 0f 3d d3 76 9a 3c cf cf f2 3e
       -0.04199396 0.03497227 0.018855488 0.4742417
000280 0c 5d 01 be 69 ba 05 bd 6e 5e 14 be a9 f5 96 be
       -0.12633151 -0.032648478 -0.14489147 -0.294843
000290 d2 64 62 3d 8b 20 d8 bd e1 8b 7f 3e 97 e8 92 be
       0.05527193 -0.10553082 0.24955703 -0.28693077
0002a0 e0 74 e6 3d 8a 1a 7b 3d cc 7b 2a 3e d7 1e 6d be
       0.11252761 0.061304606 0.16648787 -0.23156296
0002b0 25 1a 22 bf 0f 77 63 bf d5 db 06 be 76 53 5a 3e
       -0.63321143 -0.88853544 -0.13169797 0.213209
0002c0 6d 9e 04 3f 06 7a 37 be 86 4b 8e bf 7a a0 b2 3e
       0.5180424 -0.17917642 -1.1116798 0.3488806
0002d0 88 16 00 be 4e ff a1 3f fd 73 bf be ef 11 f8 3d
       -0.12508595 1.2656038 -0.3739318 0.121127956
0002e0 52 e7 10 be 16 fb 28 3f b6 5b da 3c 24 7e 32 3e
       -0.14150742 0.66008127 0.02665506 0.17430931
0002f0 a6 ed 02 bf cf ab 69 3e db 3a 50 3d a9 41 25 bc
       -0.5114387 0.22819446 0.05083738 -0.010086455
000300 a2 59 9d 3d 54 82 ac bd 6d d6 e8 3c a5 4b 4f 3e
       0.07683112 -0.084232956 0.028422559 0.202437
000310 ec 45 8d 3b 7f 36 35 bd d0 93 04 3d 37 32 1b be
       0.004311314 -0.044241425 0.032367527 -0.15155874
000320 6d 61 35 bc ff dd ba 3e e2 ab 8a bd bb d1 05 bd
       -0.011070591 0.36497495 -0.06771065 -0.032670718
000330 2e a8 24 3e 13 fe 30 bc df 4a 95 3b 19 15 b8 bd
       0.1607978 -0.0108027635 0.0045560445 -0.08988399
000340 52 6f f3 3d b0 ce 43 bc ae 08 a0 bd 74 57 1f be
       0.11886467 -0.011951134 -0.078141555 -0.15560704
000350 8e ba ac bc 04 ce a1 3c 02 5b db 3b a1 4c f4 bb
       -0.02108505 0.019751556 0.0066941986 -0.007455424
000360 89 97 df bc b0 31 da 3b ac 5b 01 3d 43 f7 31 bd
       -0.027293937 0.0066587552 0.031581566 -0.043448698
000370 02 45 23 3d 54 88 7d 3c b2 e9 f3 3e da 5a ff bd
       0.039860733 0.015474398 0.47639233 -0.124685004
000380 3b 69 ec bc 12 d5 1c be 3e 3b a2 be a0 5f 93 3d
       -0.028858772 -0.15315655 -0.31685823 0.071959734
000390 a4 e6 d5 bd 85 32 8d 3e f8 fc 99 be 2b 0e f6 3d
       -0.10444382 0.27577606 -0.30075812 0.12014421
0003a0 c1 83 80 3d 00 90 2c 3e dd e6 69 be 7c 8d 28 bf
       0.0627513 0.16851807 -0.22841974 -0.6584089
0003b0 3b 47 63 bf ff e8 15 be e5 ab 70 3e 92 77 fd 3e
       -0.88780564 -0.14639662 0.23503073 0.49505287
0003c0 df 2a 1a be 6c b3 89 bf 38 8a a4 3e 39 d9 e2 bd
       -0.15055417 -1.075788 0.32136703 -0.11076588
0003d0 7d 7d 91 3f 9f 75 a2 be 6c 49 01 3e ae 30 14 be
       1.1366421 -0.31730363 0.12625664 -0.14471695
0003e0 f8 3d 2c 3f 63 1f 06 3d ee 1a 36 3e 94 76 06 bf
       0.67282057 0.032744776 0.1778371 -0.52524686
0003f0 3a 69 6b 3e ab fc 4a 3d 40 7f f9 bb d9 b6 94 3d
       0.2298936 0.04955737 -0.0076140463 0.07261438

betas f4 [172, 10]
000000 e1 d6 42 3f a2 96 94 3e 6e 36 1c be 6f 9a b9 be
       0.7610913 0.29021174 -0.15255138 -0.36250636
000010 81 95 1a bf 29 85 24 bf d3 cc 00 bf 3e 33 05 bf
       -0.60384375 -0.64265686 -0.50312537 -0.52031314
000020 d0 80 03 3e c3 12 47 3f e1 d6 42 3f a2 96 94 3e
       0.12842107 0.77763003 0.7610913 0.29021174
000030 6e 36 1c be 6f 9a b9 be 81 95 1a bf 29 85 24 bf
       -0.15255138 -0.36250636 -0.60384375 -0.64265686
000040 d3 cc 00 bf 3e 33 05 bf d0 80 03 3e c3 12 47 3f
       -0.50312537 -0.52031314 0.12842107 0.77763003
000050 e1 d6 42 3f a2 96 94 3e 6e 36 1c be 6f 9a b9 be
       0.7610913 0.29021174 -0.15255138 -0.36250636
000060 81 95 1a bf 29 85 24 bf d3 cc 00 bf 3e 33 05 bf
       -0.60384375 -0.64265686 -0.50312537 -0.52031314
000070 d0 80 03 3e c3 12 47 3f e1 d6 42 3f a2 96 94 3e
       0.12842107 0.77763003 0.7610913 0.29021174
000080 6e 36 1c be 6f 9a b9 be 81 95 1a bf 29 85 24 bf
       -0.15255138 -0.36250636 -0.60384375 -0.64265686
000090 d3 cc 00 bf 3e 33 05 bf d0 80 03 3e c3 12 47 3f
       -0.50312537 -0.52031314 0.12842107 0.77763003
0000a0 e1 d6 42 3f a2 96 94 3e 6e 36 1c be 6f 9a b9 be
       0.7610913 0.29021174 -0.15255138 -0.36250636
0000b0 81 95 1a bf 29 85 24 bf d3 cc 00 bf 3e 33 05 bf
       -0.60384375 -0.64265686 -0.50312537 -0.52031314
0000c0 d0 80 03 3e c3 12 47 3f e1 d6 42 3f a2 96 94 3e
       0.12842107 0.77763003 0.7610913 0.29021174
0000d0 6e 36 1c be 6f 9a b9 be 81 95 1a bf 29 85 24 bf
       -0.15255138 -0.36250636 -0.60384375 -0.64265686
0000e0 d3 cc 00 bf 3e 33 05 bf d0 80 03 3e c3 12 47 3f
       -0.50312537 -0.52031314 0.12842107 0.77763003
0000f0 e1 d6 42 3f a2 96 94 3e 6e 36 1c be 6f 9a b9 be
       0.7610913 0.29021174 -0.15255138 -0.36250636
000100 81 95 1a bf 29 85 24 bf d3 cc 00 bf 3e 33 05 bf
       -0.60384375 -0.64265686 -0.50312537 -0.52031314
000110 d0 80 03 3e c3 12 47 3f e1 d6 42 3f a2 96 94 3e
       0.12842107 0.77763003 0.7610913 0.29021174
000120 6e 36 1c be 6f 9a b9 be 81 95 1a bf 29 85 24 bf
       -0.15255138 -0.36250636 -0.60384375 -0.64265686
000130 d3 cc 00 bf 3e 33 05 bf d0 80 03 3e c3 12 47 3f
       -0.50312537 -0.52031314 0.12842107 0.77763003
000140 e1 d6 42 3f a2 96 94 3e 6e 36 1c be 6f 9a b9 be
       0.7610913 0.29021174 -0.15255138 -0.36250636
000150 81 95 1a bf 29 85 24 bf d3 cc 00 bf 3e 33 05 bf
       -0.60384375 -0.64265686 -0.50312537 -0.52031314
000160 d0 80 03 3e c3 12 47 3f e1 d6 42 3f a2 96 94 3e
       0.12842107 0.77763003 0.7610913 0.29021174
000170 6e 36 1c be 6f 9a b9 be 81 95 1a bf 29 85 24 bf
       -0.15255138 -0.36250636 -0.60384375 -0.64265686
000180 d3 cc 00 bf 3e 33 05 bf d0 80 03 3e c3 12 47 3f
       -0.50312537 -0.52031314 0.12842107 0.77763003
000190 e1 d6 42 3f a2 96 94 3e 6e 36 1c be 6f 9a b9 be
       0.7610913 0.29021174 -0.15255138 -0.36250636
0001a0 81 95 1a bf 29 85 24 bf d3 cc 00 bf 3e 33 05 bf
       -0.60384375 -0.64265686 -0.50312537 -0.52031314
0001b0 d0 80 03 3e c3 12 47 3f e1 d6 42 3f a2 96 94 3e
       0.12842107 0.77763003 0.7610913 0.29021174
0001c0 6e 36 1c be 6f 9a b9 be 81 95 1a bf 29 85 24 bf
       -0.15255138 -0.36250636 -0.60384375 -0.64265686
0001d0 d3 cc 00 bf 3e 33 05 bf d0 80 03 3e c3 12 47 3f
       -0.50312537 -0.52031314 0.12842107 0.77763003
0001e0 e1 d6 42 3f a2 96 94 3e 6e 36 1c be 6f 9a b9 be
       0.7610913 0.29021174 -0.15255138 -0.36250636
0001f0 81 95 1a bf 29 85 24 bf d3 cc 00 bf 3e 33 05 bf
       -0.60384375 -0.64265686 -0.50312537 -0.52031314
000200 d0 80 03 3e c3 12 47 3f e1 d6 42 3f a2 96 94 3e
       0.12842107 0.77763003 0.7610913 0.29021174
000210 6e 36 1c be 6f 9a b9 be 81 95 1a bf 29 85 24 bf
       -0.15255138 -0.36250636 -0.60384375 -0.64265686
000220 d3 cc 00 bf 3e 33 05 bf d0 80 03 3e c3 12 47 3f
       -0.50312537 -0.52031314 0.12842107 0.77763003
000230 e1 d6 42 3f a2 96 94 3e 6e 36 1c be 6f 9a b9 be
       0.7610913 0.29021174 -0.15255138 -0.36250636
000240 81 95 1a bf 29 85 24 bf d3 cc 00 bf 3e 33 05 bf
       -0.60384375 -0.64265686 -0.50312537 -0.52031314
000250 d0 80 03 3e c3 12 47 3f e1 d6 42 3f a2 96 94 3e
       0.12842107 0.77763003 0.7610913 0.29021174
000260 6e 36 1c be 6f 9a b9 be 81 95 1a bf 29 85 24 bf
       -0.15255138 -0.36250636 -0.60384375 -0.64265686
000270 d3 cc 00 bf 3e 33 05 bf d0 80 03 3e c3 12 47 3f
       -0.50312537 -0.52031314 0.12842107 0.77763003
000280 e1 d6 42 3f a2 96 94 3e 6e 36 1c be 6f 9a b9 be
       0.7610913 0.29021174 -0.15255138 -0.36250636
000290 81 95 1a bf 29 85 24 bf d3 cc 00 bf 3e 33 05 bf
       -0.60384375 -0.64265686 -0.50312537 -0.52031314
0002a0 d0 80 03 3e c3 12 47 3f e1 d6 42 3f a2 96 94 3e
       0.12842107 0.77763003 0.7610913 0.29021174
0002b0 6e 36 1c be 6f 9a b9 be 81 95 1a bf 29 85 24 bf
       -0.15255138 -0.36250636 -0.60384375 -0.64265686
0002c0 d3 cc 00 bf 3e 33 05 bf d0 80 03 3e c3 12 47 3f
       -0.50312537 -0.52031314 0.12842107 0.77763003
0002d0 e1 d6 42 3f a2 96 94 3e 6e 36 1c be 6f 9a b9 be
       0.7610913 0.29021174 -0.15255138 -0.36250636
0002e0 81 95 1a bf 29 85 24 bf d3 cc 00 bf 3e 33 05 bf
       -0.60384375 -0.64265686 -0.50312537 -0.52031314
0002f0 d0 80 03 3e c3 12 47 3f e1 d6 42 3f a2 96 94 3e
       0.12842107 0.77763003 0.7610913 0.29021174
000300 6e 36 1c be 6f 9a b9 be 81 95 1a bf 29 85 24 bf
       -0.15255138 -0.36250636 -0.60384375 -0.64265686
000310 d3 cc 00 bf 3e 33 05 bf d0 80 03 3e c3 12 47 3f
       -0.50312537 -0.52031314 0.12842107 0.77763003
000320 e1 d6 42 3f a2 96 94 3e 6e 36 1c be 6f 9a b9 be
       0.7610913 0.29021174 -0.15255138 -0.36250636
000330 81 95 1a bf 29 85 24 bf d3 cc 00 bf 3e 33 05 bf
       -0.60384375 -0.64265686 -0.50312537 -0.52031314
000340 d0 80 03 3e c3 12 47 3f e1 d6 42 3f a2 96 94 3e
       0.12842107 0.77763003 0.7610913 0.29021174
000350 6e 36 1c be 6f 9a b9 be 81 95 1a bf 29 85 24 bf
       -0.15255138 -0.36250636 -0.60384375 -0.64265686
000360 d3 cc 00 bf 3e 33 05 bf d0 80 03 3e c3 12 47 3f
       -0.50312537 -0.52031314 0.12842107 0.77763003
000370 e1 d6 42 3f a2 96 94 3e 6e 36 1c be 6f 9a b9 be
       0.7610913 0.29021174 -0.15255138 -0.36250636
000380 81 95 1a bf 29 85 24 bf d3 cc 00 bf 3e 33 05 bf
       -0.60384375 -0.64265686 -0.50312537 -0.52031314
000390 d0 80 03 3e c3 12 47 3f e1 d6 42 3f a2 96 94 3e
       0.12842107 0.77763003 0.7610913 0.29021174
0003a0 6e 36 1c be 6f 9a b9 be 81 95 1a bf 29 85 24 bf
       -0.15255138 -0.36250636 -0.60384375 -0.64265686
0003b0 d3 cc 00 bf 3e 33 05 bf d0 80 03 3e c3 12 47 3f
       -0.50312537 -0.52031314 0.12842107 0.77763003
0003c0 e1 d6 42 3f a2 96 94 3e 6e 36 1c be 6f 9a b9 be
       0.7610913 0.29021174 -0.15255138 -0.36250636
0003d0 81 95 1a bf 29 85 24 bf d3 cc 00 bf 3e 33 05 bf
       -0.60384375 -0.64265686 -0.50312537 -0.52031314
0003e0 d0 80 03 3e c3 12 47 3f e1 d6 42 3f a2 96 94 3e
       0.12842107 0.77763003 0.7610913 0.29021174
0003f0 6e 36 1c be 6f 9a b9 be 81 95 1a bf 29 85 24 bf
       -0.15255138 -0.36250636 -0.60384375 -0.64265686

global_orient f4 [172, 3]
000000 64 07 b8 3c d6 a8 34 40 c1 e3 c2 3e e6 55 ba 3c
       0.022464462 2.822805 0.38064387 0.022746038
000010 eb db 34 40 7b 5b c4 3e ea 39 8b 3c 9e e4 34 40
       2.8259227 0.38351044 0.016995389 2.8264537
000020 b3 37 c9 3e 87 ac 83 3c 69 08 35 40 e4 13 cd 3e
       0.39300308 0.016073478 2.8286383 0.40054238
000030 a6 fe 03 3c da 43 35 40 cb 16 cc 3e ed a2 c9 3a
       0.008056318 2.8322663 0.3986114 0.0015383639
000040 0a 2c 35 40 74 f8 d0 3e 43 53 d9 bb 57 d0 34 40
       2.830813 0.40814555 -0.00663224 2.825216
000050 4f 93 d4 3e cf a7 3c bc 95 8d 34 40 ee 69 d3 3e
       0.41518638 -0.011514618 2.8211415 0.41291755
000060 90 58 67 bc d3 30 34 40 ec 45 cf 3e a3 60 4a bc
       -0.014120236 2.81548 0.40483034 -0.012352142
000070 9e 69 33 40 d9 e2 c7 3e 1a 93 a0 bb 2b e5 32 40
       2.8033214 0.3904026 -0.0049003484 2.7952373
000080 11 55 c6 3e 73 16 8e ba 49 d4 31 40 b2 15 c0 3e
       0.38736776 -0.0010840431 2.7785819 0.37516552
000090 68 e1 80 bb 57 57 31 40 cc 52 bd 3e 13 33 3c bc
       -0.0039331205 2.7709558 0.36977232 -0.011486786
0000a0 75 9c 2f 40 66 21 c2 3e 6c 76 80 bc 62 e6 2e 40
       2.7439244 0.37916106 -0.015681468 2.7328115
0000b0 e6 5c bf 3e f5 f5 76 bc 97 0f 2e 40 4b 9e c2 3e
       0.37375563 -0.015073289 2.7197015 0.38011393
0000c0 5c 61 a0 bc df 9a 2d 40 68 b1 c6 3e 58 fe 8a bc
       -0.019577675 2.7125776 0.38807225 -0.016966984
0000d0 99 04 2d 40 b9 76 c7 3e a4 57 1f bc d5 8f 2c 40
       2.7034056 0.38957766 -0.009725485 2.6962788
0000e0 09 eb c6 3e a0 6f 8b bb 67 7a 2c 40 88 a3 c5 3e
       0.38851193 -0.00425525 2.6949708 0.38601327
0000f0 33 ef cd ba 06 23 2c 40 94 3c c1 3e b0 89 90 bb
       -0.0015711546 2.6896377 0.3774153 -0.004410945
000100 6d d3 2b 40 4e 33 bd 3e 35 77 0f bc b5 73 2b 40
       2.6847794 0.36953205 -0.0087564485 2.6789372
000110 4c ac be 3e 8c 65 59 bc 1c c6 2a 40 a2 2a c6 3e
       0.37240827 -0.01326884 2.6683416 0.387044
000120 63 29 d9 bc e7 83 2a 40 0a 62 d2 3e 57 c3 1d bd
       -0.026508993 2.6643007 0.41090423 -0.03851637
000130 8c f2 29 40 c1 2c d8 3e cc 13 41 bd eb 6b 29 40
       2.655429 0.42221645 -0.04713802 2.6472118
000140 f8 ea d7 3e 8b dc 6a bd af 32 29 40 36 42 d5 3e
       0.42171454 -0.057339232 2.6437185 0.41652077
000150 41 55 73 bd 15 2d 29 40 87 84 d1 3e fe 24 68 bd
       -0.059407476 2.6433766 0.40921423 -0.056675903
000160 38 60 29 40 96 d1 cf 3e ed 49 55 bd 34 49 2a 40
       2.6464977 0.4058959 -0.052072454 2.660718
000170 b4 87 cc 3e d4 34 35 bd 02 be 2a 40 cd fb c9 3e
       0.39947283 -0.044239834 2.6678472 0.3944992
000180 ae ab 00 bd e5 c8 2b 40 c2 49 c7 3e a0 63 94 bc
       -0.031413727 2.6841366 0.3892346 -0.018113911
000190 80 cc 2c 40 ad 69 c3 3e 4f 8b ca bb 58 5b 2e 40
       2.6999817 0.38166562 -0.0061811577 2.7243252
0001a0 22 d3 c3 3e 1e 4b f0 3b 54 67 2f 40 a1 3c c0 3e
       0.3824702 0.0073331734 2.7406816 0.37546256
0001b0 fe 1e 79 3c 8a 42 30 40 d0 61 bd 3e ad ab be 3c
       0.015205143 2.7540612 0.36988688 0.02327522
0001c0 a1 fa 30 40 a8 e1 bd 3e 1f d1 fc 3c 4b 16 32 40
       2.7652972 0.37086225 0.030861435 2.7826107
0001d0 26 c4 c6 3e 4e 66 2a 3d e1 22 33 40 6e ae ca 3e
       0.38821524 0.04160147 2.7990038 0.39586204
0001e0 bc ae 31 3d fa ad 33 40 7d 87 c7 3e 6d 52 45 3d
       0.04337953 2.8074937 0.38970557 0.04817431
0001f0 e2 99 34 40 6d ee c6 3e 91 30 48 3d e5 3b 35 40
       2.8218923 0.3885378 0.04887444 2.8317807
000200 39 a7 c7 3e 5b fb 34 3d bb ac 35 40 c4 d0 c4 3e
       0.38994768 0.044185024 2.8386676 0.38440526
000210 94 8e 0b 3d bb f9 35 40 c2 c7 c1 3e 79 b5 d0 3c
       0.03407152 2.8433673 0.37847716 0.025477158
000220 2b ee 35 40 29 2e c1 3e 74 67 82 3c a0 f3 35 40
       2.8426616 0.3773053 0.01591847 2.8429947
000230 9a 05 bc 3e bc 11 c3 ba d9 e7 35 40 23 51 be 3e
       0.36723024 -0.0014882605 2.8422759 0.37171277
000240 60 f7 17 bc e8 f3 35 40 00 c7 c3 3e e2 54 1f bc
       -0.009275287 2.8430119 0.38237762 -0.0097248275
000250 d6 25 36 40 8c 59 cd 3e c0 45 92 bc ea 3f 36 40
       2.8460593 0.4010738 -0.017855525 2.847651
000260 e5 2e d4 3e 6e 32 8d bc c4 44 36 40 33 60 d7 3e
       0.41442028 -0.01723596 2.8479471 0.42065582
000270 65 a0 1c bc a4 70 36 40 69 47 da 3e 8b f1 de 3b
       -0.009559725 2.850625 0.42632607 0.0068036965
000280 ce cb 36 40 ec ca db 3e 57 b6 ff 3c 7a 4c 37 40
       2.8561893 0.42928255 0.031214876 2.8640428
000290 f2 46 df 3e eb 4c 60 3d 88 98 37 40 f9 5c de 3e
       0.43608814 0.054760855 2.8686848 0.43430308
0002a0 fb 77 7e 3d f3 0a 38 40 fd c1 dd 3e 6f 23 90 3d
       0.06212614 2.8756683 0.43312064 0.070380084
0002b0 29 60 38 40 1e bc de 3e f6 14 99 3d 04 18 39 40
       2.8808692 0.43502897 0.07474701 2.8920908
0002c0 dd 79 db 3e fb 33 bf 3d 1e 03 39 40 6f 09 e1 3e
       0.42866412 0.09336086 2.8908153 0.4395251
0002d0 46 98 bc 3d e9 13 39 40 a9 fa e3 3e 2f e9 c1 3d
       0.09208731 2.8918402 0.44527176 0.09468304
0002e0 51 0d 39 40 60 53 e8 3e f0 42 bb 3d 82 d0 38 40
       2.8914378 0.4537611 0.09143627 2.8877263
0002f0 13 af e9 3e c1 1d ba 3d 2e 7c 38 40 4e 49 eb 3e
       0.45641384 0.09087706 2.8825793 0.45954365
000300 3e f8 aa 3d c0 86 38 40 c3 55 e7 3e 7f 8a a9 3d
       0.0834813 2.8832245 0.45182618 0.08278369
000310 b0 55 38 40 f6 40 e2 3e 7a 78 99 3d a9 1d 38 40
       2.88023 0.44190186 0.07493682 2.8768103
000320 2d af dd 3e 91 89 8d 3d 3f dd 37 40 e6 94 d7 3e
       0.4329771 0.06911004 2.8728788 0.42105788
000330 51 68 78 3d b9 a3 37 40 1f 92 d1 3e ae 93 36 3d
       0.06064636 2.8693678 0.40931794 0.044574432
000340 7d 42 37 40 4d 13 cf 3e f7 80 17 3d 71 c6 36 40
       2.8634331 0.40444413 0.036988225 2.855862
000350 2f c6 cc 3e 1b f9 9f 3c 6e 74 36 40 1f db cc 3e
       0.39994952 0.019527962 2.8508563 0.40010926
000360 35 be 77 3b 9c a4 35 40 75 84 d2 3e 89 96 4f bc
       0.0037802581 2.838172 0.41116682 -0.012670168
000370 87 2c 35 40 72 e8 da 3e af ae d2 bc a1 14 35 40
       2.8308427 0.42755467 -0.025718061 2.829384
000380 24 48 e4 3e 2a 8c f1 bc 85 fe 34 40 9c 65 ea 3e
       0.4458629 -0.02948578 2.8280346 0.45780647
000390 62 a1 d6 bc 2e fa 34 40 27 ea ec 3e c3 a6 99 bc
       -0.0262 2.8277698 0.46272394 -0.018756276
0003a0 1f 22 35 40 3e 6c e9 3e 78 ca c8 bb c7 42 35 40
       2.8302076 0.45590395 -0.006127652 2.8322008
0003b0 75 ac e6 3e 87 ed 77 3c 6b 9d 35 40 09 32 e2 3e
       0.4505345 0.0151323145 2.837733 0.441788
0003c0 b0 7f 02 3d 1d d4 35 40 0a df dd 3e 76 05 44 3d
       0.031860054 2.8410714 0.43334228 0.04785677
0003d0 02 2a 36 40 82 a5 d8 3e 42 30 71 3d 33 9d 36 40
       2.846314 0.42313772 0.058883913 2.8533447
0003e0 56 91 d9 3e c7 4a 94 3d d7 3f 37 40 34 cb da 3e
       0.42493695 0.07240825 2.8632715 0.42733157
0003f0 d3 bc b7 3d 5c 85 37 40 b2 de db 3e 2e a2 c9 3d
       0.08971562 2.8675146 0.4294334 0.098453864

transl f4 [172, 3]
000000 1f d3 95 ba c5 9b ac 3f 52 d2 40 39 35 de e1 ba
       -0.0011430717 1.3485037 0.00018388897 -0.001723236
000010 3c 98 ac 3f 61 32 57 b8 d2 53 1d bb bb 97 ac 3f
       1.3483958 -5.1306914e-05 -0.002400626 1.3483804
000020 e7 d0 0a ba 83 2e 49 bb 8a 92 ac 3f 6b 66 ab ba
       -0.0005295411 -0.003069789 1.348222 -0.0013076788
000030 b1 c6 68 bb 49 a5 ac 3f 85 68 1e bb 12 4a 6c bb
       -0.003551882 1.3487941 -0.0024171185 -0.0036054892
000040 28 ad ac 3f 10 2c 7d bb 88 6e 42 bb ea ac ac 3f
       1.3490343 -0.0038631 -0.0029667933 1.3490269
000050 a6 56 b8 bb fc 34 b9 ba c5 c1 ac 3f 2a e4 fa bb
       -0.0056255637 -0.001413017 1.3496634 -0.007656594
000060 c7 5b 99 3a 06 d1 ac 3f fb cf 21 bc 1c 71 9b 3b
       0.0011700325 1.3501289 -0.009876247 0.0047437083
000070 8e e6 ac 3f 44 76 47 bc ff 58 15 3c ff d9 ac 3f
       1.350786 -0.012174193 0.009115457 1.3504027
000080 2b 48 6c bc 69 12 65 3c ae e6 ac 3f ed 14 87 bc
       -0.014421503 0.01398144 1.3507898 -0.01648947
000090 b8 9a 9b 3c e9 00 ad 3f 5c a6 95 bc 8f 42 c3 3c
       0.018994674 1.3515903 -0.018267803 0.023835449
0000a0 c5 04 ad 3f 6f 32 a1 bc 8e 8d e7 3c 00 05 ad 3f
       1.351708 -0.019677369 0.02826574 1.3517151
0000b0 4b 63 a9 bc b4 ba 03 3d 04 f1 ac 3f d6 36 ae bc
       -0.02067723 0.032160476 1.3511052 -0.021266382
0000c0 2e 77 11 3d d9 d1 ac 3f e0 ef af bc 91 5f 1d 3d
       0.03551405 1.350154 -0.021476686 0.038421217
0000d0 33 c3 ac 3f af ed ae bc 26 14 28 3d b3 c0 ac 3f
       1.349707 -0.02135357 0.04103484 1.3496307
0000e0 6e 72 ab bc c1 38 32 3d 7e c6 ac 3f 87 7b a5 bc
       -0.020928588 0.043511156 1.3498075 -0.020200504
0000f0 d1 3d 3c 3d e8 bc ac 3f 70 d5 9c bc d7 39 46 3d
       0.04595739 1.349515 -0.019144744 0.048395004
000100 a2 b0 ac 3f a9 73 91 bc 2c da 4f 3d c9 8f ac 3f
       1.3491404 -0.017755346 0.050745174 1.348138
000110 bc e0 83 bc 5c 6a 58 3d 63 57 ac 3f 36 f4 6a bc
       -0.016098373 0.052835807 1.3464168 -0.014340451
000120 ed ef 5e 3d be 1d ac 3f e9 73 50 bc 2a 57 62 3d
       0.05442803 1.3446577 -0.012722948 0.055258907
000130 ca f1 ab 3f ed 33 3c bc 2a ac 61 3d 98 f2 ab 3f
       1.3433163 -0.011486989 0.05509583 1.3433409
000140 55 b5 30 bc 66 54 5c 3d dc 1c ac 3f 42 26 2e bc
       -0.01078542 0.053791426 1.3446307 -0.010629239
000150 ca 3b 52 3d 50 57 ac 3f 8c 76 32 bc 0f e9 43 3d
       0.05132655 1.3464146 -0.010892522 0.047829684
000160 a8 8e ac 3f ad 32 3a bc 9a 72 32 3d 33 b3 ac 3f
       1.3481035 -0.011364621 0.043566324 1.3492187
000170 5b a2 41 bc 75 56 1f 3d 8e db ac 3f 33 ab 45 bc
       -0.011818494 0.03890081 1.3504503 -0.012064743
000180 69 3b 0c 3d 35 fd ac 3f 91 42 44 bc e8 51 f5 3c
       0.034236345 1.3514773 -0.011978761 0.029946283
000190 ea 11 ad 3f 35 8c 3c bc 5f 8d d7 3c 5b 04 ad 3f
       1.3521092 -0.011508037 0.026312528 1.3516954
0001a0 f6 d3 2e bc e1 69 c0 3c b4 eb ac 3f 85 7d 1c bc
       -0.010670653 0.023487987 1.3509431 -0.009551411
0001b0 15 15 b0 3c a0 d9 ac 3f 81 eb 07 bc 11 e9 a5 3c
       0.021494428 1.3503914 -0.008295895 0.020252736
0001c0 64 be ac 3f 4b 89 e8 bb be ce a0 3c 57 87 ac 3f
       1.3495603 -0.0070964447 0.019629832 1.3478802
0001d0 67 11 ca bb 80 9f 9f 3c 3f 6c ac 3f 91 f9 ba bb
       -0.0061666253 0.019485235 1.3470534 -0.00570602
0001e0 cb 6a a1 3c 56 89 ac 3f c8 2b c0 bb 57 9b a5 3c
       0.019704243 1.3479412 -0.005864594 0.020215673
0001f0 36 95 ac 3f de 19 dc bb 8b fe ab 3c ff a0 ac 3f
       1.3483036 -0.006716951 0.020995399 1.3486632
000200 2d 2d 07 bc 2a aa b4 3c 4e d0 ac 3f 28 d0 29 bc
       -0.008250517 0.022053797 1.350107 -0.01036457
000210 16 bc bf 3c d6 f2 ac 3f e3 f2 52 bc 96 04 cd 3c
       0.023405116 1.3511608 -0.0128752915 0.0250266
000220 38 0b ad 3f 51 6f 7e bc 7a bf db 3c 43 1e ad 3f
       1.3519049 -0.01552947 0.026824702 1.352486
000230 2e b9 93 bc 3d 8b ea 3c 78 f5 ac 3f 22 9a a4 bc
       -0.018032636 0.028630847 1.3512411 -0.020093028
000240 2b ae f7 3c 70 bc ac 3f 09 e5 af bc fe c8 00 3d
       0.030234417 1.3495007 -0.021471517 0.03144168
000250 6d 5b ac 3f d3 61 b4 bc 58 9a 03 3d 87 33 ac 3f
       1.3465401 -0.022019302 0.032129616 1.3453225
000260 cf b1 b1 bc 50 2f 04 3d 4c 1e ac 3f ea 3a a8 bc
       -0.021691231 0.032271683 1.3446746 -0.020535905
000270 b9 c9 02 3d 5b 23 ac 3f 06 fa 98 bc 1d dc ff 3c
       0.03193066 1.344829 -0.018673908 0.031232888
000280 8f 4d ac 3f b3 52 85 bc 3f 8a f8 3c 49 74 ac 3f
       1.3461169 -0.016274786 0.030339358 1.3472987
000290 ee c2 5d bc 25 01 f1 3c f6 bb ac 3f c3 99 2e bc
       -0.013535244 0.029419491 1.3494861 -0.010656777
0002a0 55 75 ea 3c 22 d7 ac 3f 1d 2e 00 bc 04 a2 e5 3c
       0.028620401 1.3503153 -0.007823494 0.028031357
0002b0 ae e3 ac 3f 8b f1 a9 bb 43 94 e2 3c 94 e5 ac 3f
       1.3506982 -0.005186265 0.027658587 1.3507562
0002c0 90 48 3b bb 9f b4 e0 3c a2 8a ac 3f 60 bb 70 ba
       -0.0028577186 0.027429877 1.3479807 -0.00091831945
0002d0 3a 1f df 3c 27 6a ac 3f 9e 53 16 3a 60 20 dd 3c
       0.02723657 1.3469895 0.0005734506 0.026992977
0002e0 57 4b ac 3f b2 7e ce 3a f1 90 da 3c cf 3e ac 3f
       1.3460492 0.0015754311 0.026680442 1.3456668
0002f0 5e 32 07 3b 32 e2 d7 3c 4a 34 ac 3f 16 46 05 3b
       0.0020629386 0.026352976 1.3453457 0.0020335964
000300 1a e1 d5 3c e3 5e ac 3f 30 d6 c5 3a 05 65 d5 3c
       0.026108313 1.3466457 0.001509374 0.026049146
000310 5b 78 ac 3f de e4 0b 3a 3c 1a d7 3c 8c 92 ac 3f
       1.347423 0.0005336533 0.026257627 1.3482223
000320 0f 7b 5a ba 0e 75 db 3c bc a9 ac 3f 4c dc 24 bb
       -0.0008334377 0.026789214 1.3489299 -0.0025155721
000330 6c b3 e2 3c 55 c2 ac 3f 4b a5 90 bb 14 cf ec 3c
       0.027673446 1.3496805 -0.0044142357 0.028907336
000340 6c e6 ac 3f 45 d3 d1 bb c1 58 f9 3c 36 f1 ac 3f
       1.3507819 -0.006403359 0.030437829 1.3511112
000350 11 8c 08 bc 87 ad 03 3d 06 e6 ac 3f 54 cb 24 bc
       -0.008334176 0.03214791 1.3507698 -0.010058243
000360 91 b3 0a 3d 59 bf ac 3f f7 c5 3b bc 0a ec 10 3d
       0.033862654 1.3495895 -0.011460773 0.035381354
000370 83 8f ac 3f ad 99 4c bc 69 97 15 3d 31 3a ac 3f
       1.3481296 -0.012487811 0.03652135 1.3455259
000380 ac 78 57 bc b3 2f 18 3d 77 05 ac 3f 9e 49 5d bc
       -0.013151329 0.037154865 1.3439168 -0.013506321
000390 60 79 18 3d 7a 00 ac 3f ac fe 5e bc cf 83 16 3d
       0.037225127 1.3437645 -0.013610523 0.036746796
0003a0 d3 0e ac 3f 02 f4 5c bc 24 a6 12 3d 99 32 ac 3f
       1.3442024 -0.01348591 0.035802975 1.3452941
0003b0 2d aa 56 bc a6 7f 0d 3d 21 59 ac 3f 43 f9 4a bc
       -0.0131020965 0.034545563 1.34647 -0.01238853
0003c0 4a f2 07 3d 07 86 ac 3f 13 a9 38 bc 9c 09 03 3d
       0.03319005 1.3478402 -0.011270779 0.031991586
0003d0 ad af ac 3f 13 27 1f bc 78 90 ff 3c 10 a4 ac 3f
       1.3491112 -0.009713906 0.031196818 1.3487568
0003e0 53 01 fe bb fb d3 fd 3c 24 86 ac 3f 9f e2 b3 bb
       -0.0077516227 0.03098487 1.3478436 -0.005489662
0003f0 01 b5 00 3d c2 4b ac 3f 3e 31 4a bb cc ed 04 3d
       0.03142262 1.346062 -0.0030852105 0.032453343

body_pose f4 [172, 63]
000000 ca b7 54 3e ed f0 50 3d fe 5c 3f bc 54 7c ba 3d
       0.20773235 0.051011015 -0.011679886 0.09105745
000010 9b 26 b3 bd ca 57 00 3d d4 8f 48 3e f9 5f 32 3c
       -0.08747598 0.031333722 0.19586116 0.0108871395
000020 52 66 4d bd 49 2a 2d 3d 3c 79 18 be 27 73 2c bc
       -0.05014641 0.042276654 -0.14889997 -0.010525501
000030 82 58 a2 3e e8 f3 97 bd f1 29 21 bd 5e 93 28 3e
       0.3170815 -0.07419568 -0.03934664 0.16462466
000040 a2 ef 83 bc d2 d4 30 3b 41 68 af bd 3b 39 f0 3d
       -0.016105477 0.002698232 -0.08564807 0.11729666
000050 49 cd 23 bc 8f 55 af bd 60 98 0f be 32 55 a9 bc
       -0.009997674 -0.08561241 -0.1402297 -0.020670507
000060 cf ce db 3c 7e a2 b0 3b 88 c2 08 3a 58 b9 4c bc
       0.026832012 0.0053904643 0.00052169757 -0.012495361
000070 4a b7 cd 3c 38 aa f4 3c f6 74 22 bd be a3 f5 3c
       0.025111813 0.029866323 -0.039662324 0.029985305
000080 a8 f5 bd 3c 72 cc f4 3e 97 34 f7 bd 51 de 02 bd
       0.023188427 0.4781223 -0.120705776 -0.0319503
000090 9a da 10 be 04 69 8b be 24 4d 34 3d b7 f6 de bd
       -0.1414589 -0.27228558 0.04401888 -0.10886901
0000a0 a7 fa 69 3e 46 65 8d be 13 f6 dd 3d f1 68 7a 3d
       0.22849523 -0.27616328 0.108379506 0.061135236
0000b0 45 82 26 3e 13 11 6c be 36 9b 19 bf f6 5f 63 bf
       0.16260631 -0.23053388 -0.6000246 -0.888183
0000c0 bd 21 e5 bd 54 f5 50 3e c9 9a 0c 3f 3f d1 52 be
       -0.11188076 0.20406085 0.54923683 -0.20587634
0000d0 ec 35 92 bf 37 95 b9 3e 6a 7a 0d be 94 34 b1 3f
       -1.1422706 0.36246654 -0.13816229 1.384417
0000e0 e1 29 d4 be 16 d0 d9 3d b4 51 08 be 50 93 28 3f
       -0.414382 0.10635392 -0.13312417 0.6584978
0000f0 2e bf 5d 3c 3e 72 2a 3e 22 35 00 bf 2e a4 58 3e
       0.01353435 0.16645142 -0.50081074 0.2115638
000100 19 97 55 3d 82 e3 43 bc 36 43 ad 3d a7 5a af bd
       0.05214605 -0.011956098 0.08460085 -0.085622124
000110 20 34 fd 3c c0 31 4c 3e af 4f 08 3c db 4f 4b bd
       0.030908644 0.19940853 0.008319779 -0.049636703
000120 61 0c 1a 3d 69 ea 19 be df 8d 34 bc e2 af a9 3e
       0.03760946 -0.15030827 -0.011020153 0.33142
000130 8a 1a 91 bd 62 93 22 bd 38 9a 27 3e c2 57 75 bc
       -0.0708514 -0.039691336 0.16367424 -0.014974536
000140 c4 80 6c 3b 31 59 ae bd dc 20 ee 3d bc bd 32 bc
       0.0036087492 -0.08513106 0.11627361 -0.010909494
000150 dc 9d a8 bd 69 9b 16 be c9 f5 b6 bc d7 0e ca 3c
       -0.08233234 -0.14707722 -0.022333996 0.02466528
000160 bd 1c aa 3b 4a 4a 97 ba 15 81 83 bc 8f ca b6 3c
       0.005191414 -0.0011542526 -0.016052762 0.022313384
000170 d9 15 02 3d 9a 27 2d bd 99 3c 03 3d 4b 82 a4 3c
       0.031759117 -0.042274095 0.032040212 0.02008166
000180 46 f8 f3 3e 9a df fd bd 6b a1 02 bd 9d af 12 be
       0.47650355 -0.12396164 -0.03189222 -0.14324804
000190 68 2e 8f be b0 05 44 3d 67 4e dd bd ee 04 72 3e
       -0.27965093 0.047856987 -0.1080597 0.23634693
0001a0 ce a2 8e be 10 33 e2 3d 4d e4 78 3d da fb 27 3e
       -0.27858585 0.11044896 0.0607646 0.16404667
0001b0 7d 54 6c be 6f bc 1d bf 2f df 63 bf 25 ba f8 bd
       -0.23079105 -0.6161565 -0.89012426 -0.12144879
0001c0 a7 1c 54 3e e8 fc 08 3f 40 78 47 be e7 a6 90 bf
       0.20714055 0.53510904 -0.19479465 -1.1300935
0001d0 b4 78 ba 3e db e1 0c be 6c c6 aa 3f d2 10 cd be
       0.36420214 -0.13758032 1.3341804 -0.40051895
0001e0 ac b0 ea 3d a1 ae 0c be 0e 0f 2a 3f 66 6d 85 3c
       0.11459479 -0.1373849 0.6642922 0.016287517
0001f0 67 e7 2d 3e bf 5f 02 bf 58 de 60 3e 74 a3 57 3d
       0.16982804 -0.50927347 0.21959817 0.052646115
000200 e8 2a 29 bc c5 d8 a8 3d ac 4a ac bd 5e f4 fe 3c
       -0.010325171 0.082444705 -0.0841268 0.031122383
000210 84 50 4f 3e 80 b1 b0 3b 0c f7 43 bd e6 1e 16 3d
       0.20245558 0.0053922534 -0.047843024 0.03665056
000220 bb 4e 1c be 62 f8 16 bc 93 05 b2 3e 3e 2d 8d bd
       -0.15264408 -0.0092144925 0.34769878 -0.06893395
000230 92 72 14 bd b7 cd 26 3e 78 a5 55 bc 4d 8d 94 3b
       -0.036242075 0.16289411 -0.013039939 0.004533446
000240 1b 6e b1 bd d8 e1 f3 3d 96 1c 25 bc 10 03 9f bd
       -0.08663579 0.11908311 -0.010077616 -0.07764256
000250 97 d3 1a be cc a8 b3 bc 85 51 aa 3c 46 0c ab 3b
       -0.15119778 -0.021931075 0.020790825 0.005219969
000260 03 3d 3e bb dc 5e 92 bc 4b f2 86 3c 7e 95 fd 3c
       -0.0029028065 -0.017867498 0.016472956 0.030955072
000270 dc 01 2c bd 15 3f 0f 3d d3 76 9a 3c cf cf f2 3e
       -0.04199396 0.03497227 0.018855488 0.4742417
000280 0c 5d 01 be 69 ba 05 bd 6e 5e 14 be a9 f5 96 be
       -0.12633151 -0.032648478 -0.14489147 -0.294843
000290 d2 64 62 3d 8b 20 d8 bd e1 8b 7f 3e 97 e8 92 be
       0.05527193 -0.10553082 0.24955703 -0.28693077
0002a0 e0 74 e6 3d 8a 1a 7b 3d cc 7b 2a 3e d7 1e 6d be
       0.11252761 0.061304606 0.16648787 -0.23156296
0002b0 25 1a 22 bf 0f 77 63 bf d5 db 06 be 76 53 5a 3e
       -0.63321143 -0.88853544 -0.13169797 0.213209
0002c0 6d 9e 04 3f 06 7a 37 be 86 4b 8e bf 7a a0 b2 3e
       0.5180424 -0.17917642 -1.1116798 0.3488806
0002d0 88 16 00 be 4e ff a1 3f fd 73 bf be ef 11 f8 3d
       -0.12508595 1.2656038 -0.3739318 0.121127956
0002e0 52 e7 10 be 16 fb 28 3f b6 5b da 3c 24 7e 32 3e
       -0.14150742 0.66008127 0.02665506 0.17430931
0002f0 a6 ed 02 bf cf ab 69 3e db 3a 50 3d a9 41 25 bc
       -0.5114387 0.22819446 0.05083738 -0.010086455
000300 a2 59 9d 3d 54 82 ac bd 6d d6 e8 3c a5 4b 4f 3e
       0.07683112 -0.084232956 0.028422559 0.202437
000310 ec 45 8d 3b 7f 36 35 bd d0 93 04 3d 37 32 1b be
       0.004311314 -0.044241425 0.032367527 -0.15155874
000320 6d 61 35 bc ff dd ba 3e e2 ab 8a bd bb d1 05 bd
       -0.011070591 0.36497495 -0.06771065 -0.032670718
000330 2e a8 24 3e 13 fe 30 bc df 4a 95 3b 19 15 b8 bd
       0.1607978 -0.0108027635 0.0045560445 -0.08988399
000340 52 6f f3 3d b0 ce 43 bc ae 08 a0 bd 74 57 1f be
       0.11886467 -0.011951134 -0.078141555 -0.15560704
000350 8e ba ac bc 04 ce a1 3c 02 5b db 3b a1 4c f4 bb
       -0.02108505 0.019751556 0.0066941986 -0.007455424
000360 89 97 df bc b0 31 da 3b ac 5b 01 3d 43 f7 31 bd
       -0.027293937 0.0066587552 0.031581566 -0.043448698
000370 02 45 23 3d 54 88 7d 3c b2 e9 f3 3e da 5a ff bd
       0.039860733 0.015474398 0.47639233 -0.124685004
000380 3b 69 ec bc 12 d5 1c be 3e 3b a2 be a0 5f 93 3d
       -0.028858772 -0.15315655 -0.31685823 0.071959734
000390 a4 e6 d5 bd 85 32 8d 3e f8 fc 99 be 2b 0e f6 3d
       -0.10444382 0.27577606 -0.30075812 0.12014421
0003a0 c1 83 80 3d 00 90 2c 3e dd e6 69 be 7c 8d 28 bf
       0.0627513 0.16851807 -0.22841974 -0.6584089
0003b0 3b 47 63 bf ff e8 15 be e5 ab 70 3e 92 77 fd 3e
       -0.88780564 -0.14639662 0.23503073 0.49505287
0003c0 df 2a 1a be 6c b3 89 bf 38 8a a4 3e 39 d9 e2 bd
       -0.15055417 -1.075788 0.32136703 -0.11076588
0003d0 7d 7d 91 3f 9f 75 a2 be 6c 49 01 3e ae 30 14 be
       1.1366421 -0.31730363 0.12625664 -0.14471695
0003e0 f8 3d 2c 3f 63 1f 06 3d ee 1a 36 3e 94 76 06 bf
       0.67282057 0.032744776 0.1778371 -0.52524686
0003f0 3a 69 6b 3e ab fc 4a 3d 40 7f f9 bb d9 b6 94 3d
       0.2298936 0.04955737 -0.0076140463 0.07261438

betas f4 [172, 10]
000000 e1 d6 42 3f a2 96 94 3e 6e 36 1c be 6f 9a b9 be
       0.7610913 0.29021174 -0.15255138 -0.36250636
000010 81 95 1a bf 29 85 24 bf d3 cc 00 bf 3e 33 05 bf
       -0.60384375 -0.64265686 -0.50312537 -0.52031314
000020 d0 80 03 3e c3 12 47 3f e1 d6 42 3f a2 96 94 3e
       0.12842107 0.77763003 0.7610913 0.29021174
000030 6e 36 1c be 6f 9a b9 be 81 95 1a bf 29 85 24 bf
       -0.15255138 -0.36250636 -0.60384375 -0.64265686
000040 d3 cc 00 bf 3e 33 05 bf d0 80 03 3e c3 12 47 3f
       -0.50312537 -0.52031314 0.12842107 0.77763003
000050 e1 d6 42 3f a2 96 94 3e 6e 36 1c be 6f 9a b9 be
       0.7610913 0.29021174 -0.15255138 -0.36250636
000060 81 95 1a bf 29 85 24 bf d3 cc 00 bf 3e 33 05 bf
       -0.60384375 -0.64265686 -0.50312537 -0.52031314
000070 d0 80 03 3e c3 12 47 3f e1 d6 42 3f a2 96 94 3e
       0.12842107 0.77763003 0.7610913 0.29021174
000080 6e 36 1c be 6f 9a b9 be 81 95 1a bf 29 85 24 bf
       -0.15255138 -0.36250636 -0.60384375 -0.64265686
000090 d3 cc 00 bf 3e 33 05 bf d0 80 03 3e c3 12 47 3f
       -0.50312537 -0.52031314 0.12842107 0.77763003
0000a0 e1 d6 42 3f a2 96 94 3e 6e 36 1c be 6f 9a b9 be
       0.7610913 0.29021174 -0.15255138 -0.36250636
0000b0 81 95 1a bf 29 85 24 bf d3 cc 00 bf 3e 33 05 bf
       -0.60384375 -0.64265686 -0.50312537 -0.52031314
0000c0 d0 80 03 3e c3 12 47 3f e1 d6 42 3f a2 96 94 3e
       0.12842107 0.77763003 0.7610913 0.29021174
0000d0 6e 36 1c be 6f 9a b9 be 81 95 1a bf 29 85 24 bf
       -0.15255138 -0.36250636 -0.60384375 -0.64265686
0000e0 d3 cc 00 bf 3e 33 05 bf d0 80 03 3e c3 12 47 3f
       -0.50312537 -0.52031314 0.12842107 0.77763003
0000f0 e1 d6 42 3f a2 96 94 3e 6e 36 1c be 6f 9a b9 be
       0.7610913 0.29021174 -0.15255138 -0.36250636
000100 81 95 1a bf 29 85 24 bf d3 cc 00 bf 3e 33 05 bf
       -0.60384375 -0.64265686 -0.50312537 -0.52031314
000110 d0 80 03 3e c3 12 47 3f e1 d6 42 3f a2 96 94 3e
       0.12842107 0.77763003 0.7610913 0.29021174
000120 6e 36 1c be 6f 9a b9 be 81 95 1a bf 29 85 24 bf
       -0.15255138 -0.36250636 -0.60384375 -0.64265686
000130 d3 cc 00 bf 3e 33 05 bf d0 80 03 3e c3 12 47 3f
       -0.50312537 -0.52031314 0.12842107 0.77763003
000140 e1 d6 42 3f a2 96 94 3e 6e 36 1c be 6f 9a b9 be
       0.7610913 0.29021174 -0.15255138 -0.36250636
000150 81 95 1a bf 29 85 24 bf d3 cc 00 bf 3e 33 05 bf
       -0.60384375 -0.64265686 -0.50312537 -0.52031314
000160 d0 80 03 3e c3 12 47 3f e1 d6 42 3f a2 96 94 3e
       0.12842107 0.77763003 0.7610913 0.29021174
000170 6e 36 1c be 6f 9a b9 be 81 95 1a bf 29 85 24 bf
       -0.15255138 -0.36250636 -0.60384375 -0.64265686
000180 d3 cc 00 bf 3e 33 05 bf d0 80 03 3e c3 12 47 3f
       -0.50312537 -0.52031314 0.12842107 0.77763003
000190 e1 d6 42 3f a2 96 94 3e 6e 36 1c be 6f 9a b9 be
       0.7610913 0.29021174 -0.15255138 -0.36250636
0001a0 81 95 1a bf 29 85 24 bf d3 cc 00 bf 3e 33 05 bf
       -0.60384375 -0.64265686 -0.50312537 -0.52031314
0001b0 d0 80 03 3e c3 12 47 3f e1 d6 42 3f a2 96 94 3e
       0.12842107 0.77763003 0.7610913 0.29021174
0001c0 6e 36 1c be 6f 9a b9 be 81 95 1a bf 29 85 24 bf
       -0.15255138 -0.36250636 -0.60384375 -0.64265686
0001d0 d3 cc 00 bf 3e 33 05 bf d0 80 03 3e c3 12 47 3f
       -0.50312537 -0.52031314 0.12842107 0.77763003
0001e0 e1 d6 42 3f a2 96 94 3e 6e 36 1c be 6f 9a b9 be
       0.7610913 0.29021174 -0.15255138 -0.36250636
0001f0 81 95 1a bf 29 85 24 bf d3 cc 00 bf 3e 33 05 bf
       -0.60384375 -0.64265686 -0.50312537 -0.52031314
000200 d0 80 03 3e c3 12 47 3f e1 d6 42 3f a2 96 94 3e
       0.12842107 0.77763003 0.7610913 0.29021174
000210 6e 36 1c be 6f 9a b9 be 81 95 1a bf 29 85 24 bf
       -0.15255138 -0.36250636 -0.60384375 -0.64265686
000220 d3 cc 00 bf 3e 33 05 bf d0 80 03 3e c3 12 47 3f
       -0.50312537 -0.52031314 0.12842107 0.77763003
000230 e1 d6 42 3f a2 96 94 3e 6e 36 1c be 6f 9a b9 be
       0.7610913 0.29021174 -0.15255138 -0.36250636
000240 81 95 1a bf 29 85 24 bf d3 cc 00 bf 3e 33 05 bf
       -0.60384375 -0.64265686 -0.50312537 -0.52031314
000250 d0 80 03 3e c3 12 47 3f e1 d6 42 3f a2 96 94 3e
       0.12842107 0.77763003 0.7610913 0.29021174
000260 6e 36 1c be 6f 9a b9 be 81 95 1a bf 29 85 24 bf
       -0.15255138 -0.36250636 -0.60384375 -0.64265686
000270 d3 cc 00 bf 3e 33 05 bf d0 80 03 3e c3 12 47 3f
       -0.50312537 -0.52031314 0.12842107 0.77763003
000280 e1 d6 42 3f a2 96 94 3e 6e 36 1c be 6f 9a b9 be
       0.7610913 0.29021174 -0.15255138 -0.36250636
000290 81 95 1a bf 29 85 24 bf d3 cc 00 bf 3e 33 05 bf
       -0.60384375 -0.64265686 -0.50312537 -0.52031314
0002a0 d0 80 03 3e c3 12 47 3f e1 d6 42 3f a2 96 94 3e
       0.12842107 0.77763003 0.7610913 0.29021174
0002b0 6e 36 1c be 6f 9a b9 be 81 95 1a bf 29 85 24 bf
       -0.15255138 -0.36250636 -0.60384375 -0.64265686
0002c0 d3 cc 00 bf 3e 33 05 bf d0 80 03 3e c3 12 47 3f
       -0.50312537 -0.52031314 0.12842107 0.77763003
0002d0 e1 d6 42 3f a2 96 94 3e 6e 36 1c be 6f 9a b9 be
       0.7610913 0.29021174 -0.15255138 -0.36250636
0002e0 81 95 1a bf 29 85 24 bf d3 cc 00 bf 3e 33 05 bf
       -0.60384375 -0.64265686 -0.50312537 -0.52031314
0002f0 d0 80 03 3e c3 12 47 3f e1 d6 42 3f a2 96 94 3e
       0.12842107 0.77763003 0.7610913 0.29021174
000300 6e 36 1c be 6f 9a b9 be 81 95 1a bf 29 85 24 bf
       -0.15255138 -0.36250636 -0.60384375 -0.64265686
000310 d3 cc 00 bf 3e 33 05 bf d0 80 03 3e c3 12 47 3f
       -0.50312537 -0.52031314 0.12842107 0.77763003
000320 e1 d6 42 3f a2 96 94 3e 6e 36 1c be 6f 9a b9 be
       0.7610913 0.29021174 -0.15255138 -0.36250636
000330 81 95 1a bf 29 85 24 bf d3 cc 00 bf 3e 33 05 bf
       -0.60384375 -0.64265686 -0.50312537 -0.52031314
000340 d0 80 03 3e c3 12 47 3f e1 d6 42 3f a2 96 94 3e
       0.12842107 0.77763003 0.7610913 0.29021174
000350 6e 36 1c be 6f 9a b9 be 81 95 1a bf 29 85 24 bf
       -0.15255138 -0.36250636 -0.60384375 -0.64265686
000360 d3 cc 00 bf 3e 33 05 bf d0 80 03 3e c3 12 47 3f
       -0.50312537 -0.52031314 0.12842107 0.77763003
000370 e1 d6 42 3f a2 96 94 3e 6e 36 1c be 6f 9a b9 be
       0.7610913 0.29021174 -0.15255138 -0.36250636
000380 81 95 1a bf 29 85 24 bf d3 cc 00 bf 3e 33 05 bf
       -0.60384375 -0.64265686 -0.50312537 -0.52031314
000390 d0 80 03 3e c3 12 47 3f e1 d6 42 3f a2 96 94 3e
       0.12842107 0.77763003 0.7610913 0.29021174
0003a0 6e 36 1c be 6f 9a b9 be 81 95 1a bf 29 85 24 bf
       -0.15255138 -0.36250636 -0.60384375 -0.64265686
0003b0 d3 cc 00 bf 3e 33 05 bf d0 80 03 3e c3 12 47 3f
       -0.50312537 -0.52031314 0.12842107 0.77763003
0003c0 e1 d6 42 3f a2 96 94 3e 6e 36 1c be 6f 9a b9 be
       0.7610913 0.29021174 -0.15255138 -0.36250636
0003d0 81 95 1a bf 29 85 24 bf d3 cc 00 bf 3e 33 05 bf
       -0.60384375 -0.64265686 -0.50312537 -0.52031314
0003e0 d0 80 03 3e c3 12 47 3f e1 d6 42 3f a2 96 94 3e
       0.12842107 0.77763003 0.7610913 0.29021174
0003f0 6e 36 1c be 6f 9a b9 be 81 95 1a bf 29 85 24 bf
       -0.15255138 -0.36250636 -0.60384375 -0.64265686

global_orient f4 [172, 3]
000000 fe 5f 3a 40 a7 a1 36 3d 22 95 c8 be 38 79 3a 40
       2.912109 0.044587757 -0.3917628 2.9136486
000010 38 cc 35 3d 5f 00 c6 be 8c 59 3a 40 81 f9 41 3d
       0.04438421 -0.38672158 2.9117155 0.047357086
000020 01 38 c5 be a4 14 3a 40 c8 41 4e 3d ee b8 c2 be
       -0.3851929 2.9075098 0.050355703 -0.38031715
000030 fc 15 3a 40 90 49 5c 3d aa e8 c0 be 4c f7 39 40
       2.9075918 0.053781092 -0.3767751 2.9057188
000040 97 99 72 3d 75 21 c1 be fe d4 39 40 d8 f3 81 3d
       0.059228506 -0.37720838 2.903625 0.06345338
000050 f6 29 c4 be fc cc 39 40 35 23 87 3d 90 65 c8 be
       -0.38313264 2.9031363 0.06598512 -0.39139986
000060 b1 f6 39 40 6b f4 8c 3d 41 fa ce be 23 1b 3a 40
       2.9056818 0.068825565 -0.40425304 2.9079063
000070 b1 24 8c 3d 51 4a d9 be a5 3b 3a 40 2e 65 90 3d
       0.06842936 -0.4243951 2.9098904 0.070505485
000080 c6 9e e0 be bc 4d 3a 40 6e 3c 92 3d 65 d2 ed be
       -0.43871135 2.9109945 0.07140432 -0.4644958
000090 16 63 3a 40 8f 06 9c 3d ae 4a f5 be a7 96 39 40
       2.9122977 0.076184385 -0.4790854 2.89982
0000a0 a7 9b ae 3d 98 39 04 bf ca 47 39 40 4d ee ba 3d
       0.08525782 -0.5165038 2.8950067 0.091274835
0000b0 82 87 08 bf 32 b0 38 40 68 cc be 3d 3f 8e 0c bf
       -0.5333177 2.885754 0.09316331 -0.5490455
0000c0 27 55 38 40 69 13 c1 3d 5e e8 0e bf dc 1a 38 40
       2.8801973 0.0942753 -0.55823314 2.8766394
0000d0 b3 18 bf 3d e7 23 12 bf ff 24 38 40 9e 35 b4 3d
       0.09330883 -0.5708603 2.877258 0.08799289
0000e0 65 bb 14 bf eb 2e 38 40 32 fd ad 3d 5e b6 15 bf
       -0.5809844 2.8778636 0.08495559 -0.58481395
0000f0 e5 44 38 40 34 06 ab 3d 61 ca 17 bf cf 5a 38 40
       2.879205 0.083507925 -0.5929318 2.8805425
000100 61 d2 af 3d 90 0d 1a bf 04 27 38 40 60 61 b5 3d
       0.085850485 -0.60176945 2.8773813 0.088564634
000110 7e 05 1c bf 00 99 37 40 a9 d3 c1 3d 60 63 1e bf
       -0.6094588 2.8687134 0.09464199 -0.61870384
000120 05 d3 36 40 3f 77 d9 3d c0 f5 1d bf d2 26 36 40
       2.8566296 0.106184475 -0.6170311 2.8461194
000130 6a fa f0 3d 25 93 1f bf 1b c0 35 40 05 9f 00 3e
       0.11766513 -0.623339 2.8398502 0.12560661
000140 ed 5a 21 bf 82 8b 35 40 a4 34 06 3e 0d 58 22 bf
       -0.63029367 2.83664 0.13106018 -0.63415605
000150 4a 9a 35 40 5d 5e 05 3e 0c b7 22 bf 22 de 35 40
       2.837542 0.13024278 -0.6356056 2.841683
000160 44 3c 00 3e 09 e1 21 bf 3c 83 36 40 32 4a f0 3d
       0.1252299 -0.63234 2.85176 0.11732902
000170 3c 25 1e bf fa 03 37 40 fd 18 d5 3d c1 22 1c bf
       -0.61775565 2.8596177 0.10405157 -0.6099053
000180 6c b2 37 40 9b e1 ba 3d c0 c5 16 bf e7 77 38 40
       2.870265 0.09125062 -0.5889549 2.8823183
000190 90 15 9d 3d 92 d8 11 bf 1c 1f 39 40 ef 8c 8a 3d
       0.07670128 -0.56971085 2.8925238 0.06765162
0001a0 67 5b 09 bf 14 cf 39 40 9d f2 6f 3d 68 ef 02 bf
       -0.53655094 2.903264 0.058580983 -0.51146555
0001b0 f7 49 3a 40 4b eb 59 3d b3 17 fb be da 95 3a 40
       2.9107645 0.05320291 -0.4904152 2.9153962
0001c0 35 29 3b 3d cb b1 f0 be 38 8c 3a 40 01 f2 2a 3d
       0.045693595 -0.47010645 2.9148083 0.0417347
0001d0 43 b3 e3 be 20 9f 3a 40 2e 3c 0c 3d 57 ba d7 be
       -0.44472703 2.9159622 0.03423708 -0.42134354
0001e0 2f d2 3a 40 c1 37 04 3d 24 8b d1 be 27 15 3b 40
       2.9190786 0.032279734 -0.40926468 2.923166
0001f0 de de f8 3c 16 25 c7 be 45 20 3b 40 17 4b 02 3d
       0.030379709 -0.38895482 2.9238446 0.031809893
000200 a3 e8 c0 be f7 13 3b 40 8d 39 07 3d dc a0 bc be
       -0.37677488 2.9230936 0.03301387 -0.36841476
000210 40 27 3b 40 c2 0e 21 3d 1a f5 b9 be 0c f4 3a 40
       2.9242706 0.039320715 -0.3631981 2.9211454
000220 0c 60 48 3d af 2f ba be a0 b2 3a 40 c7 57 6f 3d
       0.048919722 -0.36364505 2.9171524 0.05843332
000230 40 85 ba be ca 3b 3a 40 d0 61 96 3d 4a 57 b8 be
       -0.36429787 2.9098992 0.07342875 -0.36004096
000240 ee e2 39 40 6e 83 a7 3d bd 9b b4 be 6f 59 39 40
       2.9044757 0.08179365 -0.3527507 2.8960836
000250 85 8e b4 3d 51 67 af be 84 1a 39 40 93 c5 bf 3d
       0.08816246 -0.34258512 2.8922434 0.09363856
000260 ba bf ac be cf 08 39 40 80 a0 bc 3d 06 a3 ab be
       -0.33740026 2.8911626 0.092103004 -0.33522815
000270 0f 10 39 40 18 20 b2 3d 5e f1 a8 be fa 50 39 40
       2.8916051 0.08697528 -0.3299665 2.8955674
000280 c9 b3 9d 3d 9d a9 a5 be 1c b3 39 40 b9 8d 6c 3d
       0.07700307 -0.32355967 2.901557 0.057752345
000290 1f 5d a0 be 9b 03 3a 40 dc d7 2e 3d d2 76 9e be
       -0.31321046 2.90647 0.04268633 -0.30950028
0002a0 82 72 3a 40 71 07 0e 3d 70 20 99 be 17 96 3a 40
       2.913239 0.034675065 -0.2990756 2.9154108
0002b0 c4 b1 df 3c 58 6e 95 be 90 d8 3a 40 30 ea b9 3c
       0.027306445 -0.29185748 2.919468 0.022694677
0002c0 ab b1 8e be e5 b7 3a 40 00 60 93 3c 4e b5 8b be
       -0.27869925 2.917474 0.017990112 -0.27286762
0002d0 e1 7f 3a 40 25 04 83 3c 2e 34 8a be c0 2f 3a 40
       2.914055 0.015993187 -0.26992935 2.9091644
0002e0 54 cf 46 3c 0d 89 8a be 01 f9 39 40 16 97 60 3c
       0.012134392 -0.27057686 2.905823 0.013707897
0002f0 55 ff 8c be ca d3 39 40 4b 66 5d 3c b1 44 90 be
       -0.27538553 2.9035516 0.013513158 -0.28177407
000300 3e e2 39 40 92 1e 79 3c 32 b3 90 be 5a 0a 3a 40
       2.9044337 0.015205042 -0.28261715 2.9068818
000310 53 65 97 3c d9 61 93 be e0 33 3a 40 1d 87 c5 3c
       0.018480932 -0.2878559 2.9094162 0.024112279
000320 e2 62 97 be ba 74 3a 40 67 47 f2 3c 10 08 9c be
       -0.2956763 2.9133744 0.029575063 -0.304749
000330 23 a9 3a 40 33 3c 19 3d a9 73 9f be 50 a4 3a 40
       2.9165733 0.037410926 -0.3114293 2.9162788
000340 41 fd 38 3d 18 70 a7 be f1 35 3a 40 13 e0 5a 3d
       0.045163397 -0.32702708 2.9095423 0.05343635
000350 57 5a ae be e2 c9 39 40 9f 67 8c 3d 2d 59 b0 be
       -0.340533 2.902947 0.06855702 -0.34443036
000360 64 e9 38 40 bf 83 ac 3d 9f 6c b6 be 3b 26 38 40
       2.889245 0.08423566 -0.35629746 2.8773334
000370 45 db c5 3d 55 2e b7 be 24 5c 37 40 04 eb db 3d
       0.09660963 -0.35777536 2.8649988 0.10738185
000380 03 31 b4 be cb 2a 37 40 15 08 e1 3d 1d f3 b2 be
       -0.35193643 2.8619869 0.1098787 -0.34951106
000390 c6 12 37 40 1a 61 df 3d ba 40 b3 be 89 5f 37 40
       2.8605208 0.109071925 -0.3501032 2.865206
0003a0 bb c0 d1 3d 73 fe b2 be ed bb 37 40 db 40 bc 3d
       0.102418385 -0.34959754 2.870845 0.09192058
0003b0 37 05 b3 be b0 27 38 40 12 24 9b 3d 11 88 b1 be
       -0.34964916 2.8774223 0.07575239 -0.34674123
0003c0 46 b2 38 40 81 87 7d 3d 0b 33 b0 be 61 1d 39 40
       2.885881 0.061896805 -0.34413943 2.8924181
0003d0 a2 58 3b 3d e6 a4 ad be 6c 93 39 40 e3 5c 16 3d
       0.045738824 -0.3391487 2.899623 0.036709677
0003e0 96 30 a8 be bb cc 39 40 fa 75 df 3c 00 96 a1 be
       -0.32849568 2.9031208 0.027277935 -0.31559753
0003f0 46 bb 39 40 35 c5 83 3c 6e c3 9e be d7 b1 39 40
       2.9020553 0.016085247 -0.31008476 2.9014795
