inputs/motion_bank/comic/hmr4d_results.pt (torch, 615295 bytes, 25 tensors)

body_pose f4 [140, 63]
0	0x3defd2ee	0.117101535
1	0x3d15cdb2	0.03657312
2	0x3d5ac699	0.053412054
3	0x3dd12b83	0.10213377
4	0xbcf6798a	-0.030087251
5	0xbdbc8ba8	-0.09206325
6	0x3da33faa	0.07971127
7	0x3cd2580d	0.025676752
8	0x3c974c73	0.018469071
9	0x3e101331	0.14069821
10	0xbe00b367	-0.12568437
11	0x3a4bbf3e	0.0007772333
12	0x3e460dcf	0.19341205
13	0x3d88945a	0.06668921
14	0xbcbb647f	-0.022875069
15	0xbd75ff28	-0.06005779
16	0xbcc91802	-0.02454758
17	0xbcf870a6	-0.030327152
18	0xbe13f839	-0.14450158
19	0x3e4aad2e	0.19792625
20	0x3c4ccbb4	0.0124997385
21	0xbe156486	-0.14589128
22	0xbdc2e3e6	-0.095161244
23	0x3d80aa19	0.062824436
24	0x3e00fd1b	0.12596552
25	0x3c117cd0	0.008879855
26	0x3ca32765	0.019916246
27	0xbc8cfc19	-0.017210053
28	0xbceda1b9	-0.02900778
29	0x3d1f74e4	0.038929835
30	0xbb11fa21	-0.0022274333
31	0x3c68bd2e	0.01420526
32	0x3cb9554c	0.02262368
33	0x3df08eac	0.117459625
34	0xbb1b072c	-0.0023655398
35	0xbd6d8142	-0.057984598
36	0xbb174d81	-0.0023086967
37	0xbd833011	-0.06405652
38	0xbcdc39d6	-0.026883047
39	0xbcf6db44	-0.03013385
40	0x3dbdcebd	0.09267948
41	0xbd8b26c6	-0.06794505
42	0x3d9f4fb6	0.077788755
43	0xbc57a5a8	-0.013162054
44	0x3cce3128	0.025169924
45	0x3e3f844f	0.18702815
46	0xbeaa5a62	-0.33272082
47	0xbf9cb418	-1.224246
48	0x3e8c256d	0.27372304
49	0x3e61ecbc	0.22062963
50	0x3fa20f9c	1.2661014
51	0x3e947705	0.28997055
52	0xbea8c2fb	-0.32961258
53	0xbe0b6fb6	-0.13616833
54	0x3e10efb8	0.14153945
55	0x3f13f0b8	0.5778918
56	0x3dec3793	0.115340374
57	0xbe596bdd	-0.21232553
58	0xbe4a8996	-0.19779047
59	0x3e7289a5	0.2368532
60	0xbedab6f3	-0.42717704
61	0x3e27462c	0.16335362
62	0xbe58284c	-0.21109122
63	0x3ded4dc9	0.11587102
64	0x3d1448f1	0.036202375
65	0x3d5f06b3	0.05444975
66	0x3dd67efc	0.10473439
67	0xbd05ebd8	-0.03269562
68	0xbdbb24de	-0.09137891
69	0x3da56d5a	0.08077498
70	0x3cdcad05	0.02693797
71	0x3ca04406	0.019563686
72	0x3e0f38b4	0.13986474
73	0xbe01ee06	-0.12688455
74	0x3a4f2836	0.0007902415
75	0x3e408c87	0.18803607
76	0x3d879a80	0.066212654
77	0xbcb99c38	-0.022657499
78	0xbd767d21	-0.060177926
79	0xbcc2cdaf	-0.023779718
80	0xbcfdee65	-0.030997464
81	0xbe13b9f4	-0.14426404
82	0x3e472320	0.19446993
83	0x3c1a440d	0.009415639
84	0xbe14e165	-0.14539106
85	0xbdcab391	-0.09897531
86	0x3d7bc18f	0.06146389
87	0x3e013ed6	0.12621626
88	0x3c204cc0	0.009783924
89	0x3ca02cf3	0.019552683
90	0xbc889641	-0.01667321
91	0xbceb81a5	-0.028748343
92	0x3d1deb69	0.038554583
93	0xbb120f80	-0.002228707
94	0x3c64a42d	0.013955158
95	0x3cb1b268	0.021691516
96	0x3df0622e	0.11737476
97	0xbb62e8ac	-0.0034623547
98	0xbd6c654a	-0.057713784
99	0xbbcc97f8	-0.006243702
100	0xbd81b495	-0.063332714
101	0xbce98a86	-0.028508436
102	0xbcfcc65a	-0.0308563
103	0x3dbef68d	0.093243696
104	0xbd84d6c4	-0.06486276
105	0x3da28698	0.07935828
106	0xbc821e8f	-0.015883712
107	0x3cc22a21	0.02370173
108	0x3e3fc022	0.18725637
109	0xbea8a1f2	-0.32936054
110	0xbf9c7408	-1.222291
111	0x3e8ce635	0.27519384
112	0x3e625b94	0.22105247
113	0x3fa1ef57	1.2651166
114	0x3e94d3dc	0.29067886
115	0xbea7b9c2	-0.3275891
116	0xbe0b1d90	-0.13585496
117	0x3e120295	0.14258797
118	0x3f127fe3	0.5722639
119	0x3df4357d	0.119242646
120	0xbe594a43	-0.21219735
121	0xbe4ab84a	-0.19796863
122	0x3e7161b0	0.23572421
123	0xbed95e19	-0.42454603
124	0x3e273aba	0.16330996
125	0xbe55fb20	-0.20896578
126	0x3de734c2	0.1128936
127	0x3d0d6091	0.03451592
128	0x3d5a45f7	0.05328938
129	0x3dd6bba7	0.104850106
130	0xbd07770e	-0.033072524
131	0xbdbd5f17	-0.092466526
132	0x3da6e87a	0.0814981
133	0x3ce27758	0.027644798
134	0x3ca061be	0.019577857
135	0x3e12dfd9	0.14343204
136	0xbe0469f5	-0.12931044
137	0x39da6218	0.00041653286
138	0x3e405e36	0.18785939
139	0x3d8a25f0	0.06745517
140	0xbcb72061	-0.022354307
141	0xbd76e15f	-0.060273524
142	0xbcbbe037	-0.022934062
143	0xbd01800a	-0.03161625
144	0xbe141384	-0.1446057
145	0x3e44d4ca	0.19221798
146	0x3c097fe5	0.008392309
147	0xbe1568bf	-0.14590739
148	0xbdd45767	-0.10368233
149	0x3d6b7d82	0.05749274
150	0x3e02019f	0.12695931
151	0x3c2877c0	0.010282457
152	0x3c989e6f	0.018630235
153	0xbc832af8	-0.0160117
154	0xbcee6947	-0.029102935
155	0x3d1dac20	0.03849423
156	0xbb2d850b	-0.0026477005
157	0x3c64c551	0.0139630595
158	0x3cadc499	0.02121191
159	0x3decf615	0.11570374
160	0xbbad065f	-0.0052803005
161	0xbd670ce6	-0.056408785
162	0xbc17be07	-0.009261615
163	0xbd812947	-0.06306701
164	0xbcef0c30	-0.029180616
165	0xbd0463f4	-0.032321885
166	0x3dc24eb2	0.09487666
167	0xbd80c882	-0.06288244
168	0x3da6c438	0.081428945
169	0xbc98b2bf	-0.01863992
170	0x3cb9c450	0.022676617
171	0x3e40c2be	0.18824288
172	0xbea5d679	-0.32390192
173	0xbf9c33cf	-1.2203311
174	0x3e8d0a38	0.2754686
175	0x3e6166f6	0.22011933
176	0x3fa1edd5	1.2650706
177	0x3e939b54	0.28829443
178	0xbea785d0	-0.32719278
179	0xbe0cd606	-0.13753518
180	0x3e12e968	0.1434685
181	0x3f116c52	0.5680591
182	0x3dfca14e	0.12335454
183	0xbe598bb3	-0.21244697
184	0xbe49ff7c	-0.19726366
185	0x3e742963	0.23843913
186	0xbed6599a	-0.41865236
187	0x3e27b1f8	0.16376483
188	0xbe57c084	-0.21069533
189	0x3de06874	0.10957423
190	0x3d07f4a1	0.03319228
191	0x3d5360a9	0.051605854
192	0x3dd68f0d	0.104765035
193	0xbd0cc17b	-0.034364205
194	0xbdc1c8d4	-0.09462133
195	0x3da90c5e	0.08254312
196	0x3ce9c193	0.028534686
197	0x3ca68dea	0.020331342
198	0x3e178239	0.1479577
199	0xbe074b89	-0.13212408
200	0xba339906	-0.00068511104
201	0x3e3e897a	0.1860713
202	0x3d86e40d	0.06586466
203	0xbcb9692a	-0.022633154
204	0xbd78cbfe	-0.060741417
205	0xbcaeef86	-0.021354448
206	0xbd081c81	-0.03323031
207	0xbe177126	-0.14789256
208	0x3e423310	0.18964791
209	0x3bf811a0	0.0075704604
210	0xbe16a627	-0.1471182
211	0xbdd7b1d4	-0.10531965
212	0x3d641803	0.05568696
213	0x3e03670b	0.12832277
214	0x3c364501	0.01112485
215	0x3c97c1c3	0.01852501
216	0xbc7e225c	-0.015511122
217	0xbcf2c81e	-0.029636439
218	0x3d1efc9b	0.038815122
219	0xbb466d66	-0.003027761
220	0x3c6d85d7	0.014497242
221	0x3ca93f70	0.020660132
222	0x3de90095	0.11377064
223	0xbbf3880b	-0.007431989
224	0xbd6668bf	-0.056252237
225	0xbc1aeab0	-0.009455368
226	0xbd815f00	-0.06316948
227	0xbcef6496	-0.029222768
228	0xbd02fd2d	-0.03197973
229	0x3dc9938c	0.098425955
230	0xbd866177	-0.06561559
231	0x3da714c5	0.08158258
232	0xbcb403e1	-0.021974506
233	0x3cb355ee	0.02189156
234	0x3e405f05	0.18786247
235	0xbea37e0b	-0.319321
236	0xbf9c6e0d	-1.2221085
237	0x3e8beb42	0.27327925
238	0x3e6255b0	0.22103
239	0x3fa2460e	1.2677629
240	0x3e911974	0.28339732
241	0xbea66d4d	-0.32505265
242	0xbe0d820e	-0.13819143
243	0x3e13989b	0.14413683
244	0x3f0f9043	0.560795
245	0x3e00f02a	0.12591615
246	0xbe58a166	-0.21155319
247	0xbe492a30	-0.19645
248	0x3e753bcf	0.23948596
249	0xbed3dc9c	-0.4137925
250	0x3e288927	0.1645857
251	0xbe58ca7a	-0.21170989
252	0x3dd6fde4	0.104976445
253	0x3d004011	0.0313111
254	0x3d480c03	0.04883958
255	0x3dd8786d	0.105698444

betas f4 [140, 10]
0	0x3f6a06c6	0.91416585
1	0xbd2d1cb0	-0.042263687
2	0xbd3a1e98	-0.045439333
3	0xbed5dc19	-0.41769484
4	0xbf0e9e22	-0.5571004
5	0xbea311d2	-0.31849533
6	0xbeb77d21	-0.35837653
7	0xbec6ecb1	-0.38852456
8	0xbe8427ba	-0.2581156
9	0x3eaff563	0.34366903
10	0x3f6a06c6	0.91416585
11	0xbd2d1cb0	-0.042263687
12	0xbd3a1e98	-0.045439333
13	0xbed5dc19	-0.41769484
14	0xbf0e9e22	-0.5571004
15	0xbea311d2	-0.31849533
16	0xbeb77d21	-0.35837653
17	0xbec6ecb1	-0.38852456
18	0xbe8427ba	-0.2581156
19	0x3eaff563	0.34366903
20	0x3f6a06c6	0.91416585
21	0xbd2d1cb0	-0.042263687
22	0xbd3a1e98	-0.045439333
23	0xbed5dc19	-0.41769484
24	0xbf0e9e22	-0.5571004
25	0xbea311d2	-0.31849533
26	0xbeb77d21	-0.35837653
27	0xbec6ecb1	-0.38852456
28	0xbe8427ba	-0.2581156
29	0x3eaff563	0.34366903
30	0x3f6a06c6	0.91416585
31	0xbd2d1cb0	-0.042263687
32	0xbd3a1e98	-0.045439333
33	0xbed5dc19	-0.41769484
34	0xbf0e9e22	-0.5571004
35	0xbea311d2	-0.31849533
36	0xbeb77d21	-0.35837653
37	0xbec6ecb1	-0.38852456
38	0xbe8427ba	-0.2581156
39	0x3eaff563	0.34366903
40	0x3f6a06c6	0.91416585
41	0xbd2d1cb0	-0.042263687
42	0xbd3a1e98	-0.045439333
43	0xbed5dc19	-0.41769484
44	0xbf0e9e22	-0.5571004
45	0xbea311d2	-0.31849533
46	0xbeb77d21	-0.35837653
47	0xbec6ecb1	-0.38852456
48	0xbe8427ba	-0.2581156
49	0x3eaff563	0.34366903
50	0x3f6a06c6	0.91416585
51	0xbd2d1cb0	-0.042263687
52	0xbd3a1e98	-0.045439333
53	0xbed5dc19	-0.41769484
54	0xbf0e9e22	-0.5571004
55	0xbea311d2	-0.31849533
56	0xbeb77d21	-0.35837653
57	0xbec6ecb1	-0.38852456
58	0xbe8427ba	-0.2581156
59	0x3eaff563	0.34366903
60	0x3f6a06c6	0.91416585
61	0xbd2d1cb0	-0.042263687
62	0xbd3a1e98	-0.045439333
63	0xbed5dc19	-0.41769484
64	0xbf0e9e22	-0.5571004
65	0xbea311d2	-0.31849533
66	0xbeb77d21	-0.35837653
67	0xbec6ecb1	-0.38852456
68	0xbe8427ba	-0.2581156
69	0x3eaff563	0.34366903
70	0x3f6a06c6	0.91416585
71	0xbd2d1cb0	-0.042263687
72	0xbd3a1e98	-0.045439333
73	0xbed5dc19	-0.41769484
74	0xbf0e9e22	-0.5571004
75	0xbea311d2	-0.31849533
76	0xbeb77d21	-0.35837653
77	0xbec6ecb1	-0.38852456
78	0xbe8427ba	-0.2581156
79	0x3eaff563	0.34366903
80	0x3f6a06c6	0.91416585
81	0xbd2d1cb0	-0.042263687
82	0xbd3a1e98	-0.045439333
83	0xbed5dc19	-0.41769484
84	0xbf0e9e22	-0.5571004
85	0xbea311d2	-0.31849533
86	0xbeb77d21	-0.35837653
87	0xbec6ecb1	-0.38852456
88	0xbe8427ba	-0.2581156
89	0x3eaff563	0.34366903
90	0x3f6a06c6	0.91416585
91	0xbd2d1cb0	-0.042263687
92	0xbd3a1e98	-0.045439333
93	0xbed5dc19	-0.41769484
94	0xbf0e9e22	-0.5571004
95	0xbea311d2	-0.31849533
96	0xbeb77d21	-0.35837653
97	0xbec6ecb1	-0.38852456
98	0xbe8427ba	-0.2581156
99	0x3eaff563	0.34366903
100	0x3f6a06c6	0.91416585
101	0xbd2d1cb0	-0.042263687
102	0xbd3a1e98	-0.045439333
103	0xbed5dc19	-0.41769484
104	0xbf0e9e22	-0.5571004
105	0xbea311d2	-0.31849533
106	0xbeb77d21	-0.35837653
107	0xbec6ecb1	-0.38852456
108	0xbe8427ba	-0.2581156
109	0x3eaff563	0.34366903
110	0x3f6a06c6	0.91416585
111	0xbd2d1cb0	-0.042263687
112	0xbd3a1e98	-0.045439333
113	0xbed5dc19	-0.41769484
114	0xbf0e9e22	-0.5571004
115	0xbea311d2	-0.31849533
116	0xbeb77d21	-0.35837653
117	0xbec6ecb1	-0.38852456
118	0xbe8427ba	-0.2581156
119	0x3eaff563	0.34366903
120	0x3f6a06c6	0.91416585
121	0xbd2d1cb0	-0.042263687
122	0xbd3a1e98	-0.045439333
123	0xbed5dc19	-0.41769484
124	0xbf0e9e22	-0.5571004
125	0xbea311d2	-0.31849533
126	0xbeb77d21	-0.35837653
127	0xbec6ecb1	-0.38852456
128	0xbe8427ba	-0.2581156
129	0x3eaff563	0.34366903
130	0x3f6a06c6	0.91416585
131	0xbd2d1cb0	-0.042263687
132	0xbd3a1e98	-0.045439333
133	0xbed5dc19	-0.41769484
134	0xbf0e9e22	-0.5571004
135	0xbea311d2	-0.31849533
136	0xbeb77d21	-0.35837653
137	0xbec6ecb1	-0.38852456
138	0xbe8427ba	-0.2581156
139	0x3eaff563	0.34366903
140	0x3f6a06c6	0.91416585
141	0xbd2d1cb0	-0.042263687
142	0xbd3a1e98	-0.045439333
143	0xbed5dc19	-0.41769484
144	0xbf0e9e22	-0.5571004
145	0xbea311d2	-0.31849533
146	0xbeb77d21	-0.35837653
147	0xbec6ecb1	-0.38852456
148	0xbe8427ba	-0.2581156
149	0x3eaff563	0.34366903
150	0x3f6a06c6	0.91416585
151	0xbd2d1cb0	-0.042263687
152	0xbd3a1e98	-0.045439333
153	0xbed5dc19	-0.41769484
154	0xbf0e9e22	-0.5571004
155	0xbea311d2	-0.31849533
156	0xbeb77d21	-0.35837653
157	0xbec6ecb1	-0.38852456
158	0xbe8427ba	-0.2581156
159	0x3eaff563	0.34366903
160	0x3f6a06c6	0.91416585
161	0xbd2d1cb0	-0.042263687
162	0xbd3a1e98	-0.045439333
163	0xbed5dc19	-0.41769484
164	0xbf0e9e22	-0.5571004
165	0xbea311d2	-0.31849533
166	0xbeb77d21	-0.35837653
167	0xbec6ecb1	-0.38852456
168	0xbe8427ba	-0.2581156
169	0x3eaff563	0.34366903
170	0x3f6a06c6	0.91416585
171	0xbd2d1cb0	-0.042263687
172	0xbd3a1e98	-0.045439333
173	0xbed5dc19	-0.41769484
174	0xbf0e9e22	-0.5571004
175	0xbea311d2	-0.31849533
176	0xbeb77d21	-0.35837653
177	0xbec6ecb1	-0.38852456
178	0xbe8427ba	-0.2581156
179	0x3eaff563	0.34366903
180	0x3f6a06c6	0.91416585
181	0xbd2d1cb0	-0.042263687
182	0xbd3a1e98	-0.045439333
183	0xbed5dc19	-0.41769484
184	0xbf0e9e22	-0.5571004
185	0xbea311d2	-0.31849533
186	0xbeb77d21	-0.35837653
187	0xbec6ecb1	-0.38852456
188	0xbe8427ba	-0.2581156
189	0x3eaff563	0.34366903
190	0x3f6a06c6	0.91416585
191	0xbd2d1cb0	-0.042263687
192	0xbd3a1e98	-0.045439333
193	0xbed5dc19	-0.41769484
194	0xbf0e9e22	-0.5571004
195	0xbea311d2	-0.31849533
196	0xbeb77d21	-0.35837653
197	0xbec6ecb1	-0.38852456
198	0xbe8427ba	-0.2581156
199	0x3eaff563	0.34366903
200	0x3f6a06c6	0.91416585
201	0xbd2d1cb0	-0.042263687
202	0xbd3a1e98	-0.045439333
203	0xbed5dc19	-0.41769484
204	0xbf0e9e22	-0.5571004
205	0xbea311d2	-0.31849533
206	0xbeb77d21	-0.35837653
207	0xbec6ecb1	-0.38852456
208	0xbe8427ba	-0.2581156
209	0x3eaff563	0.34366903
210	0x3f6a06c6	0.91416585
211	0xbd2d1cb0	-0.042263687
212	0xbd3a1e98	-0.045439333
213	0xbed5dc19	-0.41769484
214	0xbf0e9e22	-0.5571004
215	0xbea311d2	-0.31849533
216	0xbeb77d21	-0.35837653
217	0xbec6ecb1	-0.38852456
218	0xbe8427ba	-0.2581156
219	0x3eaff563	0.34366903
220	0x3f6a06c6	0.91416585
221	0xbd2d1cb0	-0.042263687
222	0xbd3a1e98	-0.045439333
223	0xbed5dc19	-0.41769484
224	0xbf0e9e22	-0.5571004
225	0xbea311d2	-0.31849533
226	0xbeb77d21	-0.35837653
227	0xbec6ecb1	-0.38852456
228	0xbe8427ba	-0.2581156
229	0x3eaff563	0.34366903
230	0x3f6a06c6	0.91416585
231	0xbd2d1cb0	-0.042263687
232	0xbd3a1e98	-0.045439333
233	0xbed5dc19	-0.41769484
234	0xbf0e9e22	-0.5571004
235	0xbea311d2	-0.31849533
236	0xbeb77d21	-0.35837653
237	0xbec6ecb1	-0.38852456
238	0xbe8427ba	-0.2581156
239	0x3eaff563	0.34366903
240	0x3f6a06c6	0.91416585
241	0xbd2d1cb0	-0.042263687
242	0xbd3a1e98	-0.045439333
243	0xbed5dc19	-0.41769484
244	0xbf0e9e22	-0.5571004
245	0xbea311d2	-0.31849533
246	0xbeb77d21	-0.35837653
247	0xbec6ecb1	-0.38852456
248	0xbe8427ba	-0.2581156
249	0x3eaff563	0.34366903
250	0x3f6a06c6	0.91416585
251	0xbd2d1cb0	-0.042263687
252	0xbd3a1e98	-0.045439333
253	0xbed5dc19	-0.41769484
254	0xbf0e9e22	-0.5571004
255	0xbea311d2	-0.31849533

global_orient f4 [140, 3]
0	0x3ca3edf1	0.02001092
1	0x404442a0	3.0665665
2	0x3e861b13	0.2619253
3	0x3cb48c60	0.022039592
4	0x4044a54a	3.0725884
5	0x3e858f2b	0.2608579
6	0x3cdbb0a5	0.02681763
7	0x4045077a	3.0785813
8	0x3e864aaf	0.26228854
9	0x3d00d471	0.0314526
10	0x40455beb	3.0837352
11	0x3e86de6e	0.26341575
12	0x3d178fe3	0.037002455
13	0x4045ab00	3.088562
14	0x3e8707f3	0.26373252
15	0x3d337590	0.04381329
16	0x4045fae9	3.0934393
17	0x3e878217	0.26466438
18	0x3d5b9567	0.053609278
19	0x404629c9	3.0963004
20	0x3e88535c	0.26626098
21	0x3d7a702e	0.06114214
22	0x404632fa	3.0968614
23	0x3e85f4bd	0.26163283
24	0x3d8f20be	0.06988667
25	0x404612a4	3.0948877
26	0x3e87942d	0.26480237
27	0x3d98e543	0.07465603
28	0x40459e0f	3.0877721
29	0x3e8a3e30	0.2700057
30	0x3d934017	0.071899585
31	0x40450b16	3.0788016
32	0x3e8c2180	0.27369308
33	0x3d61c32a	0.055117764
34	0x4044d5ca	3.0755486
35	0x3e8a9b7a	0.27071744
36	0x3d359a31	0.0443365
37	0x4043a384	3.0568552
38	0x3e8f6ded	0.28013554
39	0x3cb70601	0.02234173
40	0x4041d9bf	3.0289152
41	0x3e8e1076	0.27746934
42	0x3ae31667	0.0017325402
43	0x404014a7	3.0012605
44	0x3e8a4ae5	0.27010265
45	0xbc864a03	-0.016392713
46	0x403dd517	2.966131
47	0x3e89241e	0.26785368
48	0xbce922c3	-0.028458958
49	0x403bb173	2.9327056
50	0x3e870fdd	0.2637929
51	0xbd11bbcb	-0.035579484
52	0x4039b15f	2.9014509
53	0x3e840ffb	0.25793442
54	0xbce0321d	-0.027367646
55	0x40375615	2.864629
56	0x3e6efd3c	0.23338789
57	0xbcb58b75	-0.022161225
58	0x403560ef	2.8340414
59	0x3e4eb8e6	0.2018772
60	0xbc6f8f78	-0.014621608
61	0x4032e215	2.795049
62	0x3e2aba2a	0.16672578
63	0xbc0d4890	-0.008623257
64	0x40308dc7	2.7586534
65	0x3e0f2746	0.13979825
66	0xbc1233d5	-0.0089234905
67	0x402e0a90	2.7193947
68	0x3df5c797	0.12000959
69	0xbc4ac0ca	-0.012375066
70	0x402c13dc	2.6887121
71	0x3df19a86	0.11797051
72	0xbc6b5b64	-0.014365051
73	0x402a48e0	2.660698
74	0x3e035ac5	0.12827595
75	0xbc5ebdc0	-0.013595045
76	0x4028d5b1	2.6380427
77	0x3e0e4902	0.13895038
78	0xbc2b1f07	-0.010444409
79	0x4027eb1a	2.6237245
80	0x3e15c5cf	0.14626239
81	0xbb463e05	-0.003024937
82	0x40275819	2.614752
83	0x3e1111fc	0.14167017
84	0x3c42398c	0.011854541
85	0x40260047	2.593767
86	0x3e01b4c4	0.12666613
87	0x3ca2fa9c	0.01989489
88	0x402567c4	2.5844584
89	0x3de25a4f	0.11052381
90	0x3cd78d69	0.026312547
91	0x4025ba0f	2.589481
92	0x3ddac1b7	0.106814794
93	0x3d0a2aa5	0.033732075
94	0x40263b94	2.5973864
95	0x3dc0de5e	0.09417413
96	0x3d066d85	0.03281929
97	0x4026cdb6	2.6063056
98	0x3db17bac	0.08666167
99	0x3d174242	0.036928423
100	0x4027c286	2.6212478
101	0x3dabaed2	0.08382954
102	0x3d2344cc	0.03986053
103	0x4028f618	2.6400204
104	0x3da33b58	0.07970303
105	0x3d4c3cc5	0.04986264
106	0x402a4f79	2.6611006
107	0x3d91896e	0.07106291
108	0x3d48519b	0.04890595
109	0x402c4803	2.6918952
110	0x3d97cf6d	0.0741261
111	0x3d5e79e9	0.05431548
112	0x402e5a2b	2.7242534
113	0x3d9db054	0.076996475
114	0x3d66fb9e	0.056392305
115	0x40304a08	2.7545185
116	0x3da854c7	0.08219295
117	0x3d60680f	0.054786738
118	0x40326df0	2.78796
119	0x3da554ca	0.08072813
120	0x3d70edff	0.05882072
121	0x40335482	2.802033
122	0x3daaff39	0.08349461
123	0x3d71a0d1	0.058991257
124	0x4034aefc	2.8231802
125	0x3db09a88	0.086232245
126	0x3d7bea3e	0.061502688
127	0x4035bf3a	2.8397965
128	0x3dad7c7d	0.0847101
129	0x3d852632	0.06501426
130	0x4037040d	2.8596222
131	0x3d9d61a0	0.07684636
132	0x3d87aec7	0.06625133
133	0x4037ce35	2.8719609
134	0x3da67fd4	0.0812985
135	0x3d82e2c8	0.06390911
136	0x403823ed	2.8771927
137	0x3da3934a	0.079870775
138	0x3d8142d5	0.06311575
139	0x40386751	2.881306
140	0x3d907b7a	0.07054801
141	0x3d8044a3	0.062630914
142	0x4038e18c	2.8887663
143	0x3d4a63de	0.049411647
144	0x3d6ec3a3	0.058292042
145	0x4038d41b	2.887946
146	0x3d25121b	0.04030047
147	0x3d51574c	0.051108643
148	0x4038bf7f	2.886688
149	0x3d02a8ca	0.03189925
150	0x3d38a6c6	0.045080923
151	0x403894d5	2.884084
152	0x3cd8e035	0.026474098
153	0x3d2402f4	0.04004188
154	0x40383aa7	2.8785799
155	0x3d0083f6	0.031375848
156	0x3cfd9d10	0.030958682
157	0x403767a9	2.865702
158	0x3d287805	0.041130085
159	0x3cedd623	0.029032772
160	0x4036a200	2.8536377
161	0x3d33219e	0.04373323
162	0x3ce07749	0.02740063
163	0x40357d64	2.8357782
164	0x3d55d9c7	0.05220964
165	0x3ce1f7a1	0.027583899
166	0x403474f9	2.8196394
167	0x3d88cafb	0.066793405
168	0x3cc6601b	0.024215749
169	0x4032bdf2	2.7928433
170	0x3da34db0	0.07973802
171	0x3c8bc0b0	0.017059654
172	0x40311f54	2.767537
173	0x3dbd8805	0.09254459
174	0x3c62a4e2	0.013833256
175	0x402fa8e8	2.7446842
176	0x3dd7c566	0.10535698
177	0x3c560672	0.01306306
178	0x402e3131	2.7217524
179	0x3e016db6	0.12639508
180	0x3b9b730e	0.00474394
181	0x402d158a	2.7044396
182	0x3e17a12e	0.14807579
183	0xbba62d1c	-0.0050712954
184	0x402c0b45	2.6881878
185	0x3e2b6cda	0.16740742
186	0xbc23bea8	-0.009994186
187	0x402b9efe	2.681579
188	0x3e495f08	0.19665158
189	0xbc83d161	-0.01609105
190	0x402aa1b8	2.6661205
191	0x3e618296	0.22022471
192	0xbc96d0ec	-0.018410169
193	0x402a7e0e	2.6639438
194	0x3e7493f0	0.23884559
195	0xbcb9f107	-0.022697939
196	0x402a47c2	2.6606297
197	0x3e84e954	0.25959265
198	0xbcdbde6d	-0.02683946
199	0x402a179a	2.6576905
200	0x3e92a1d4	0.2863909
201	0xbd030957	-0.03199133
202	0x4029e99e	2.6548839
203	0x3ea0c7b2	0.31402355
204	0xbd0d1cc5	-0.034451265
205	0x402978eb	2.6480052
206	0x3eadafb5	0.33923116
207	0xbd159c50	-0.036526024
208	0x40294e77	2.645414
209	0x3eb9fcf4	0.363258
210	0xbd1fede3	-0.039045226
211	0x4028c85c	2.637229
212	0x3ebf7650	0.37394953
213	0xbd0fd9b2	-0.03511972
214	0x4028b624	2.636117
215	0x3ec69be1	0.387908
216	0xbd00d2f3	-0.031451177
217	0x40287034	2.6318483
218	0x3eca24fe	0.39481348
219	0xbced66f5	-0.028979758
220	0x40287dc9	2.6326773
221	0x3eccd7a5	0.40008274
222	0xbcc0cca0	-0.023535073
223	0x40284ee8	2.629816
224	0x3ed12c38	0.4085405
225	0xbcb9ec88	-0.022695795
226	0x4028417a	2.6289964
227	0x3ed3437d	0.41262427
228	0xbcc0af9f	-0.023521243
229	0x40287954	2.6324053
230	0x3ed45fb2	0.4147926
231	0xbcbcd994	-0.023052968
232	0x4028acfa	2.6355577
233	0x3ed15530	0.40885305
234	0xbcd289c7	-0.025700463
235	0x40290c52	2.641377
236	0x3ecb06b9	0.39653566
237	0xbcdf4a4d	-0.027257109
238	0x40298306	2.648622
239	0x3ec0f13e	0.37684053
240	0xbcf29214	-0.029610671
241	0x402a3db5	2.6600163
242	0x3eb3f48e	0.35147518
243	0xbd056360	-0.032565475
244	0x402acb79	2.668669
245	0x3ea50756	0.3223216
246	0xbd1350fe	-0.035965912
247	0x402b9018	2.6806698
248	0x3e94df49	0.29076603
249	0xbd0c27dd	-0.034217704
250	0x402cb148	2.6983204
251	0x3e81da82	0.2536202
252	0xbd002540	-0.031285524
253	0x402df087	2.7178056
254	0x3e5e40d3	0.21704416
255	0xbce4db75	-0.027936677

body_pose f4 [140, 63]
0	0x3defd2ee	0.117101535
1	0x3d15cdb2	0.03657312
2	0x3d5ac699	0.053412054
3	0x3dd12b83	0.10213377
4	0xbcf6798a	-0.030087251
5	0xbdbc8ba8	-0.09206325
6	0x3da33faa	0.07971127
7	0x3cd2580d	0.025676752
8	0x3c974c73	0.018469071
9	0x3e101331	0.14069821
10	0xbe00b367	-0.12568437
11	0x3a4bbf3e	0.0007772333
12	0x3e460dcf	0.19341205
13	0x3d88945a	0.06668921
14	0xbcbb647f	-0.022875069
15	0xbd75ff28	-0.06005779
16	0xbcc91802	-0.02454758
17	0xbcf870a6	-0.030327152
18	0xbe13f839	-0.14450158
19	0x3e4aad2e	0.19792625
20	0x3c4ccbb4	0.0124997385
21	0xbe156486	-0.14589128
22	0xbdc2e3e6	-0.095161244
23	0x3d80aa19	0.062824436
24	0x3e00fd1b	0.12596552
25	0x3c117cd0	0.008879855
26	0x3ca32765	0.019916246
27	0xbc8cfc19	-0.017210053
28	0xbceda1b9	-0.02900778
29	0x3d1f74e4	0.038929835
30	0xbb11fa21	-0.0022274333
31	0x3c68bd2e	0.01420526
32	0x3cb9554c	0.02262368
33	0x3df08eac	0.117459625
34	0xbb1b072c	-0.0023655398
35	0xbd6d8142	-0.057984598
36	0xbb174d81	-0.0023086967
37	0xbd833011	-0.06405652
38	0xbcdc39d6	-0.026883047
39	0xbcf6db44	-0.03013385
40	0x3dbdcebd	0.09267948
41	0xbd8b26c6	-0.06794505
42	0x3d9f4fb6	0.077788755
43	0xbc57a5a8	-0.013162054
44	0x3cce3128	0.025169924
45	0x3e3f844f	0.18702815
46	0xbeaa5a62	-0.33272082
47	0xbf9cb418	-1.224246
48	0x3e8c256d	0.27372304
49	0x3e61ecbc	0.22062963
50	0x3fa20f9c	1.2661014
51	0x3e947705	0.28997055
52	0xbea8c2fb	-0.32961258
53	0xbe0b6fb6	-0.13616833
54	0x3e10efb8	0.14153945
55	0x3f13f0b8	0.5778918
56	0x3dec3793	0.115340374
57	0xbe596bdd	-0.21232553
58	0xbe4a8996	-0.19779047
59	0x3e7289a5	0.2368532
60	0xbedab6f3	-0.42717704
61	0x3e27462c	0.16335362
62	0xbe58284c	-0.21109122
63	0x3ded4dc9	0.11587102
64	0x3d1448f1	0.036202375
65	0x3d5f06b3	0.05444975
66	0x3dd67efc	0.10473439
67	0xbd05ebd8	-0.03269562
68	0xbdbb24de	-0.09137891
69	0x3da56d5a	0.08077498
70	0x3cdcad05	0.02693797
71	0x3ca04406	0.019563686
72	0x3e0f38b4	0.13986474
73	0xbe01ee06	-0.12688455
74	0x3a4f2836	0.0007902415
75	0x3e408c87	0.18803607
76	0x3d879a80	0.066212654
77	0xbcb99c38	-0.022657499
78	0xbd767d21	-0.060177926
79	0xbcc2cdaf	-0.023779718
80	0xbcfdee65	-0.030997464
81	0xbe13b9f4	-0.14426404
82	0x3e472320	0.19446993
83	0x3c1a440d	0.009415639
84	0xbe14e165	-0.14539106
85	0xbdcab391	-0.09897531
86	0x3d7bc18f	0.06146389
87	0x3e013ed6	0.12621626
88	0x3c204cc0	0.009783924
89	0x3ca02cf3	0.019552683
90	0xbc889641	-0.01667321
91	0xbceb81a5	-0.028748343
92	0x3d1deb69	0.038554583
93	0xbb120f80	-0.002228707
94	0x3c64a42d	0.013955158
95	0x3cb1b268	0.021691516
96	0x3df0622e	0.11737476
97	0xbb62e8ac	-0.0034623547
98	0xbd6c654a	-0.057713784
99	0xbbcc97f8	-0.006243702
100	0xbd81b495	-0.063332714
101	0xbce98a86	-0.028508436
102	0xbcfcc65a	-0.0308563
103	0x3dbef68d	0.093243696
104	0xbd84d6c4	-0.06486276
105	0x3da28698	0.07935828
106	0xbc821e8f	-0.015883712
107	0x3cc22a21	0.02370173
108	0x3e3fc022	0.18725637
109	0xbea8a1f2	-0.32936054
110	0xbf9c7408	-1.222291
111	0x3e8ce635	0.27519384
112	0x3e625b94	0.22105247
113	0x3fa1ef57	1.2651166
114	0x3e94d3dc	0.29067886
115	0xbea7b9c2	-0.3275891
116	0xbe0b1d90	-0.13585496
117	0x3e120295	0.14258797
118	0x3f127fe3	0.5722639
119	0x3df4357d	0.119242646
120	0xbe594a43	-0.21219735
121	0xbe4ab84a	-0.19796863
122	0x3e7161b0	0.23572421
123	0xbed95e19	-0.42454603
124	0x3e273aba	0.16330996
125	0xbe55fb20	-0.20896578
126	0x3de734c2	0.1128936
127	0x3d0d6091	0.03451592
128	0x3d5a45f7	0.05328938
129	0x3dd6bba7	0.104850106
130	0xbd07770e	-0.033072524
131	0xbdbd5f17	-0.092466526
132	0x3da6e87a	0.0814981
133	0x3ce27758	0.027644798
134	0x3ca061be	0.019577857
135	0x3e12dfd9	0.14343204
136	0xbe0469f5	-0.12931044
137	0x39da6218	0.00041653286
138	0x3e405e36	0.18785939
139	0x3d8a25f0	0.06745517
140	0xbcb72061	-0.022354307
141	0xbd76e15f	-0.060273524
142	0xbcbbe037	-0.022934062
143	0xbd01800a	-0.03161625
144	0xbe141384	-0.1446057
145	0x3e44d4ca	0.19221798
146	0x3c097fe5	0.008392309
147	0xbe1568bf	-0.14590739
148	0xbdd45767	-0.10368233
149	0x3d6b7d82	0.05749274
150	0x3e02019f	0.12695931
151	0x3c2877c0	0.010282457
152	0x3c989e6f	0.018630235
153	0xbc832af8	-0.0160117
154	0xbcee6947	-0.029102935
155	0x3d1dac20	0.03849423
156	0xbb2d850b	-0.0026477005
157	0x3c64c551	0.0139630595
158	0x3cadc499	0.02121191
159	0x3decf615	0.11570374
160	0xbbad065f	-0.0052803005
161	0xbd670ce6	-0.056408785
162	0xbc17be07	-0.009261615
163	0xbd812947	-0.06306701
164	0xbcef0c30	-0.029180616
165	0xbd0463f4	-0.032321885
166	0x3dc24eb2	0.09487666
167	0xbd80c882	-0.06288244
168	0x3da6c438	0.081428945
169	0xbc98b2bf	-0.01863992
170	0x3cb9c450	0.022676617
171	0x3e40c2be	0.18824288
172	0xbea5d679	-0.32390192
173	0xbf9c33cf	-1.2203311
174	0x3e8d0a38	0.2754686
175	0x3e6166f6	0.22011933
176	0x3fa1edd5	1.2650706
177	0x3e939b54	0.28829443
178	0xbea785d0	-0.32719278
179	0xbe0cd606	-0.13753518
180	0x3e12e968	0.1434685
181	0x3f116c52	0.5680591
182	0x3dfca14e	0.12335454
183	0xbe598bb3	-0.21244697
184	0xbe49ff7c	-0.19726366
185	0x3e742963	0.23843913
186	0xbed6599a	-0.41865236
187	0x3e27b1f8	0.16376483
188	0xbe57c084	-0.21069533
189	0x3de06874	0.10957423
190	0x3d07f4a1	0.03319228
191	0x3d5360a9	0.051605854
192	0x3dd68f0d	0.104765035
193	0xbd0cc17b	-0.034364205
194	0xbdc1c8d4	-0.09462133
195	0x3da90c5e	0.08254312
196	0x3ce9c193	0.028534686
197	0x3ca68dea	0.020331342
198	0x3e178239	0.1479577
199	0xbe074b89	-0.13212408
200	0xba339906	-0.00068511104
201	0x3e3e897a	0.1860713
202	0x3d86e40d	0.06586466
203	0xbcb9692a	-0.022633154
204	0xbd78cbfe	-0.060741417
205	0xbcaeef86	-0.021354448
206	0xbd081c81	-0.03323031
207	0xbe177126	-0.14789256
208	0x3e423310	0.18964791
209	0x3bf811a0	0.0075704604
210	0xbe16a627	-0.1471182
211	0xbdd7b1d4	-0.10531965
212	0x3d641803	0.05568696
213	0x3e03670b	0.12832277
214	0x3c364501	0.01112485
215	0x3c97c1c3	0.01852501
216	0xbc7e225c	-0.015511122
217	0xbcf2c81e	-0.029636439
218	0x3d1efc9b	0.038815122
219	0xbb466d66	-0.003027761
220	0x3c6d85d7	0.014497242
221	0x3ca93f70	0.020660132
222	0x3de90095	0.11377064
223	0xbbf3880b	-0.007431989
224	0xbd6668bf	-0.056252237
225	0xbc1aeab0	-0.009455368
226	0xbd815f00	-0.06316948
227	0xbcef6496	-0.029222768
228	0xbd02fd2d	-0.03197973
229	0x3dc9938c	0.098425955
230	0xbd866177	-0.06561559
231	0x3da714c5	0.08158258
232	0xbcb403e1	-0.021974506
233	0x3cb355ee	0.02189156
234	0x3e405f05	0.18786247
235	0xbea37e0b	-0.319321
236	0xbf9c6e0d	-1.2221085
237	0x3e8beb42	0.27327925
238	0x3e6255b0	0.22103
239	0x3fa2460e	1.2677629
240	0x3e911974	0.28339732
241	0xbea66d4d	-0.32505265
242	0xbe0d820e	-0.13819143
243	0x3e13989b	0.14413683
244	0x3f0f9043	0.560795
245	0x3e00f02a	0.12591615
246	0xbe58a166	-0.21155319
247	0xbe492a30	-0.19645
248	0x3e753bcf	0.23948596
249	0xbed3dc9c	-0.4137925
250	0x3e288927	0.1645857
251	0xbe58ca7a	-0.21170989
252	0x3dd6fde4	0.104976445
253	0x3d004011	0.0313111
254	0x3d480c03	0.04883958
255	0x3dd8786d	0.105698444

betas f4 [140, 10]
0	0x3f6a06c6	0.91416585
1	0xbd2d1cb0	-0.042263687
2	0xbd3a1e98	-0.045439333
3	0xbed5dc19	-0.41769484
4	0xbf0e9e22	-0.5571004
5	0xbea311d2	-0.31849533
6	0xbeb77d21	-0.35837653
7	0xbec6ecb1	-0.38852456
8	0xbe8427ba	-0.2581156
9	0x3eaff563	0.34366903
10	0x3f6a06c6	0.91416585
11	0xbd2d1cb0	-0.042263687
12	0xbd3a1e98	-0.045439333
13	0xbed5dc19	-0.41769484
14	0xbf0e9e22	-0.5571004
15	0xbea311d2	-0.31849533
16	0xbeb77d21	-0.35837653
17	0xbec6ecb1	-0.38852456
18	0xbe8427ba	-0.2581156
19	0x3eaff563	0.34366903
20	0x3f6a06c6	0.91416585
21	0xbd2d1cb0	-0.042263687
22	0xbd3a1e98	-0.045439333
23	0xbed5dc19	-0.41769484
24	0xbf0e9e22	-0.5571004
25	0xbea311d2	-0.31849533
26	0xbeb77d21	-0.35837653
27	0xbec6ecb1	-0.38852456
28	0xbe8427ba	-0.2581156
29	0x3eaff563	0.34366903
30	0x3f6a06c6	0.91416585
31	0xbd2d1cb0	-0.042263687
32	0xbd3a1e98	-0.045439333
33	0xbed5dc19	-0.41769484
34	0xbf0e9e22	-0.5571004
35	0xbea311d2	-0.31849533
36	0xbeb77d21	-0.35837653
37	0xbec6ecb1	-0.38852456
38	0xbe8427ba	-0.2581156
39	0x3eaff563	0.34366903
40	0x3f6a06c6	0.91416585
41	0xbd2d1cb0	-0.042263687
42	0xbd3a1e98	-0.045439333
43	0xbed5dc19	-0.41769484
44	0xbf0e9e22	-0.5571004
45	0xbea311d2	-0.31849533
46	0xbeb77d21	-0.35837653
47	0xbec6ecb1	-0.38852456
48	0xbe8427ba	-0.2581156
49	0x3eaff563	0.34366903
50	0x3f6a06c6	0.91416585
51	0xbd2d1cb0	-0.042263687
52	0xbd3a1e98	-0.045439333
53	0xbed5dc19	-0.41769484
54	0xbf0e9e22	-0.5571004
55	0xbea311d2	-0.31849533
56	0xbeb77d21	-0.35837653
57	0xbec6ecb1	-0.38852456
58	0xbe8427ba	-0.2581156
59	0x3eaff563	0.34366903
60	0x3f6a06c6	0.91416585
61	0xbd2d1cb0	-0.042263687
62	0xbd3a1e98	-0.045439333
63	0xbed5dc19	-0.41769484
64	0xbf0e9e22	-0.5571004
65	0xbea311d2	-0.31849533
66	0xbeb77d21	-0.35837653
67	0xbec6ecb1	-0.38852456
68	0xbe8427ba	-0.2581156
69	0x3eaff563	0.34366903
70	0x3f6a06c6	0.91416585
71	0xbd2d1cb0	-0.042263687
72	0xbd3a1e98	-0.045439333
73	0xbed5dc19	-0.41769484
74	0xbf0e9e22	-0.5571004
75	0xbea311d2	-0.31849533
76	0xbeb77d21	-0.35837653
77	0xbec6ecb1	-0.38852456
78	0xbe8427ba	-0.2581156
79	0x3eaff563	0.34366903
80	0x3f6a06c6	0.91416585
81	0xbd2d1cb0	-0.042263687
82	0xbd3a1e98	-0.045439333
83	0xbed5dc19	-0.41769484
84	0xbf0e9e22	-0.5571004
85	0xbea311d2	-0.31849533
86	0xbeb77d21	-0.35837653
87	0xbec6ecb1	-0.38852456
88	0xbe8427ba	-0.2581156
89	0x3eaff563	0.34366903
90	0x3f6a06c6	0.91416585
91	0xbd2d1cb0	-0.042263687
92	0xbd3a1e98	-0.045439333
93	0xbed5dc19	-0.41769484
94	0xbf0e9e22	-0.5571004
95	0xbea311d2	-0.31849533
96	0xbeb77d21	-0.35837653
97	0xbec6ecb1	-0.38852456
98	0xbe8427ba	-0.2581156
99	0x3eaff563	0.34366903
100	0x3f6a06c6	0.91416585
101	0xbd2d1cb0	-0.042263687
102	0xbd3a1e98	-0.045439333
103	0xbed5dc19	-0.41769484
104	0xbf0e9e22	-0.5571004
105	0xbea311d2	-0.31849533
106	0xbeb77d21	-0.35837653
107	0xbec6ecb1	-0.38852456
108	0xbe8427ba	-0.2581156
109	0x3eaff563	0.34366903
110	0x3f6a06c6	0.91416585
111	0xbd2d1cb0	-0.042263687
112	0xbd3a1e98	-0.045439333
113	0xbed5dc19	-0.41769484
114	0xbf0e9e22	-0.5571004
115	0xbea311d2	-0.31849533
116	0xbeb77d21	-0.35837653
117	0xbec6ecb1	-0.38852456
118	0xbe8427ba	-0.2581156
119	0x3eaff563	0.34366903
120	0x3f6a06c6	0.91416585
121	0xbd2d1cb0	-0.042263687
122	0xbd3a1e98	-0.045439333
123	0xbed5dc19	-0.41769484
124	0xbf0e9e22	-0.5571004
125	0xbea311d2	-0.31849533
126	0xbeb77d21	-0.35837653
127	0xbec6ecb1	-0.38852456
128	0xbe8427ba	-0.2581156
129	0x3eaff563	0.34366903
130	0x3f6a06c6	0.91416585
131	0xbd2d1cb0	-0.042263687
132	0xbd3a1e98	-0.045439333
133	0xbed5dc19	-0.41769484
134	0xbf0e9e22	-0.5571004
135	0xbea311d2	-0.31849533
136	0xbeb77d21	-0.35837653
137	0xbec6ecb1	-0.38852456
138	0xbe8427ba	-0.2581156
139	0x3eaff563	0.34366903
140	0x3f6a06c6	0.91416585
141	0xbd2d1cb0	-0.042263687
142	0xbd3a1e98	-0.045439333
143	0xbed5dc19	-0.41769484
144	0xbf0e9e22	-0.5571004
145	0xbea311d2	-0.31849533
146	0xbeb77d21	-0.35837653
147	0xbec6ecb1	-0.38852456
148	0xbe8427ba	-0.2581156
149	0x3eaff563	0.34366903
150	0x3f6a06c6	0.91416585
151	0xbd2d1cb0	-0.042263687
152	0xbd3a1e98	-0.045439333
153	0xbed5dc19	-0.41769484
154	0xbf0e9e22	-0.5571004
155	0xbea311d2	-0.31849533
156	0xbeb77d21	-0.35837653
157	0xbec6ecb1	-0.38852456
158	0xbe8427ba	-0.2581156
159	0x3eaff563	0.34366903
160	0x3f6a06c6	0.91416585
161	0xbd2d1cb0	-0.042263687
162	0xbd3a1e98	-0.045439333
163	0xbed5dc19	-0.41769484
164	0xbf0e9e22	-0.5571004
165	0xbea311d2	-0.31849533
166	0xbeb77d21	-0.35837653
167	0xbec6ecb1	-0.38852456
168	0xbe8427ba	-0.2581156
169	0x3eaff563	0.34366903
170	0x3f6a06c6	0.91416585
171	0xbd2d1cb0	-0.042263687
172	0xbd3a1e98	-0.045439333
173	0xbed5dc19	-0.41769484
174	0xbf0e9e22	-0.5571004
175	0xbea311d2	-0.31849533
176	0xbeb77d21	-0.35837653
177	0xbec6ecb1	-0.38852456
178	0xbe8427ba	-0.2581156
179	0x3eaff563	0.34366903
180	0x3f6a06c6	0.91416585
181	0xbd2d1cb0	-0.042263687
182	0xbd3a1e98	-0.045439333
183	0xbed5dc19	-0.41769484
184	0xbf0e9e22	-0.5571004
185	0xbea311d2	-0.31849533
186	0xbeb77d21	-0.35837653
187	0xbec6ecb1	-0.38852456
188	0xbe8427ba	-0.2581156
189	0x3eaff563	0.34366903
190	0x3f6a06c6	0.91416585
191	0xbd2d1cb0	-0.042263687
192	0xbd3a1e98	-0.045439333
193	0xbed5dc19	-0.41769484
194	0xbf0e9e22	-0.5571004
195	0xbea311d2	-0.31849533
196	0xbeb77d21	-0.35837653
197	0xbec6ecb1	-0.38852456
198	0xbe8427ba	-0.2581156
199	0x3eaff563	0.34366903
200	0x3f6a06c6	0.91416585
201	0xbd2d1cb0	-0.042263687
202	0xbd3a1e98	-0.045439333
203	0xbed5dc19	-0.41769484
204	0xbf0e9e22	-0.5571004
205	0xbea311d2	-0.31849533
206	0xbeb77d21	-0.35837653
207	0xbec6ecb1	-0.38852456
208	0xbe8427ba	-0.2581156
209	0x3eaff563	0.34366903
210	0x3f6a06c6	0.91416585
211	0xbd2d1cb0	-0.042263687
212	0xbd3a1e98	-0.045439333
213	0xbed5dc19	-0.41769484
214	0xbf0e9e22	-0.5571004
215	0xbea311d2	-0.31849533
216	0xbeb77d21	-0.35837653
217	0xbec6ecb1	-0.38852456
218	0xbe8427ba	-0.2581156
219	0x3eaff563	0.34366903
220	0x3f6a06c6	0.91416585
221	0xbd2d1cb0	-0.042263687
222	0xbd3a1e98	-0.045439333
223	0xbed5dc19	-0.41769484
224	0xbf0e9e22	-0.5571004
225	0xbea311d2	-0.31849533
226	0xbeb77d21	-0.35837653
227	0xbec6ecb1	-0.38852456
228	0xbe8427ba	-0.2581156
229	0x3eaff563	0.34366903
230	0x3f6a06c6	0.91416585
231	0xbd2d1cb0	-0.042263687
232	0xbd3a1e98	-0.045439333
233	0xbed5dc19	-0.41769484
234	0xbf0e9e22	-0.5571004
235	0xbea311d2	-0.31849533
236	0xbeb77d21	-0.35837653
237	0xbec6ecb1	-0.38852456
238	0xbe8427ba	-0.2581156
239	0x3eaff563	0.34366903
240	0x3f6a06c6	0.91416585
241	0xbd2d1cb0	-0.042263687
242	0xbd3a1e98	-0.045439333
243	0xbed5dc19	-0.41769484
244	0xbf0e9e22	-0.5571004
245	0xbea311d2	-0.31849533
246	0xbeb77d21	-0.35837653
247	0xbec6ecb1	-0.38852456
248	0xbe8427ba	-0.2581156
249	0x3eaff563	0.34366903
250	0x3f6a06c6	0.91416585
251	0xbd2d1cb0	-0.042263687
252	0xbd3a1e98	-0.045439333
253	0xbed5dc19	-0.41769484
254	0xbf0e9e22	-0.5571004
255	0xbea311d2	-0.31849533

global_orient f4 [140, 3]
0	0x403d0da4	2.9539576
1	0xbb87f617	-0.0041492092
2	0xbdd4bd6d	-0.103876926
3	0x403d0458	2.9533901
4	0xbba7608c	-0.005107945
5	0xbdc11729	-0.094282456
6	0x403cfde8	2.9529972
7	0xbc0312eb	-0.008000116
8	0xbdacd48c	-0.084389776
9	0x403d04f2	2.9534268
10	0xbc330d16	-0.010928413
11	0xbd9ce8aa	-0.07661565
12	0x403d1500	2.9544067
13	0xbc7c6906	-0.015405899
14	0xbd8d5e12	-0.06902708
15	0x403d1999	2.9546874
16	0xbca5533d	-0.020181293
17	0xbd7e3e9b	-0.062071424
18	0x403d274e	2.955524
19	0xbcd89172	-0.026436541
20	0xbd6cc779	-0.05780742
21	0x403d59fd	2.9586174
22	0xbd064dbf	-0.03278899
23	0xbd68fbc1	-0.056880716
24	0x403d61bb	2.95909
25	0xbd1bf131	-0.038071815
26	0xbd6f2d37	-0.05839273
27	0x403d6317	2.959173
28	0xbd1a189b	-0.03762112
29	0xbd86f579	-0.06589789
30	0x403d4f61	2.95797
31	0xbd025bf2	-0.031825967
32	0xbd9ffabb	-0.07811495
33	0x403d72b5	2.9601262
34	0xbc98736d	-0.018609727
35	0xbda9f850	-0.08299315
36	0x403d5d3a	2.958815
37	0xbbfbdf11	-0.0076865037
38	0xbdddf734	-0.10838166
39	0x403d2bc8	2.9557972
40	0x3c04edfe	0.008113382
41	0xbe16f1f7	-0.1474074
42	0x403d166b	2.9544933
43	0x3ca3f013	0.020011937
44	0xbe3f973e	-0.18710038
45	0x403cda8d	2.9508393
46	0x3ce4002f	0.027832119
47	0xbe74bb85	-0.23899658
48	0x403cb243	2.9483802
49	0x3d069ee5	0.032866377
50	0xbe93d3e0	-0.28872585
51	0x403c83be	2.945541
52	0x3d0ed3cf	0.034869965
53	0xbeac6d5f	-0.33677194
54	0x403c54e7	2.942682
55	0x3d0633ef	0.03276437
56	0xbeca78d6	-0.39545316
57	0x403cb4c0	2.948532
58	0x3cf1ce0f	0.029517202
59	0xbee8fdb5	-0.45506063
60	0x403d0aad	2.9537766
61	0x3c6c5e0b	0.0144267185
62	0xbf058d1b	-0.52168435
63	0x403d493f	2.9575956
64	0x3b94d107	0.0045415196
65	0xbf15a04c	-0.5844772
66	0x403d0dc4	2.9539652
67	0xbb7b3b6c	-0.0038334979
68	0xbf2502fd	-0.64457685
69	0x403c6aaf	2.9440114
70	0xbc2f21cd	-0.010689211
71	0xbf309975	-0.68984157
72	0x403bc588	2.9339314
73	0xbc8affcf	-0.016967682
74	0xbf3bb7ab	-0.7332713
75	0x403b3f7e	2.9257503
76	0xbcb88cae	-0.022528019
77	0xbf43b647	-0.7645001
78	0x403ae40c	2.9201689
79	0xbced6f4c	-0.028983735
80	0xbf48a6a3	-0.7837927
81	0x403b352e	2.9251208
82	0xbd13d200	-0.036088943
83	0xbf4c85c0	-0.79891586
84	0x403b5a41	2.9273837
85	0xbd3741f2	-0.044740625
86	0xbf53d82c	-0.8275173
87	0x403bc0dd	2.9336464
88	0xbd526998	-0.051370233
89	0xbf580005	-0.8437503
90	0x403c561f	2.9427564
91	0xbd58dc1f	-0.0529443
92	0xbf56c71c	-0.83897567
93	0x403d2363	2.9552848
94	0xbd5efdb3	-0.054441165
95	0xbf5437b1	-0.8289748
96	0x403d9b2a	2.9625955
97	0xbd4cc236	-0.0499899
98	0xbf5153c7	-0.8176846
99	0x403e8361	2.9767687
100	0xbd4d78e0	-0.050164104
101	0xbf4bffbe	-0.79687107
102	0x403f4fb5	2.98924
103	0xbd47ea97	-0.048807707
104	0xbf451a5a	-0.76993334
105	0x4040330d	3.003116
106	0xbd53fc40	-0.051754236
107	0xbf3d348a	-0.73908293
108	0x40410f29	3.0165503
109	0xbd4b938e	-0.049701266
110	0xbf31e48c	-0.6948936
111	0x4041d0d5	3.028371
112	0xbd408ccd	-0.047009278
113	0xbf26b02f	-0.65112585
114	0x4042aca8	3.041788
115	0xbd3d6f6b	-0.046248835
116	0xbf1ba57f	-0.607994
117	0x404368b9	3.0532668
118	0xbd247f6e	-0.04016059
119	0xbf0f8e24	-0.56076264
120	0x4043b5e9	3.057978
121	0xbd1d73fc	-0.03844069
122	0xbf09b357	-0.53789276
123	0x4044190b	3.0640285
124	0xbd0850cc	-0.03328018
125	0xbf01c03c	-0.5068395
126	0x40441e09	3.0643332
127	0xbcf8a822	-0.03035361
128	0xbef669fa	-0.4812773
129	0x40447369	3.069544
130	0xbcd14c02	-0.025548939
131	0xbee811f0	-0.45326185
132	0x40443862	3.0659413
133	0xbcc2b6f4	-0.02376888
134	0xbedd59e6	-0.4323265
135	0x40442422	3.0647054
136	0xbcaa6205	-0.020798692
137	0xbed835d9	-0.42228583
138	0x40444993	3.0669906
139	0xbc92cbea	-0.0179195
140	0xbed4ccf1	-0.41562608
141	0x404496ba	3.0716996
142	0xbc9c89f7	-0.019108756
143	0xbed13c3b	-0.40866265
144	0x4044a048	3.0722828
145	0xbc84d955	-0.016216913
146	0xbed1dc13	-0.40988216
147	0x4044a10a	3.072329
148	0xbc65eb5a	-0.014033163
149	0xbed2e820	-0.41192722
150	0x4044b175	3.073331
151	0xbc782190	-0.015144721
152	0xbed77bd9	-0.42086676
153	0x40446267	3.068506
154	0xbc8efcff	-0.017454622
155	0xbedc994d	-0.4308571
156	0x4043b148	3.0576954
157	0xbc993e31	-0.018706413
158	0xbee6f14b	-0.45105967
159	0x404365df	3.0530927
160	0xbc9f8f39	-0.019477474
161	0xbeefe1c4	-0.46851933
162	0x40429b1a	3.0407166
163	0xbcaff78b	-0.021480342
164	0xbefd0a26	-0.49421805
165	0x4041a9df	3.025993
166	0xbcadffaa	-0.021240074
167	0xbf0430ed	-0.51637155
168	0x40409f04	3.0097055
169	0xbcb8f469	-0.022577481
170	0xbf0db7a3	-0.5535833
171	0x403f995d	2.9937356
172	0xbcd46b4c	-0.02593007
173	0xbf169354	-0.58818555
174	0x403e93a6	2.9777617
175	0xbccbe81b	-0.02489095
176	0xbf1dfa23	-0.61709803
177	0x403d6b34	2.9596682
178	0xbcc929e2	-0.024556104
179	0xbf24fd7b	-0.6444928
180	0x403c26e1	2.939873
181	0xbc9f87ca	-0.019473929
182	0xbf2a3aa7	-0.66495746
183	0x403b01ed	2.9219925
184	0xbc8ab279	-0.016930806
185	0xbf2ed0a3	-0.68287104
186	0x403a0a99	2.9068968
187	0xbc55edf5	-0.013057222
188	0xbf305d16	-0.6889204
189	0x40390b8b	2.8913295
190	0xbc13a061	-0.009010405
191	0xbf34c674	-0.70615315
192	0x40386410	2.8811073
193	0xbc1513b8	-0.00909894
194	0xbf34ec3c	-0.70672965
195	0x4037aa58	2.869772
196	0xbbf507e7	-0.0074777487
197	0xbf34b1e0	-0.70583916
198	0x4036f454	2.8586626
199	0xbc0e08c9	-0.008669087
200	0xbf346904	-0.7047274
201	0x40362cca	2.8464837
202	0xbc1d78e5	-0.009611343
203	0xbf340d7c	-0.70333076
204	0x40355c0e	2.8337436
205	0xbc4f0279	-0.012634867
206	0xbf349f5e	-0.70555675
207	0x40349bde	2.8220134
208	0xbc6a53e2	-0.014302226
209	0xbf33e5e7	-0.7027268
210	0x4033fad7	2.812185
211	0xbc960873	-0.018314576
212	0xbf3590c4	-0.7092402
213	0x4033807c	2.804717
214	0xbcc2ea9f	-0.023793517
215	0xbf355f82	-0.7084886
216	0x40331f66	2.7987914
217	0xbcf5bdbb	-0.029997697
218	0xbf363df2	-0.7118827
219	0x40330299	2.7970335
220	0xbd0ab24f	-0.033861455
221	0xbf35bf16	-0.709947
222	0x4032d20e	2.7940707
223	0xbd2124ba	-0.039341666
224	0xbf364ead	-0.712138
225	0x4032c930	2.7935295
226	0xbd2b0729	-0.041754875
227	0xbf366bb8	-0.71258116
228	0x4032ca2f	2.7935903
229	0xbd31f6bc	-0.043448195
230	0xbf35a7bd	-0.70959073
231	0x40332ebf	2.7997282
232	0xbd30d49d	-0.043171514
233	0xbf34fe5a	-0.7070061
234	0x4033caee	2.8092608
235	0xbd28ac79	-0.041180108
236	0xbf33c14a	-0.7021681
237	0x4034977d	2.821746
238	0xbd200301	-0.039065365
239	0xbf325c5f	-0.696722
240	0x4035bfe1	2.8398364
241	0xbd146db4	-0.036237434
242	0xbf2ff0e9	-0.68726975
243	0x4036e9d1	2.858021
244	0xbd078014	-0.03308113
245	0xbf2e70fe	-0.6814116
246	0x40383fc4	2.878892
247	0xbceb8b82	-0.028753046
248	0xbf2be167	-0.6714081
249	0x403a19f5	2.9078343
250	0xbccee869	-0.025257306
251	0xbf27b2b9	-0.65507084
252	0x403bfcce	2.937305
253	0xbcafc6b7	-0.02145706
254	0xbf22e1c1	-0.63625723
255	0x403dc22b	2.964976

transl f4 [140, 3]
0	0xbd7864d5	-0.060643036
1	0x3f058ae6	0.5216507
2	0x408155ce	4.041724
3	0xbd7cbfb5	-0.061706264
4	0x3f056c82	0.52118695
5	0x40815919	4.042126
6	0xbd80d23a	-0.062900975
7	0x3f054266	0.5205444
8	0x40815714	4.0418797
9	0xbd82b10b	-0.063814245
10	0x3f052e94	0.520242
11	0x4081576b	4.041921
12	0xbd848578	-0.0647077
13	0x3f0517cc	0.51989436
14	0x40815e60	4.0427704
15	0xbd871d04	-0.06597331
16	0x3f050b24	0.51970124
17	0x4081536e	4.0414343
18	0xbd8876e4	-0.066633016
19	0x3f050c92	0.51972306
20	0x40814959	4.0402036
21	0xbd849374	-0.06473437
22	0x3f053b14	0.5204327
23	0x408141d7	4.039287
24	0xbd830e48	-0.06399208
25	0x3f05813a	0.5215031
26	0x4081620b	4.043218
27	0xbd7955c0	-0.060872793
28	0x3f05d434	0.5227692
29	0x40818d6d	4.048514
30	0xbd6b2954	-0.05741246
31	0x3f0623be	0.5239829
32	0x4081cbb6	4.056117
33	0xbd5bcd0d	-0.05366235
34	0x3f067e70	0.5253668
35	0x40821cab	4.0659995
36	0xbd44c4a0	-0.04803908
37	0x3f06d611	0.5267039
38	0x4082b8db	4.0850654
39	0xbd39cfe8	-0.04536429
40	0x3f073f4c	0.5283096
41	0x4083300f	4.0996165
42	0xbd2f90e8	-0.042862803
43	0x3f077309	0.52909905
44	0x4083ec09	4.122563
45	0xbd278320	-0.040896535
46	0x3f07c884	0.5304034
47	0x4084b5a2	4.147172
48	0xbd1ab994	-0.037774637
49	0x3f07fca3	0.5311987
50	0x40858e05	4.1735864
51	0xbd157cc2	-0.03649593
52	0x3f087c45	0.5331462
53	0x40863a3f	4.19461
54	0xbd10d1d6	-0.035356365
55	0x3f0902ad	0.5351971
56	0x40873dda	4.2263002
57	0xbd0fba43	-0.035089742
58	0x3f0a0a60	0.5392208
59	0x40883d77	4.257503
60	0xbd216008	-0.039398223
61	0x3f0be40a	0.54644835
62	0x408930ba	4.287198
63	0xbd394041	-0.045227293
64	0x3f0d6658	0.5523429
65	0x408a368f	4.31916
66	0xbd4e5d65	-0.050382037
67	0x3f0f5427	0.5598778
68	0x408ae34a	4.3402452
69	0xbd622100	-0.055207253
70	0x3f106b4a	0.5641371
71	0x408b699c	4.356642
72	0xbd78c640	-0.06073594
73	0x3f117e92	0.56833756
74	0x408bb355	4.365641
75	0xbd82611a	-0.06366177
76	0x3f1277f9	0.57214314
77	0x408c3ce0	4.382431
78	0xbd7e65e0	-0.062108874
79	0x3f131e9c	0.5746858
80	0x408cb9d8	4.397686
81	0xbd7bf8f0	-0.061516702
82	0x3f138053	0.5761768
83	0x408d06d4	4.4070835
84	0xbd7d66ec	-0.061865732
85	0x3f1423c0	0.5786705
86	0x408d69dc	4.4191723
87	0xbd7a62ec	-0.061129496
88	0x3f1484ea	0.5801531
89	0x408d8cef	4.423454
90	0xbd747524	-0.059682027
91	0x3f1513da	0.58233416
92	0x408dedbf	4.4352717
93	0xbd60a114	-0.054841116
94	0x3f1551d5	0.5832799
95	0x408e5e94	4.449045
96	0xbd4b7474	-0.049671605
97	0x3f15797a	0.58388484
98	0x408e8de7	4.454822
99	0xbd3a4c48	-0.045482904
100	0x3f15bcb4	0.58491063
101	0x408ebf85	4.460879
102	0xbd1d52f0	-0.038409173
103	0x3f15f868	0.5858216
104	0x408e9eba	4.456876
105	0xbd005cb0	-0.031338394
106	0x3f16373e	0.5867804
107	0x408e2b66	4.4427977
108	0xbcde5d98	-0.027144238
109	0x3f164b4a	0.5870863
110	0x408e08fe	4.4385977
111	0xbcc20940	-0.023686051
112	0x3f1612e7	0.5862259
113	0x408e158d	4.4401307
114	0xbc89ce08	-0.016821876
115	0x3f161086	0.5861896
116	0x408dc043	4.4297194
117	0xbc91c428	-0.01779373
118	0x3f16007c	0.5859449
119	0x408d6759	4.4188657
120	0xbc69fcd8	-0.014281474
121	0x3f1619cf	0.5863313
122	0x408d4ee9	4.4158826
123	0xbc4ddf88	-0.012565501
124	0x3f162830	0.5865507
125	0x408d2783	4.411073
126	0xbc42a104	-0.011879209
127	0x3f162f9c	0.58666396
128	0x408cfe53	4.4060454
129	0xbc2aa9dc	-0.010416474
130	0x3f15ffb2	0.58593285
131	0x408cc8cc	4.3995113
132	0xbbffbef8	-0.0078047477
133	0x3f15fe34	0.5859101
134	0x408ca54d	4.3951783
135	0xbc09abe6	-0.0084028
136	0x3f16163c	0.58627677
137	0x408c8d8d	4.392279
138	0xbc22baa6	-0.009932196
139	0x3f160011	0.5859385
140	0x408cbc37	4.3979754
141	0xbc3c27b0	-0.011484072
142	0x3f160332	0.58598626
143	0x408cef8c	4.4042416
144	0xbc874f02	-0.016517166
145	0x3f15f32a	0.58574164
146	0x408d1269	4.4084973
147	0xbc8e2e8b	-0.017356178
148	0x3f1609c7	0.5860867
149	0x408d5aa9	4.417317
150	0xbc9b6a4c	-0.018971585
151	0x3f166952	0.58754456
152	0x408d8d68	4.4235115
153	0xbcbb4f94	-0.022865094
154	0x3f16a900	0.58851624
155	0x408de0a7	4.4336734
156	0xbce74862	-0.028232757
157	0x3f1706fd	0.5899504
158	0x408e2aea	4.4427385
159	0xbd0bdb26	-0.034144543
160	0x3f172d14	0.5905316
161	0x408e7fd7	4.4531054
162	0xbd1de001	-0.038543705
163	0x3f17507e	0.59107196
164	0x408ed232	4.4631586
165	0xbd30ac03	-0.043132793
166	0x3f17b21f	0.59256166
167	0x408f3151	4.47477
168	0xbd44db24	-0.04806055
169	0x3f183168	0.5945039
170	0x408f93a3	4.486772
171	0xbd5a417c	-0.053285107
172	0x3f1909b0	0.59780407
173	0x40900284	4.500307
174	0xbd75f1fc	-0.060045227
175	0x3f19b02b	0.60034436
176	0x40908c6f	4.517143
177	0xbd87d382	-0.06632139
178	0x3f1ac7d9	0.60461193
179	0x4090f16e	4.5294714
180	0xbd96ebbe	-0.07369183
181	0x3f1c0601	0.6094666
182	0x40916b52	4.5443506
183	0xbda0adb2	-0.0784563
184	0x3f1d360e	0.61410606
185	0x4091df71	4.5585256
186	0xbdae4d9a	-0.08510895
187	0x3f1e9050	0.61938953
188	0x4092251c	4.56703
189	0xbdbc4993	-0.09193721
190	0x3f1fd3d4	0.624326
191	0x409288d1	4.579201
192	0xbdcab858	-0.09898442
193	0x3f20e780	0.6285324
194	0x4092fd41	4.593415
195	0xbdd7ac19	-0.10530872
196	0x3f21decb	0.6323058
197	0x409355b7	4.604213
198	0xbde2d55b	-0.110758506
199	0x3f231d3e	0.63716495
200	0x4093a077	4.613338
201	0xbdee3126	-0.11630468
202	0x3f2455df	0.6419353
203	0x40941b6b	4.628347
204	0xbdf87141	-0.121309765
205	0x3f2520b5	0.6450303
206	0x4094876e	4.641532
207	0xbe036f1b	-0.12835352
208	0x3f25e2e2	0.6479932
209	0x409541e4	4.6642933
210	0xbe05d2b7	-0.13068663
211	0x3f26dc68	0.65180063
212	0x409576d8	4.6707573
213	0xbe07ec50	-0.1327374
214	0x3f27b481	0.655098
215	0x4095aec9	4.677586
216	0xbe0a8b1b	-0.13529627
217	0x3f2872ae	0.6579999
218	0x4095e56f	4.684257
219	0xbe0c745d	-0.13716264
220	0x3f29757a	0.6619488
221	0x4095f5b2	4.686242
222	0xbe0d80e0	-0.13818693
223	0x3f2a532e	0.6653317
224	0x4095c3b9	4.680142
225	0xbe0d927e	-0.13825414
226	0x3f2afff2	0.6679679
227	0x40959e13	4.675546
228	0xbe0ab423	-0.13545279
229	0x3f2b662a	0.66952765
230	0x40950def	4.657951
231	0xbe08bdf0	-0.13353705
232	0x3f2b3706	0.66880834
233	0x4094b0a5	4.646563
234	0xbe0493f2	-0.12947062
235	0x3f2ad1cc	0.66726375
236	0x4094380b	4.631841
237	0xbe00482d	-0.12527533
238	0x3f29dc10	0.66351414
239	0x4093e0c3	4.6211867
240	0xbdf4e73c	-0.11958167
241	0x3f28a836	0.6588167
242	0x40933b9d	4.601027
243	0xbde47df0	-0.11156833
244	0x3f273d00	0.65327454
245	0x40929829	4.581074
246	0xbdd2cb4c	-0.10292682
247	0x3f25d9a2	0.64785206
248	0x409192f4	4.5491886
249	0xbdc19c28	-0.094536126
250	0x3f24bc2a	0.64349616
251	0x40906432	4.512231
252	0xbdaf6298	-0.08563727
253	0x3f23f640	0.6404762
254	0x408f24bf	4.4732356
255	0xbd9eb8d4	-0.07750097
