inputs/motion_bank/jog/hmr4d_results.pt (torch, 723967 bytes, 25 tensors)

body_pose f4 [165, 63]
0	0xbce4fc34	-0.027952291
1	0xbd355dc4	-0.044278875
2	0x3c881e26	0.016615938
3	0xbe36c350	-0.17847943
4	0xbd45fd31	-0.048337165
5	0x3ca667e7	0.020313216
6	0x3e3afa58	0.18259561
7	0x3d3765bc	0.044774756
8	0xbab08434	-0.0013467134
9	0x3e150d29	0.14555801
10	0xbe0fc2e3	-0.14039187
11	0xbd30ad18	-0.043133825
12	0x3e9d5e60	0.30736065
13	0xb99b4889	-0.00029617947
14	0x3d4a5d9e	0.049405687
15	0xbde1c098	-0.110230625
16	0x3ce7e841	0.02830899
17	0x3aa1df5c	0.0012349891
18	0xbe35d6c4	-0.17757708
19	0x3e307dba	0.17235461
20	0x3cf7e1b9	0.030259
21	0xbe255d08	-0.1614877
22	0xbe166b7d	-0.14689441
23	0x3d870bd7	0.06594055
24	0x3e1960b5	0.14978297
25	0x3d0c1340	0.034198046
26	0x3c3b7011	0.011440293
27	0xbc586443	-0.013207498
28	0xbc33e4bb	-0.010979827
29	0x3cb2b69b	0.021815589
30	0xbcb26fe9	-0.021781879
31	0x3bb76a24	0.0055973697
32	0x3d226e48	0.039655954
33	0x3d90f752	0.070784226
34	0xbe224ec1	-0.15850355
35	0x3e1e4015	0.15454133
36	0xbd56890a	-0.052376784
37	0xbdaec6a2	-0.0853398
38	0xbe2ec70f	-0.17068122
39	0xbe83583f	-0.25653264
40	0x3ea6019c	0.32423103
41	0xbdf8698c	-0.121295065
42	0x3c61bb28	0.013777532
43	0xbd394b7e	-0.04523801
44	0x3d9881b1	0.07446612
45	0x3e9d0539	0.30668047
46	0xbe5b2b4d	-0.21403237
47	0xbf6ce46b	-0.9253604
48	0xbed2e8b6	-0.4119317
49	0x3f337308	0.700974
50	0x3da46f16	0.080290005
51	0x3ed69bc3	0.41915712
52	0xbf917135	-1.1362673
53	0x3e1697c1	0.14706327
54	0xbdf9c0fe	-0.121950135
55	0x3f603f03	0.8759615
56	0xbedc25c1	-0.42997554
57	0xbe741d57	-0.23839317
58	0xbe0f28d6	-0.13980421
59	0x3da5b783	0.08091643
60	0x3e97e399	0.2966583
61	0x3d6fdc11	0.05855948
62	0xbe6b0c76	-0.22953972
63	0xbcafd471	-0.021463605
64	0xbd2badee	-0.04191392
65	0x3c8e8c65	0.01740093
66	0xbe313c16	-0.17308077
67	0xbd48505e	-0.04890477
68	0x3cb10d8e	0.021612909
69	0x3e36fef5	0.17870696
70	0x3d3acfbf	0.04560828
71	0xbb578038	-0.003288282
72	0x3e12cd07	0.14336024
73	0xbe0cbbd6	-0.13743529
74	0xbd36c6aa	-0.044623055
75	0x3e9c5b3b	0.30538353
76	0x3bab5ed9	0.0052298126
77	0x3d41b0a7	0.04728761
78	0xbdd60fdd	-0.104522444
79	0x3cd98516	0.026552718
80	0x3b99552f	0.004679344
81	0xbe3d30c0	-0.18475628
82	0x3e2c2db1	0.16814305
83	0x3d05c1ef	0.032655653
84	0xbe2a7ae0	-0.16648436
85	0xbe195da5	-0.14977129
86	0x3d7bd9cf	0.061487015
87	0x3e1447d9	0.14480533
88	0x3d062169	0.032746706
89	0x3c207a4a	0.009794781
90	0xbc58eefd	-0.013240573
91	0xbc398092	-0.011322157
92	0x3cc26602	0.023730282
93	0xbcaa2b48	-0.020772591
94	0x3be6cdb9	0.007043567
95	0x3d207ed1	0.03918344
96	0x3d9f16ca	0.077680185
97	0xbe24bed6	-0.16088423
98	0x3e24b6a4	0.16085297
99	0xbd4a0b8a	-0.04932741
100	0xbdb3947e	-0.08768557
101	0xbe273597	-0.16329037
102	0xbe85f135	-0.2616059
103	0x3ea7243f	0.3264484
104	0xbdfd9cff	-0.1238346
105	0x3ce8d25f	0.028420625
106	0xbd5591a6	-0.052140854
107	0x3d90dedc	0.07073757
108	0x3e9e8474	0.3096043
109	0xbe64ab73	-0.22331028
110	0xbf6f27ea	-0.9342028
111	0xbed36cfd	-0.4129409
112	0x3f36b2fc	0.7136686
113	0x3d9f1c52	0.077690735
114	0x3ed9b3d0	0.4252
115	0xbf8fd32f	-1.1236323
116	0x3e17d536	0.14827427
117	0xbdfba8a7	-0.12288027
118	0x3f58f684	0.84751153
119	0xbedf6577	-0.436321
120	0xbe71b61f	-0.2360463
121	0xbe0f52f1	-0.13996483
122	0x3da3f17a	0.080050424
123	0x3e97a06f	0.2961459
124	0x3d51e90b	0.051247638
125	0xbe623ee2	-0.220943
126	0xbc972aa1	-0.018452944
127	0xbd2477e7	-0.04015341
128	0x3c8d221a	0.017228175
129	0xbe2e4fbb	-0.17022602
130	0xbd42b42d	-0.04753511
131	0x3cbef388	0.023309484
132	0x3e3629eb	0.17789428
133	0x3d3e823e	0.046510927
134	0xbbd7c3a2	-0.0065846005
135	0x3e13aa2a	0.14420381
136	0xbe07fee4	-0.13280827
137	0xbd36f98a	-0.044671573
138	0x3e9bd06a	0.30432445
139	0x3c0c3ddd	0.008559671
140	0x3d35b21e	0.04435932
141	0xbdced05f	-0.100983374
142	0x3cc371c7	0.023857964
143	0x3bfc7294	0.0077040885
144	0xbe45e54d	-0.19325753
145	0x3e296240	0.16541386
146	0x3d142818	0.03617105
147	0xbe2d706d	-0.16937418
148	0xbe178b98	-0.14799345
149	0x3d6a1cd6	0.057156406
150	0x3e109973	0.14121036
151	0x3d02449d	0.031803716
152	0x3c1d25b7	0.009591511
153	0xbc5e027f	-0.0135504
154	0xbc46dc1f	-0.012137442
155	0x3cd280d3	0.025696194
156	0xbca514d2	-0.02015153
157	0x3c04d19e	0.008106617
158	0x3d1f0c23	0.038829934
159	0x3da55a0c	0.08073816
160	0xbe218ae2	-0.15775636
161	0x3e27c15c	0.16382354
162	0xbd3cb9b2	-0.04607553
163	0xbdb913ec	-0.09037003
164	0xbe26cf41	-0.16289999
165	0xbe879cb6	-0.26486748
166	0x3ea66bce	0.32504123
167	0xbdf9a9af	-0.12190568
168	0x3d1080cc	0.03527908
169	0xbd6ba6a4	-0.057531968
170	0x3d8a3b95	0.067496456
171	0x3e9ee83e	0.31036562
172	0xbe6762f0	-0.22596335
173	0xbf708e33	-0.9396698
174	0xbed05c28	-0.4069531
175	0x3f384048	0.71973085
176	0x3db9b2b0	0.09067285
177	0x3eda5901	0.4264603
178	0xbf8fb13a	-1.122596
179	0x3e17831e	0.14796111
180	0xbe031b2f	-0.12803338
181	0x3f5a8f36	0.8537477
182	0xbee84622	-0.45366007
183	0xbe6afbf6	-0.22947678
184	0xbe129889	-0.14316
185	0x3da6a422	0.081367746
186	0x3e9371e8	0.2879784
187	0x3d467b6c	0.048457548
188	0xbe5f0c2b	-0.21781985
189	0xbc8196db	-0.015819004
190	0xbd17c84d	-0.037056256
191	0x3c8d2542	0.01722968
192	0xbe2b2064	-0.16711575
193	0xbd3bec36	-0.045879565
194	0x3cd3e16d	0.025864327
195	0x3e34d660	0.17659903
196	0x3d41c2be	0.04730486
197	0xbc38359c	-0.01124325
198	0x3e119034	0.14215165
199	0xbe01426d	-0.12622996
200	0xbd2fe980	-0.042947292
201	0x3e98f33f	0.29873082
202	0x3c118e3b	0.008884008
203	0x3d2cda3b	0.04220031
204	0xbdcc3d31	-0.09972609
205	0x3caf795c	0.021420173
206	0x3c2b8d5b	0.0104707135
207	0xbe4e9cc8	-0.20176995
208	0x3e28fe9a	0.16503373
209	0x3d264e2c	0.040601894
210	0xbe2e24b9	-0.17006196
211	0xbe109bd1	-0.14121939
212	0x3d61b6e4	0.05510606
213	0x3e0d6712	0.1380885
214	0x3cfa396f	0.030544965
215	0x3c17f73c	0.009275254
216	0xbc654d21	-0.01399544
217	0xbc4bf899	-0.012449407
218	0x3cdc543e	0.026895639
219	0xbca55c3c	-0.020185582
220	0x3c07381a	0.008253122
221	0x3d1c741a	0.03819666
222	0x3da7baa3	0.08189895
223	0xbe19b474	-0.15010244
224	0x3e29714b	0.16547124
225	0xbd2b260f	-0.041784342
226	0xbdb9fbfe	-0.09081267
227	0xbe29e5ef	-0.16591619
228	0xbe884e4e	-0.26622242
229	0x3ea3ebd1	0.3201585
230	0xbdeb71fe	-0.11496352
231	0x3d259b20	0.04043114
232	0xbd8083b5	-0.06275121
233	0x3d842a8d	0.064534284
234	0x3ea0e66f	0.31425807
235	0xbe651bd9	-0.22373904
236	0xbf711e46	-0.9418682
237	0xbec9340f	-0.3929753
238	0x3f39891a	0.72474825
239	0x3df0f948	0.117662966
240	0x3edbef06	0.42955798
241	0xbf90c685	-1.1310583
242	0x3e151bb7	0.14561354
243	0xbe0811d4	-0.13288051
244	0x3f62065c	0.88290954
245	0xbef0f8eb	-0.4706491
246	0xbe678822	-0.22610524
247	0xbe1419d6	-0.1446298
248	0x3da024b2	0.07819499
249	0x3e8527d8	0.2600696
250	0x3d4b0ef0	0.049574792
251	0xbe5dd72c	-0.21664113
252	0xbc377ce9	-0.0111992145
253	0xbd1b5cf9	-0.037930463
254	0x3c61d515	0.013783713
255	0xbe232e5c	-0.15935653

betas f4 [165, 10]
0	0x3f28f999	0.66005856
1	0x3e1af569	0.15132679
2	0x3e947c5e	0.29001135
3	0xbf62bc94	-0.88569
4	0xbe867b12	-0.2626577
5	0xbdd8fbf8	-0.10594934
6	0xbd8a0332	-0.06738891
7	0xbd5651d8	-0.052324146
8	0xbc9416a0	-0.018077195
9	0xbcafbf60	-0.02145356
10	0x3f28f999	0.66005856
11	0x3e1af569	0.15132679
12	0x3e947c5e	0.29001135
13	0xbf62bc94	-0.88569
14	0xbe867b12	-0.2626577
15	0xbdd8fbf8	-0.10594934
16	0xbd8a0332	-0.06738891
17	0xbd5651d8	-0.052324146
18	0xbc9416a0	-0.018077195
19	0xbcafbf60	-0.02145356
20	0x3f28f999	0.66005856
21	0x3e1af569	0.15132679
22	0x3e947c5e	0.29001135
23	0xbf62bc94	-0.88569
24	0xbe867b12	-0.2626577
25	0xbdd8fbf8	-0.10594934
26	0xbd8a0332	-0.06738891
27	0xbd5651d8	-0.052324146
28	0xbc9416a0	-0.018077195
29	0xbcafbf60	-0.02145356
30	0x3f28f999	0.66005856
31	0x3e1af569	0.15132679
32	0x3e947c5e	0.29001135
33	0xbf62bc94	-0.88569
34	0xbe867b12	-0.2626577
35	0xbdd8fbf8	-0.10594934
36	0xbd8a0332	-0.06738891
37	0xbd5651d8	-0.052324146
38	0xbc9416a0	-0.018077195
39	0xbcafbf60	-0.02145356
40	0x3f28f999	0.66005856
41	0x3e1af569	0.15132679
42	0x3e947c5e	0.29001135
43	0xbf62bc94	-0.88569
44	0xbe867b12	-0.2626577
45	0xbdd8fbf8	-0.10594934
46	0xbd8a0332	-0.06738891
47	0xbd5651d8	-0.052324146
48	0xbc9416a0	-0.018077195
49	0xbcafbf60	-0.02145356
50	0x3f28f999	0.66005856
51	0x3e1af569	0.15132679
52	0x3e947c5e	0.29001135
53	0xbf62bc94	-0.88569
54	0xbe867b12	-0.2626577
55	0xbdd8fbf8	-0.10594934
56	0xbd8a0332	-0.06738891
57	0xbd5651d8	-0.052324146
58	0xbc9416a0	-0.018077195
59	0xbcafbf60	-0.02145356
60	0x3f28f999	0.66005856
61	0x3e1af569	0.15132679
62	0x3e947c5e	0.29001135
63	0xbf62bc94	-0.88569
64	0xbe867b12	-0.2626577
65	0xbdd8fbf8	-0.10594934
66	0xbd8a0332	-0.06738891
67	0xbd5651d8	-0.052324146
68	0xbc9416a0	-0.018077195
69	0xbcafbf60	-0.02145356
70	0x3f28f999	0.66005856
71	0x3e1af569	0.15132679
72	0x3e947c5e	0.29001135
73	0xbf62bc94	-0.88569
74	0xbe867b12	-0.2626577
75	0xbdd8fbf8	-0.10594934
76	0xbd8a0332	-0.06738891
77	0xbd5651d8	-0.052324146
78	0xbc9416a0	-0.018077195
79	0xbcafbf60	-0.02145356
80	0x3f28f999	0.66005856
81	0x3e1af569	0.15132679
82	0x3e947c5e	0.29001135
83	0xbf62bc94	-0.88569
84	0xbe867b12	-0.2626577
85	0xbdd8fbf8	-0.10594934
86	0xbd8a0332	-0.06738891
87	0xbd5651d8	-0.052324146
88	0xbc9416a0	-0.018077195
89	0xbcafbf60	-0.02145356
90	0x3f28f999	0.66005856
91	0x3e1af569	0.15132679
92	0x3e947c5e	0.29001135
93	0xbf62bc94	-0.88569
94	0xbe867b12	-0.2626577
95	0xbdd8fbf8	-0.10594934
96	0xbd8a0332	-0.06738891
97	0xbd5651d8	-0.052324146
98	0xbc9416a0	-0.018077195
99	0xbcafbf60	-0.02145356
100	0x3f28f999	0.66005856
101	0x3e1af569	0.15132679
102	0x3e947c5e	0.29001135
103	0xbf62bc94	-0.88569
104	0xbe867b12	-0.2626577
105	0xbdd8fbf8	-0.10594934
106	0xbd8a0332	-0.06738891
107	0xbd5651d8	-0.052324146
108	0xbc9416a0	-0.018077195
109	0xbcafbf60	-0.02145356
110	0x3f28f999	0.66005856
111	0x3e1af569	0.15132679
112	0x3e947c5e	0.29001135
113	0xbf62bc94	-0.88569
114	0xbe867b12	-0.2626577
115	0xbdd8fbf8	-0.10594934
116	0xbd8a0332	-0.06738891
117	0xbd5651d8	-0.052324146
118	0xbc9416a0	-0.018077195
119	0xbcafbf60	-0.02145356
120	0x3f28f999	0.66005856
121	0x3e1af569	0.15132679
122	0x3e947c5e	0.29001135
123	0xbf62bc94	-0.88569
124	0xbe867b12	-0.2626577
125	0xbdd8fbf8	-0.10594934
126	0xbd8a0332	-0.06738891
127	0xbd5651d8	-0.052324146
128	0xbc9416a0	-0.018077195
129	0xbcafbf60	-0.02145356
130	0x3f28f999	0.66005856
131	0x3e1af569	0.15132679
132	0x3e947c5e	0.29001135
133	0xbf62bc94	-0.88569
134	0xbe867b12	-0.2626577
135	0xbdd8fbf8	-0.10594934
136	0xbd8a0332	-0.06738891
137	0xbd5651d8	-0.052324146
138	0xbc9416a0	-0.018077195
139	0xbcafbf60	-0.02145356
140	0x3f28f999	0.66005856
141	0x3e1af569	0.15132679
142	0x3e947c5e	0.29001135
143	0xbf62bc94	-0.88569
144	0xbe867b12	-0.2626577
145	0xbdd8fbf8	-0.10594934
146	0xbd8a0332	-0.06738891
147	0xbd5651d8	-0.052324146
148	0xbc9416a0	-0.018077195
149	0xbcafbf60	-0.02145356
150	0x3f28f999	0.66005856
151	0x3e1af569	0.15132679
152	0x3e947c5e	0.29001135
153	0xbf62bc94	-0.88569
154	0xbe867b12	-0.2626577
155	0xbdd8fbf8	-0.10594934
156	0xbd8a0332	-0.06738891
157	0xbd5651d8	-0.052324146
158	0xbc9416a0	-0.018077195
159	0xbcafbf60	-0.02145356
160	0x3f28f999	0.66005856
161	0x3e1af569	0.15132679
162	0x3e947c5e	0.29001135
163	0xbf62bc94	-0.88569
164	0xbe867b12	-0.2626577
165	0xbdd8fbf8	-0.10594934
166	0xbd8a0332	-0.06738891
167	0xbd5651d8	-0.052324146
168	0xbc9416a0	-0.018077195
169	0xbcafbf60	-0.02145356
170	0x3f28f999	0.66005856
171	0x3e1af569	0.15132679
172	0x3e947c5e	0.29001135
173	0xbf62bc94	-0.88569
174	0xbe867b12	-0.2626577
175	0xbdd8fbf8	-0.10594934
176	0xbd8a0332	-0.06738891
177	0xbd5651d8	-0.052324146
178	0xbc9416a0	-0.018077195
179	0xbcafbf60	-0.02145356
180	0x3f28f999	0.66005856
181	0x3e1af569	0.15132679
182	0x3e947c5e	0.29001135
183	0xbf62bc94	-0.88569
184	0xbe867b12	-0.2626577
185	0xbdd8fbf8	-0.10594934
186	0xbd8a0332	-0.06738891
187	0xbd5651d8	-0.052324146
188	0xbc9416a0	-0.018077195
189	0xbcafbf60	-0.02145356
190	0x3f28f999	0.66005856
191	0x3e1af569	0.15132679
192	0x3e947c5e	0.29001135
193	0xbf62bc94	-0.88569
194	0xbe867b12	-0.2626577
195	0xbdd8fbf8	-0.10594934
196	0xbd8a0332	-0.06738891
197	0xbd5651d8	-0.052324146
198	0xbc9416a0	-0.018077195
199	0xbcafbf60	-0.02145356
200	0x3f28f999	0.66005856
201	0x3e1af569	0.15132679
202	0x3e947c5e	0.29001135
203	0xbf62bc94	-0.88569
204	0xbe867b12	-0.2626577
205	0xbdd8fbf8	-0.10594934
206	0xbd8a0332	-0.06738891
207	0xbd5651d8	-0.052324146
208	0xbc9416a0	-0.018077195
209	0xbcafbf60	-0.02145356
210	0x3f28f999	0.66005856
211	0x3e1af569	0.15132679
212	0x3e947c5e	0.29001135
213	0xbf62bc94	-0.88569
214	0xbe867b12	-0.2626577
215	0xbdd8fbf8	-0.10594934
216	0xbd8a0332	-0.06738891
217	0xbd5651d8	-0.052324146
218	0xbc9416a0	-0.018077195
219	0xbcafbf60	-0.02145356
220	0x3f28f999	0.66005856
221	0x3e1af569	0.15132679
222	0x3e947c5e	0.29001135
223	0xbf62bc94	-0.88569
224	0xbe867b12	-0.2626577
225	0xbdd8fbf8	-0.10594934
226	0xbd8a0332	-0.06738891
227	0xbd5651d8	-0.052324146
228	0xbc9416a0	-0.018077195
229	0xbcafbf60	-0.02145356
230	0x3f28f999	0.66005856
231	0x3e1af569	0.15132679
232	0x3e947c5e	0.29001135
233	0xbf62bc94	-0.88569
234	0xbe867b12	-0.2626577
235	0xbdd8fbf8	-0.10594934
236	0xbd8a0332	-0.06738891
237	0xbd5651d8	-0.052324146
238	0xbc9416a0	-0.018077195
239	0xbcafbf60	-0.02145356
240	0x3f28f999	0.66005856
241	0x3e1af569	0.15132679
242	0x3e947c5e	0.29001135
243	0xbf62bc94	-0.88569
244	0xbe867b12	-0.2626577
245	0xbdd8fbf8	-0.10594934
246	0xbd8a0332	-0.06738891
247	0xbd5651d8	-0.052324146
248	0xbc9416a0	-0.018077195
249	0xbcafbf60	-0.02145356
250	0x3f28f999	0.66005856
251	0x3e1af569	0.15132679
252	0x3e947c5e	0.29001135
253	0xbf62bc94	-0.88569
254	0xbe867b12	-0.2626577
255	0xbdd8fbf8	-0.10594934

global_orient f4 [165, 3]
0	0x3cd14b1f	0.025548516
1	0xc041835f	-3.0236433
2	0xbd387f2c	-0.045043156
3	0x3cd07a87	0.02544905
4	0xc0416bee	-3.0222125
5	0xbd41c696	-0.047308527
6	0x3ce9d7bf	0.028545259
7	0xc04180d4	-3.023488
8	0xbd4734ef	-0.048634466
9	0x3d18158b	0.03712992
10	0xc041eb60	-3.0299911
11	0xbd3f8bdb	-0.046764236
12	0x3d154e1d	0.036451448
13	0xc042500c	-3.0361357
14	0xbd2d753f	-0.042348143
15	0x3d072860	0.03299749
16	0xc043642a	-3.0529885
17	0xbd223d8a	-0.03960947
18	0x3d120c18	0.035656065
19	0xc0448050	-3.0703316
20	0xbd1e07f9	-0.038581822
21	0x3d2683c0	0.04065299
22	0xc045d9a8	-3.0914097
23	0xbd24718e	-0.040147357
24	0x3d154c19	0.036449526
25	0xc046c0c4	-3.1055155
26	0xbd2bb51b	-0.041920763
27	0x3d195fa5	0.03744473
28	0xc046f883	-3.108918
29	0xbd38bf12	-0.045104094
30	0x3d134f48	0.03596428
31	0xc047512f	-3.11433
32	0xbd42ada5	-0.04752888
33	0x3d306da7	0.043073323
34	0xc047665b	-3.1156223
35	0xbd278967	-0.04090252
36	0x3d4fb4cb	0.050709527
37	0xc047570f	-3.1146886
38	0xbd0cc341	-0.034365896
39	0x3d7ab32e	0.061206035
40	0xc047bc50	-3.1208687
41	0xbcc72979	-0.024311768
42	0x3d86d59c	0.065837115
43	0xc047f7df	-3.1245039
44	0xbc25c15d	-0.010116902
45	0x3d743497	0.059620466
46	0xc04866e3	-3.1312797
47	0x3c2d9776	0.010595193
48	0x3d41ea1a	0.047342397
49	0xc048b51a	-3.1360536
50	0x3cd47e40	0.025939107
51	0xbd04bc17	-0.03240594
52	0x404896da	3.1342072
53	0xbd20a607	-0.039220836
54	0xbc8dacc4	-0.017294295
55	0x4047fa7c	3.1246634
56	0xbd654421	-0.055973176
57	0xbc00d87b	-0.007864113
58	0x40477b51	3.1169016
59	0xbd936dde	-0.0719869
60	0x3b805fd6	0.0039176745
61	0x40471a8c	3.1109953
62	0xbda90de1	-0.082546
63	0x3bcb3a5f	0.0062020267
64	0x404648c1	3.0981905
65	0xbdb3ae21	-0.08773447
66	0xbbfd09ce	-0.007722116
67	0x404551e5	3.0831234
68	0xbd93374d	-0.07188282
69	0xbcee5efb	-0.029098025
70	0x4043ab04	3.057313
71	0xbd59569d	-0.053061116
72	0xbd30c1dd	-0.043153632
73	0x4041c613	3.0277145
74	0xbcdb257d	-0.026751274
75	0xbd1efb90	-0.038814127
76	0x403fe2e1	2.9982226
77	0xbd04e202	-0.0324421
78	0xbcbade01	-0.022810938
79	0x403e4467	2.972925
80	0xbd2fe161	-0.042939547
81	0x3b80a0e1	0.0039254283
82	0x403d0808	2.9536152
83	0xbd80f85e	-0.06297372
84	0x3c85d14e	0.016335156
85	0x403c7afb	2.9450061
86	0xbdc3edfe	-0.09566878
87	0x3c750c32	0.014956521
88	0x403c2613	2.9398239
89	0xbe0f776d	-0.14010401
90	0x3b2c2176	0.0026265061
91	0x403c90d4	2.9463396
92	0xbe1f0543	-0.15529351
93	0xbc7e41a2	-0.015518578
94	0x403d471a	2.9574647
95	0xbe16d879	-0.14731015
96	0xbcdc683f	-0.026905177
97	0x403e72c2	2.9757543
98	0xbdf5d7bb	-0.12004038
99	0xbcc6736a	-0.024224956
100	0x403fb678	2.995512
101	0xbdd8db4a	-0.10588701
102	0xbc434a27	-0.011919535
103	0x4041093d	3.0161889
104	0xbde2f7f7	-0.11082452
105	0xbc79d963	-0.015249583
106	0x4042b246	3.042131
107	0xbdce89c1	-0.10084868
108	0xbd0ca724	-0.034339085
109	0x40445ff7	3.0683572
110	0xbdbe7132	-0.09298934
111	0xbd5e156e	-0.054219656
112	0x40455098	3.083044
113	0xbdc11cd1	-0.094293244
114	0xbd968b8b	-0.073508345
115	0x4045fddf	3.09362
116	0xbdc0cde9	-0.09414274
117	0xbda13714	-0.078718334
118	0x404644e2	3.0979543
119	0xbddcf2b9	-0.10788483
120	0xbd9dbb0b	-0.07701691
121	0x4045f411	3.0930216
122	0xbde926e4	-0.11384371
123	0xbd649438	-0.055805415
124	0x40452111	3.0801432
125	0xbdd0c58a	-0.101939276
126	0xbd28eee0	-0.041243434
127	0x4043cde5	3.0594418
128	0xbd958726	-0.07301168
129	0xbd303647	-0.043020513
130	0x4042324f	3.0343206
131	0xbd4d9ded	-0.050199438
132	0xbd755d16	-0.059903227
133	0x404091b5	3.0088933
134	0xbd20d144	-0.03926207
135	0xbd90aec9	-0.070645876
136	0x403eefc0	2.9833832
137	0xbd160474	-0.03662534
138	0xbd8de24f	-0.069279306
139	0x403dc230	2.9649773
140	0xbcfcc753	-0.030856764
141	0xbd376d63	-0.044782054
142	0x403cce6c	2.950099
143	0xbcc98774	-0.024600722
144	0x3b4e4aee	0.0031477767
145	0x403caa66	2.9479003
146	0xbd38df37	-0.04513475
147	0x3cf9a2a5	0.030473063
148	0x403cf2c3	2.952317
149	0xbdcbccb2	-0.09951152
150	0x3cfbcfcc	0.030738734
151	0x403d8757	2.9613855
152	0xbe191ff2	-0.14953592
153	0x3c8734c8	0.01650466
154	0x403e34bd	2.971969
155	0xbe1f72aa	-0.15571085
156	0xbb8f0951	-0.0043651243
157	0x403e8110	2.9766273
158	0xbe03ec7a	-0.12883177
159	0xbc689513	-0.014195698
160	0x403f2f2b	2.987254
161	0xbddb33da	-0.10703249
162	0xbc413922	-0.011793407
163	0x4040b641	3.011124
164	0xbdc46c3d	-0.09590957
165	0x3c0b6a65	0.008509253
166	0x404256ec	3.0365553
167	0xbda4551a	-0.08024044
168	0x3c610757	0.01373466
169	0x4043a3f4	3.056882
170	0xbd88519b	-0.0665619
171	0xbb7c8003	-0.003852845
172	0x4044cf35	3.075147
173	0xbd3e7515	-0.046498377
174	0xbd022bcf	-0.03178006
175	0x4045998e	3.0874972
176	0xbd12ce48	-0.035841256
177	0xbd6c7360	-0.057727218
178	0x4045fd00	3.093567
179	0xbd04d212	-0.0324269
180	0xbd861484	-0.06546882
181	0x4045fa9e	3.0934215
182	0xbd353a5e	-0.044245116
183	0xbd68c101	-0.056824688
184	0x40463c13	3.0974166
185	0xbd23c6c5	-0.039984483
186	0xbd09b8cf	-0.033623513
187	0x40460a5a	3.0943818
188	0xbc5eb4c4	-0.013592903
189	0xbcc16e96	-0.023612302
190	0x4044b32b	3.0734355
191	0x3c10e14b	0.0088427765
192	0xbcdb377f	-0.026759861
193	0x404303c9	3.047106
194	0x3c81cda1	0.015845122
195	0xbd288951	-0.04114658
196	0x4041640f	3.021732
197	0x3cde874e	0.027164128
198	0xbd6acc54	-0.05732377
199	0x403f9f07	2.9940813
200	0x3ca33d4d	0.019926691
201	0xbd79494c	-0.060860917
202	0x403e1641	2.9701083
203	0x3ca4169e	0.020030316
204	0xbd0a7a57	-0.03380808
205	0x403d29c0	2.9556732
206	0x3ca1f6be	0.019770976
207	0x3aeacda6	0.0017914071
208	0x403d43f9	2.9572737
209	0xbba3a9df	-0.0049946154
210	0x3d0a45c9	0.03375796
211	0x403de065	2.966821
212	0xbd562a9c	-0.05228673
213	0x3d143dd5	0.03619178
214	0x403deda9	2.9676306
215	0xbdbc1a05	-0.0918465
216	0x3cad2577	0.021136029
217	0x403e9887	2.9780595
218	0xbde02b68	-0.10945779
219	0x3aeae593	0.0017921202
220	0x403e56f2	2.9740567
221	0xbdcbc2b1	-0.09949244
222	0xbc3cd69c	-0.011525776
223	0x403e1ab8	2.9703808
224	0xbd9d2308	-0.07672697
225	0xbc8f9af6	-0.017529946
226	0x403eaa1c	2.9791327
227	0xbd71c5b3	-0.05902643
228	0xbbe2a1a4	-0.0069162417
229	0x403fdf4e	2.9980044
230	0xbd39066d	-0.045172144
231	0x3bc44cb3	0.0059905886
232	0x4040faa7	3.0152986
233	0xbcf7045b	-0.030153444
234	0x3b33c776	0.002743212
235	0x404291f2	3.0401578
236	0xbba53538	-0.0050417446
237	0xbc96478f	-0.018344669
238	0x4043b9a0	3.0582047
239	0x3cba1719	0.022716092
240	0xbd2b6b64	-0.041850463
241	0x40450a0f	3.078739
242	0x3d1b1987	0.03786614
243	0xbd4d36ef	-0.050101217
244	0x40454ecf	3.082935
245	0x3ce8740f	0.028375654
246	0xbd4bb673	-0.049734544
247	0x40458c0c	3.0866728
248	0x3c7322fc	0.014839884
249	0xbd224cd6	-0.039624058
250	0x4045adcb	3.0887325
251	0x3cb8d372	0.022561762
252	0xbca2521a	-0.01981454
253	0x4045878b	3.086398
254	0x3d0f62bf	0.03500628
255	0xbc370443	-0.01117045

body_pose f4 [165, 63]
0	0xbce4fc34	-0.027952291
1	0xbd355dc4	-0.044278875
2	0x3c881e26	0.016615938
3	0xbe36c350	-0.17847943
4	0xbd45fd31	-0.048337165
5	0x3ca667e7	0.020313216
6	0x3e3afa58	0.18259561
7	0x3d3765bc	0.044774756
8	0xbab08434	-0.0013467134
9	0x3e150d29	0.14555801
10	0xbe0fc2e3	-0.14039187
11	0xbd30ad18	-0.043133825
12	0x3e9d5e60	0.30736065
13	0xb99b4889	-0.00029617947
14	0x3d4a5d9e	0.049405687
15	0xbde1c098	-0.110230625
16	0x3ce7e841	0.02830899
17	0x3aa1df5c	0.0012349891
18	0xbe35d6c4	-0.17757708
19	0x3e307dba	0.17235461
20	0x3cf7e1b9	0.030259
21	0xbe255d08	-0.1614877
22	0xbe166b7d	-0.14689441
23	0x3d870bd7	0.06594055
24	0x3e1960b5	0.14978297
25	0x3d0c1340	0.034198046
26	0x3c3b7011	0.011440293
27	0xbc586443	-0.013207498
28	0xbc33e4bb	-0.010979827
29	0x3cb2b69b	0.021815589
30	0xbcb26fe9	-0.021781879
31	0x3bb76a24	0.0055973697
32	0x3d226e48	0.039655954
33	0x3d90f752	0.070784226
34	0xbe224ec1	-0.15850355
35	0x3e1e4015	0.15454133
36	0xbd56890a	-0.052376784
37	0xbdaec6a2	-0.0853398
38	0xbe2ec70f	-0.17068122
39	0xbe83583f	-0.25653264
40	0x3ea6019c	0.32423103
41	0xbdf8698c	-0.121295065
42	0x3c61bb28	0.013777532
43	0xbd394b7e	-0.04523801
44	0x3d9881b1	0.07446612
45	0x3e9d0539	0.30668047
46	0xbe5b2b4d	-0.21403237
47	0xbf6ce46b	-0.9253604
48	0xbed2e8b6	-0.4119317
49	0x3f337308	0.700974
50	0x3da46f16	0.080290005
51	0x3ed69bc3	0.41915712
52	0xbf917135	-1.1362673
53	0x3e1697c1	0.14706327
54	0xbdf9c0fe	-0.121950135
55	0x3f603f03	0.8759615
56	0xbedc25c1	-0.42997554
57	0xbe741d57	-0.23839317
58	0xbe0f28d6	-0.13980421
59	0x3da5b783	0.08091643
60	0x3e97e399	0.2966583
61	0x3d6fdc11	0.05855948
62	0xbe6b0c76	-0.22953972
63	0xbcafd471	-0.021463605
64	0xbd2badee	-0.04191392
65	0x3c8e8c65	0.01740093
66	0xbe313c16	-0.17308077
67	0xbd48505e	-0.04890477
68	0x3cb10d8e	0.021612909
69	0x3e36fef5	0.17870696
70	0x3d3acfbf	0.04560828
71	0xbb578038	-0.003288282
72	0x3e12cd07	0.14336024
73	0xbe0cbbd6	-0.13743529
74	0xbd36c6aa	-0.044623055
75	0x3e9c5b3b	0.30538353
76	0x3bab5ed9	0.0052298126
77	0x3d41b0a7	0.04728761
78	0xbdd60fdd	-0.104522444
79	0x3cd98516	0.026552718
80	0x3b99552f	0.004679344
81	0xbe3d30c0	-0.18475628
82	0x3e2c2db1	0.16814305
83	0x3d05c1ef	0.032655653
84	0xbe2a7ae0	-0.16648436
85	0xbe195da5	-0.14977129
86	0x3d7bd9cf	0.061487015
87	0x3e1447d9	0.14480533
88	0x3d062169	0.032746706
89	0x3c207a4a	0.009794781
90	0xbc58eefd	-0.013240573
91	0xbc398092	-0.011322157
92	0x3cc26602	0.023730282
93	0xbcaa2b48	-0.020772591
94	0x3be6cdb9	0.007043567
95	0x3d207ed1	0.03918344
96	0x3d9f16ca	0.077680185
97	0xbe24bed6	-0.16088423
98	0x3e24b6a4	0.16085297
99	0xbd4a0b8a	-0.04932741
100	0xbdb3947e	-0.08768557
101	0xbe273597	-0.16329037
102	0xbe85f135	-0.2616059
103	0x3ea7243f	0.3264484
104	0xbdfd9cff	-0.1238346
105	0x3ce8d25f	0.028420625
106	0xbd5591a6	-0.052140854
107	0x3d90dedc	0.07073757
108	0x3e9e8474	0.3096043
109	0xbe64ab73	-0.22331028
110	0xbf6f27ea	-0.9342028
111	0xbed36cfd	-0.4129409
112	0x3f36b2fc	0.7136686
113	0x3d9f1c52	0.077690735
114	0x3ed9b3d0	0.4252
115	0xbf8fd32f	-1.1236323
116	0x3e17d536	0.14827427
117	0xbdfba8a7	-0.12288027
118	0x3f58f684	0.84751153
119	0xbedf6577	-0.436321
120	0xbe71b61f	-0.2360463
121	0xbe0f52f1	-0.13996483
122	0x3da3f17a	0.080050424
123	0x3e97a06f	0.2961459
124	0x3d51e90b	0.051247638
125	0xbe623ee2	-0.220943
126	0xbc972aa1	-0.018452944
127	0xbd2477e7	-0.04015341
128	0x3c8d221a	0.017228175
129	0xbe2e4fbb	-0.17022602
130	0xbd42b42d	-0.04753511
131	0x3cbef388	0.023309484
132	0x3e3629eb	0.17789428
133	0x3d3e823e	0.046510927
134	0xbbd7c3a2	-0.0065846005
135	0x3e13aa2a	0.14420381
136	0xbe07fee4	-0.13280827
137	0xbd36f98a	-0.044671573
138	0x3e9bd06a	0.30432445
139	0x3c0c3ddd	0.008559671
140	0x3d35b21e	0.04435932
141	0xbdced05f	-0.100983374
142	0x3cc371c7	0.023857964
143	0x3bfc7294	0.0077040885
144	0xbe45e54d	-0.19325753
145	0x3e296240	0.16541386
146	0x3d142818	0.03617105
147	0xbe2d706d	-0.16937418
148	0xbe178b98	-0.14799345
149	0x3d6a1cd6	0.057156406
150	0x3e109973	0.14121036
151	0x3d02449d	0.031803716
152	0x3c1d25b7	0.009591511
153	0xbc5e027f	-0.0135504
154	0xbc46dc1f	-0.012137442
155	0x3cd280d3	0.025696194
156	0xbca514d2	-0.02015153
157	0x3c04d19e	0.008106617
158	0x3d1f0c23	0.038829934
159	0x3da55a0c	0.08073816
160	0xbe218ae2	-0.15775636
161	0x3e27c15c	0.16382354
162	0xbd3cb9b2	-0.04607553
163	0xbdb913ec	-0.09037003
164	0xbe26cf41	-0.16289999
165	0xbe879cb6	-0.26486748
166	0x3ea66bce	0.32504123
167	0xbdf9a9af	-0.12190568
168	0x3d1080cc	0.03527908
169	0xbd6ba6a4	-0.057531968
170	0x3d8a3b95	0.067496456
171	0x3e9ee83e	0.31036562
172	0xbe6762f0	-0.22596335
173	0xbf708e33	-0.9396698
174	0xbed05c28	-0.4069531
175	0x3f384048	0.71973085
176	0x3db9b2b0	0.09067285
177	0x3eda5901	0.4264603
178	0xbf8fb13a	-1.122596
179	0x3e17831e	0.14796111
180	0xbe031b2f	-0.12803338
181	0x3f5a8f36	0.8537477
182	0xbee84622	-0.45366007
183	0xbe6afbf6	-0.22947678
184	0xbe129889	-0.14316
185	0x3da6a422	0.081367746
186	0x3e9371e8	0.2879784
187	0x3d467b6c	0.048457548
188	0xbe5f0c2b	-0.21781985
189	0xbc8196db	-0.015819004
190	0xbd17c84d	-0.037056256
191	0x3c8d2542	0.01722968
192	0xbe2b2064	-0.16711575
193	0xbd3bec36	-0.045879565
194	0x3cd3e16d	0.025864327
195	0x3e34d660	0.17659903
196	0x3d41c2be	0.04730486
197	0xbc38359c	-0.01124325
198	0x3e119034	0.14215165
199	0xbe01426d	-0.12622996
200	0xbd2fe980	-0.042947292
201	0x3e98f33f	0.29873082
202	0x3c118e3b	0.008884008
203	0x3d2cda3b	0.04220031
204	0xbdcc3d31	-0.09972609
205	0x3caf795c	0.021420173
206	0x3c2b8d5b	0.0104707135
207	0xbe4e9cc8	-0.20176995
208	0x3e28fe9a	0.16503373
209	0x3d264e2c	0.040601894
210	0xbe2e24b9	-0.17006196
211	0xbe109bd1	-0.14121939
212	0x3d61b6e4	0.05510606
213	0x3e0d6712	0.1380885
214	0x3cfa396f	0.030544965
215	0x3c17f73c	0.009275254
216	0xbc654d21	-0.01399544
217	0xbc4bf899	-0.012449407
218	0x3cdc543e	0.026895639
219	0xbca55c3c	-0.020185582
220	0x3c07381a	0.008253122
221	0x3d1c741a	0.03819666
222	0x3da7baa3	0.08189895
223	0xbe19b474	-0.15010244
224	0x3e29714b	0.16547124
225	0xbd2b260f	-0.041784342
226	0xbdb9fbfe	-0.09081267
227	0xbe29e5ef	-0.16591619
228	0xbe884e4e	-0.26622242
229	0x3ea3ebd1	0.3201585
230	0xbdeb71fe	-0.11496352
231	0x3d259b20	0.04043114
232	0xbd8083b5	-0.06275121
233	0x3d842a8d	0.064534284
234	0x3ea0e66f	0.31425807
235	0xbe651bd9	-0.22373904
236	0xbf711e46	-0.9418682
237	0xbec9340f	-0.3929753
238	0x3f39891a	0.72474825
239	0x3df0f948	0.117662966
240	0x3edbef06	0.42955798
241	0xbf90c685	-1.1310583
242	0x3e151bb7	0.14561354
243	0xbe0811d4	-0.13288051
244	0x3f62065c	0.88290954
245	0xbef0f8eb	-0.4706491
246	0xbe678822	-0.22610524
247	0xbe1419d6	-0.1446298
248	0x3da024b2	0.07819499
249	0x3e8527d8	0.2600696
250	0x3d4b0ef0	0.049574792
251	0xbe5dd72c	-0.21664113
252	0xbc377ce9	-0.0111992145
253	0xbd1b5cf9	-0.037930463
254	0x3c61d515	0.013783713
255	0xbe232e5c	-0.15935653

betas f4 [165, 10]
0	0x3f28f999	0.66005856
1	0x3e1af569	0.15132679
2	0x3e947c5e	0.29001135
3	0xbf62bc94	-0.88569
4	0xbe867b12	-0.2626577
5	0xbdd8fbf8	-0.10594934
6	0xbd8a0332	-0.06738891
7	0xbd5651d8	-0.052324146
8	0xbc9416a0	-0.018077195
9	0xbcafbf60	-0.02145356
10	0x3f28f999	0.66005856
11	0x3e1af569	0.15132679
12	0x3e947c5e	0.29001135
13	0xbf62bc94	-0.88569
14	0xbe867b12	-0.2626577
15	0xbdd8fbf8	-0.10594934
16	0xbd8a0332	-0.06738891
17	0xbd5651d8	-0.052324146
18	0xbc9416a0	-0.018077195
19	0xbcafbf60	-0.02145356
20	0x3f28f999	0.66005856
21	0x3e1af569	0.15132679
22	0x3e947c5e	0.29001135
23	0xbf62bc94	-0.88569
24	0xbe867b12	-0.2626577
25	0xbdd8fbf8	-0.10594934
26	0xbd8a0332	-0.06738891
27	0xbd5651d8	-0.052324146
28	0xbc9416a0	-0.018077195
29	0xbcafbf60	-0.02145356
30	0x3f28f999	0.66005856
31	0x3e1af569	0.15132679
32	0x3e947c5e	0.29001135
33	0xbf62bc94	-0.88569
34	0xbe867b12	-0.2626577
35	0xbdd8fbf8	-0.10594934
36	0xbd8a0332	-0.06738891
37	0xbd5651d8	-0.052324146
38	0xbc9416a0	-0.018077195
39	0xbcafbf60	-0.02145356
40	0x3f28f999	0.66005856
41	0x3e1af569	0.15132679
42	0x3e947c5e	0.29001135
43	0xbf62bc94	-0.88569
44	0xbe867b12	-0.2626577
45	0xbdd8fbf8	-0.10594934
46	0xbd8a0332	-0.06738891
47	0xbd5651d8	-0.052324146
48	0xbc9416a0	-0.018077195
49	0xbcafbf60	-0.02145356
50	0x3f28f999	0.66005856
51	0x3e1af569	0.15132679
52	0x3e947c5e	0.29001135
53	0xbf62bc94	-0.88569
54	0xbe867b12	-0.2626577
55	0xbdd8fbf8	-0.10594934
56	0xbd8a0332	-0.06738891
57	0xbd5651d8	-0.052324146
58	0xbc9416a0	-0.018077195
59	0xbcafbf60	-0.02145356
60	0x3f28f999	0.66005856
61	0x3e1af569	0.15132679
62	0x3e947c5e	0.29001135
63	0xbf62bc94	-0.88569
64	0xbe867b12	-0.2626577
65	0xbdd8fbf8	-0.10594934
66	0xbd8a0332	-0.06738891
67	0xbd5651d8	-0.052324146
68	0xbc9416a0	-0.018077195
69	0xbcafbf60	-0.02145356
70	0x3f28f999	0.66005856
71	0x3e1af569	0.15132679
72	0x3e947c5e	0.29001135
73	0xbf62bc94	-0.88569
74	0xbe867b12	-0.2626577
75	0xbdd8fbf8	-0.10594934
76	0xbd8a0332	-0.06738891
77	0xbd5651d8	-0.052324146
78	0xbc9416a0	-0.018077195
79	0xbcafbf60	-0.02145356
80	0x3f28f999	0.66005856
81	0x3e1af569	0.15132679
82	0x3e947c5e	0.29001135
83	0xbf62bc94	-0.88569
84	0xbe867b12	-0.2626577
85	0xbdd8fbf8	-0.10594934
86	0xbd8a0332	-0.06738891
87	0xbd5651d8	-0.052324146
88	0xbc9416a0	-0.018077195
89	0xbcafbf60	-0.02145356
90	0x3f28f999	0.66005856
91	0x3e1af569	0.15132679
92	0x3e947c5e	0.29001135
93	0xbf62bc94	-0.88569
94	0xbe867b12	-0.2626577
95	0xbdd8fbf8	-0.10594934
96	0xbd8a0332	-0.06738891
97	0xbd5651d8	-0.052324146
98	0xbc9416a0	-0.018077195
99	0xbcafbf60	-0.02145356
100	0x3f28f999	0.66005856
101	0x3e1af569	0.15132679
102	0x3e947c5e	0.29001135
103	0xbf62bc94	-0.88569
104	0xbe867b12	-0.2626577
105	0xbdd8fbf8	-0.10594934
106	0xbd8a0332	-0.06738891
107	0xbd5651d8	-0.052324146
108	0xbc9416a0	-0.018077195
109	0xbcafbf60	-0.02145356
110	0x3f28f999	0.66005856
111	0x3e1af569	0.15132679
112	0x3e947c5e	0.29001135
113	0xbf62bc94	-0.88569
114	0xbe867b12	-0.2626577
115	0xbdd8fbf8	-0.10594934
116	0xbd8a0332	-0.06738891
117	0xbd5651d8	-0.052324146
118	0xbc9416a0	-0.018077195
119	0xbcafbf60	-0.02145356
120	0x3f28f999	0.66005856
121	0x3e1af569	0.15132679
122	0x3e947c5e	0.29001135
123	0xbf62bc94	-0.88569
124	0xbe867b12	-0.2626577
125	0xbdd8fbf8	-0.10594934
126	0xbd8a0332	-0.06738891
127	0xbd5651d8	-0.052324146
128	0xbc9416a0	-0.018077195
129	0xbcafbf60	-0.02145356
130	0x3f28f999	0.66005856
131	0x3e1af569	0.15132679
132	0x3e947c5e	0.29001135
133	0xbf62bc94	-0.88569
134	0xbe867b12	-0.2626577
135	0xbdd8fbf8	-0.10594934
136	0xbd8a0332	-0.06738891
137	0xbd5651d8	-0.052324146
138	0xbc9416a0	-0.018077195
139	0xbcafbf60	-0.02145356
140	0x3f28f999	0.66005856
141	0x3e1af569	0.15132679
142	0x3e947c5e	0.29001135
143	0xbf62bc94	-0.88569
144	0xbe867b12	-0.2626577
145	0xbdd8fbf8	-0.10594934
146	0xbd8a0332	-0.06738891
147	0xbd5651d8	-0.052324146
148	0xbc9416a0	-0.018077195
149	0xbcafbf60	-0.02145356
150	0x3f28f999	0.66005856
151	0x3e1af569	0.15132679
152	0x3e947c5e	0.29001135
153	0xbf62bc94	-0.88569
154	0xbe867b12	-0.2626577
155	0xbdd8fbf8	-0.10594934
156	0xbd8a0332	-0.06738891
157	0xbd5651d8	-0.052324146
158	0xbc9416a0	-0.018077195
159	0xbcafbf60	-0.02145356
160	0x3f28f999	0.66005856
161	0x3e1af569	0.15132679
162	0x3e947c5e	0.29001135
163	0xbf62bc94	-0.88569
164	0xbe867b12	-0.2626577
165	0xbdd8fbf8	-0.10594934
166	0xbd8a0332	-0.06738891
167	0xbd5651d8	-0.052324146
168	0xbc9416a0	-0.018077195
169	0xbcafbf60	-0.02145356
170	0x3f28f999	0.66005856
171	0x3e1af569	0.15132679
172	0x3e947c5e	0.29001135
173	0xbf62bc94	-0.88569
174	0xbe867b12	-0.2626577
175	0xbdd8fbf8	-0.10594934
176	0xbd8a0332	-0.06738891
177	0xbd5651d8	-0.052324146
178	0xbc9416a0	-0.018077195
179	0xbcafbf60	-0.02145356
180	0x3f28f999	0.66005856
181	0x3e1af569	0.15132679
182	0x3e947c5e	0.29001135
183	0xbf62bc94	-0.88569
184	0xbe867b12	-0.2626577
185	0xbdd8fbf8	-0.10594934
186	0xbd8a0332	-0.06738891
187	0xbd5651d8	-0.052324146
188	0xbc9416a0	-0.018077195
189	0xbcafbf60	-0.02145356
190	0x3f28f999	0.66005856
191	0x3e1af569	0.15132679
192	0x3e947c5e	0.29001135
193	0xbf62bc94	-0.88569
194	0xbe867b12	-0.2626577
195	0xbdd8fbf8	-0.10594934
196	0xbd8a0332	-0.06738891
197	0xbd5651d8	-0.052324146
198	0xbc9416a0	-0.018077195
199	0xbcafbf60	-0.02145356
200	0x3f28f999	0.66005856
201	0x3e1af569	0.15132679
202	0x3e947c5e	0.29001135
203	0xbf62bc94	-0.88569
204	0xbe867b12	-0.2626577
205	0xbdd8fbf8	-0.10594934
206	0xbd8a0332	-0.06738891
207	0xbd5651d8	-0.052324146
208	0xbc9416a0	-0.018077195
209	0xbcafbf60	-0.02145356
210	0x3f28f999	0.66005856
211	0x3e1af569	0.15132679
212	0x3e947c5e	0.29001135
213	0xbf62bc94	-0.88569
214	0xbe867b12	-0.2626577
215	0xbdd8fbf8	-0.10594934
216	0xbd8a0332	-0.06738891
217	0xbd5651d8	-0.052324146
218	0xbc9416a0	-0.018077195
219	0xbcafbf60	-0.02145356
220	0x3f28f999	0.66005856
221	0x3e1af569	0.15132679
222	0x3e947c5e	0.29001135
223	0xbf62bc94	-0.88569
224	0xbe867b12	-0.2626577
225	0xbdd8fbf8	-0.10594934
226	0xbd8a0332	-0.06738891
227	0xbd5651d8	-0.052324146
228	0xbc9416a0	-0.018077195
229	0xbcafbf60	-0.02145356
230	0x3f28f999	0.66005856
231	0x3e1af569	0.15132679
232	0x3e947c5e	0.29001135
233	0xbf62bc94	-0.88569
234	0xbe867b12	-0.2626577
235	0xbdd8fbf8	-0.10594934
236	0xbd8a0332	-0.06738891
237	0xbd5651d8	-0.052324146
238	0xbc9416a0	-0.018077195
239	0xbcafbf60	-0.02145356
240	0x3f28f999	0.66005856
241	0x3e1af569	0.15132679
242	0x3e947c5e	0.29001135
243	0xbf62bc94	-0.88569
244	0xbe867b12	-0.2626577
245	0xbdd8fbf8	-0.10594934
246	0xbd8a0332	-0.06738891
247	0xbd5651d8	-0.052324146
248	0xbc9416a0	-0.018077195
249	0xbcafbf60	-0.02145356
250	0x3f28f999	0.66005856
251	0x3e1af569	0.15132679
252	0x3e947c5e	0.29001135
253	0xbf62bc94	-0.88569
254	0xbe867b12	-0.2626577
255	0xbdd8fbf8	-0.10594934

global_orient f4 [165, 3]
0	0xc0455bfb	-3.083739
1	0xbd6a7d01	-0.05724812
2	0xbe3e7d1c	-0.18602413
3	0xc0458150	-3.0860176
4	0xbd6be90c	-0.057595298
5	0xbe3fa874	-0.18716604
6	0xc045aa18	-3.0885067
7	0xbd715d7b	-0.05892704
8	0xbe3e649e	-0.1859307
9	0xc045a28f	-3.0880468
10	0xbd7d5608	-0.061849624
11	0xbe34aaad	-0.17643233
12	0xc045ae98	-3.0887814
13	0xbd77b0d1	-0.06047136
14	0xbe2b3329	-0.16718735
15	0xc045d9b5	-3.0914128
16	0xbd6e22e6	-0.05813875
17	0xbe10d849	-0.14145006
18	0xc0460569	-3.0940802
19	0xbd7a9d00	-0.061184883
20	0xbdf05262	-0.11734463
21	0xc0464d32	-3.0984616
22	0xbd898654	-0.06715074
23	0xbdb53bec	-0.0884932
24	0xc04652c3	-3.0988014
25	0xbd8db69e	-0.06919597
26	0xbd8346d4	-0.06409994
27	0xc0463c2c	-3.0974226
28	0xbd95223b	-0.072819196
29	0xbd6d0881	-0.057869438
30	0xc045a992	-3.0884748
31	0xbd98a451	-0.07453216
32	0xbd4ed7b8	-0.050498694
33	0xc044db71	-3.0758936
34	0xbd9af896	-0.07566945
35	0xbd469098	-0.04847774
36	0xc04478a0	-3.0698624
37	0xbd9df3b3	-0.077124976
38	0xbd3ec028	-0.046569973
39	0xc0442955	-3.0650227
40	0xbda0f0bc	-0.078584164
41	0xbd120e0b	-0.035657924
42	0xc043d77e	-3.0600276
43	0xbda3b2c7	-0.079930834
44	0xbce1461e	-0.027499255
45	0xc043669e	-3.0531383
46	0xbd993608	-0.07481009
47	0xbc806e4b	-0.015677592
48	0xc042e667	-3.0453126
49	0xbd88ae86	-0.06673913
50	0xbbafb699	-0.0053623435
51	0xc0427942	-3.038651
52	0xbd6ab8ad	-0.057305027
53	0x3c62ed5c	0.013850536
54	0xc041dc6b	-3.0290782
55	0xbd49018c	-0.04907374
56	0x3cf1c48d	0.029512668
57	0xc04113be	-3.01683
58	0xbd200bc4	-0.03907372
59	0x3d29141e	0.04127895
60	0xc0408409	-3.0080588
61	0xbcfd07df	-0.030887542
62	0x3d434410	0.04767233
63	0xc040137f	-3.00119
64	0xbcde5700	-0.027141094
65	0x3d83e272	0.064396754
66	0xc03fec8b	-2.9988124
67	0xbd04c14f	-0.032410916
68	0x3dac7aa8	0.08421832
69	0xc03f9c54	-2.9939165
70	0xbd3741a0	-0.04474032
71	0x3df49593	0.119425915
72	0xc03fb4f6	-2.99542
73	0xbd64e01a	-0.055877782
74	0x3e22a279	0.15882291
75	0xc03f085c	-2.9848852
76	0xbd6782ba	-0.056521155
77	0x3e4d14f3	0.20027523
78	0xc03e7a26	-2.9762053
79	0xbd3807f7	-0.04492947
80	0x3e706c96	0.23478922
81	0xc03e1e34	-2.9705935
82	0xbcdf1bad	-0.027234877
83	0x3e84ee3c	0.25963008
84	0xc03dddab	-2.9666545
85	0xbc823ce3	-0.015898174
86	0x3e89c50c	0.26908147
87	0xc03d1a6d	-2.954738
88	0xbc64d56e	-0.013966901
89	0x3e8dcaa7	0.27693674
90	0xc03cb6eb	-2.9486644
91	0xbcc9b59f	-0.024622736
92	0x3e8866c6	0.2664091
93	0xc03caf99	-2.9482176
94	0xbd292d3a	-0.041302897
95	0x3e80998a	0.2511714
96	0xc03ceea4	-2.9520655
97	0xbd5db43b	-0.05412696
98	0x3e6851df	0.22687481
99	0xc03d39ea	-2.9566598
100	0xbd5b2ae7	-0.05350771
101	0x3e4eeb09	0.20206846
102	0xc03d24af	-2.955364
103	0xbd2a3960	-0.041558623
104	0x3e365163	0.17804484
105	0xc03d5a1a	-2.9586244
106	0xbd1ab986	-0.037774585
107	0x3e159a3f	0.14609621
108	0xc03d877c	-2.9613943
109	0xbd5f49c5	-0.05451371
110	0x3ddf63ab	0.10907682
111	0xc03deb79	-2.967497
112	0xbda0fa16	-0.078602
113	0x3daba57d	0.08381174
114	0xc03ddf64	-2.9667597
115	0xbdcd56d3	-0.10026326
116	0x3d87401b	0.06604024
117	0xc03d85b3	-2.9612854
118	0xbddeb8f3	-0.1087512
119	0x3d7b4a09	0.061349902
120	0xc03d722d	-2.9600937
121	0xbddfacda	-0.10921641
122	0x3d8ebb10	0.06969273
123	0xc03dba84	-2.964509
124	0xbdbab574	-0.09116641
125	0x3dbf2ad6	0.09334342
126	0xc03e57a7	-2.9740999
127	0xbd91dacf	-0.071218126
128	0x3e0114cc	0.1260559
129	0xc03f340d	-2.987552
130	0xbd85da69	-0.06535799
131	0x3e242a2a	0.1603171
132	0xc03fc199	-2.9961913
133	0xbd9d1984	-0.07670882
134	0x3e425967	0.18979417
135	0xc03f9659	-2.9935515
136	0xbdb30367	-0.08740883
137	0x3e612752	0.21987656
138	0xc03f9361	-2.9933703
139	0xbdaf92af	-0.085728996
140	0x3e7a7643	0.24459176
141	0xc03f73f7	-2.991453
142	0xbd8a4313	-0.06751075
143	0x3e893496	0.26797932
144	0xc03f1466	-2.98562
145	0xbcd86cd9	-0.02641909
146	0x3e8ce271	0.2751651
147	0xc03e4e1c	-2.9735174
148	0x3b658f1c	0.0035027927
149	0x3e8a2e07	0.2698824
150	0xc03e3964	-2.9722528
151	0x3bb2f611	0.0054614623
152	0x3e834b71	0.25643495
153	0xc03e7c0b	-2.976321
154	0xbc04ba6a	-0.008101085
155	0x3e7735f5	0.24141677
156	0xc03edc9f	-2.9822156
157	0xbcfe3e5a	-0.03103559
158	0x3e6eadf9	0.23308553
159	0xc03f13cc	-2.9855833
160	0xbd33932d	-0.04384153
161	0x3e608c24	0.2192846
162	0xc03f7e0d	-2.9920685
163	0xbd294d6f	-0.041333612
164	0x3e42a2d5	0.19007428
165	0xc03ff283	-2.9991767
166	0xbca8d575	-0.020609597
167	0x3e24201d	0.16027875
168	0xc04095d6	-3.0091453
169	0xbc849c84	-0.016187914
170	0x3e08797b	0.13327591
171	0xc041164e	-3.0169864
172	0xbd045559	-0.032307956
173	0x3dd38f90	0.10330117
174	0xc04191f3	-3.024533
175	0xbd729595	-0.059224684
176	0x3da076f6	0.0783519
177	0xc041ab36	-3.026075
178	0xbda485fc	-0.08033368
179	0x3d84fec9	0.06493909
180	0xc041384c	-3.019061
181	0xbdb54cea	-0.08852561
182	0x3d88da25	0.06682233
183	0xc04136d6	-3.018972
184	0xbda7b5b1	-0.08188952
185	0x3d89d9b3	0.06730976
186	0xc041ba58	-3.0269985
187	0xbd7b0160	-0.06128061
188	0x3da16b40	0.078817844
189	0xc04260f5	-3.0371678
190	0xbd36aa42	-0.044595964
191	0x3de5d746	0.11222701
192	0xc043247d	-3.049102
193	0xbd341df6	-0.043973885
194	0x3e1584ff	0.14601515
195	0xc043e4db	-3.0608432
196	0xbd688fea	-0.056777872
197	0x3e3389df	0.17533062
198	0xc043ac20	-3.0573807
199	0xbd951efc	-0.072813004
200	0x3e55dd51	0.20885207
201	0xc0438738	-3.055128
202	0xbda3c502	-0.07996561
203	0x3e76fa05	0.24118812
204	0xc0432197	-3.0489252
205	0xbd6f3ac4	-0.058405653
206	0x3e888be5	0.2666923
207	0xc0429790	-3.0405006
208	0xbcc54194	-0.024079122
209	0x3e8a8fa3	0.2706271
210	0xc04211e6	-3.0323424
211	0x3b45f50d	0.0030205876
212	0x3e849c75	0.25900617
213	0xc041b38b	-3.0265834
214	0x3b59cad0	0.0033232458
215	0x3e83cc56	0.25741833
216	0xc041c211	-3.0274699
217	0xbc63e30e	-0.0139091145
218	0x3e78b12e	0.24286339
219	0xc041aa2a	-3.026011
220	0xbd12dabd	-0.035853136
221	0x3e7a48c5	0.24441822
222	0xc041e3f9	-3.0295393
223	0xbd53092e	-0.051522426
224	0x3e7b3084	0.24530226
225	0xc04238ba	-3.0347123
226	0xbd6b18b9	-0.057396624
227	0x3e6f2b13	0.23356275
228	0xc042ac76	-3.0417762
229	0xbd3f0f6f	-0.046645578
230	0x3e59f91d	0.21286435
231	0xc0431640	-3.048233
232	0xbcdf4c11	-0.027257951
233	0x3e460352	0.19337204
234	0xc043b107	-3.05768
235	0xbcf3349c	-0.029688172
236	0x3e237f72	0.15966585
237	0xc0445d4d	-3.0681946
238	0xbd52fa61	-0.05150831
239	0x3e046269	0.12928165
240	0xc044c6e4	-3.0746393
241	0xbd98d89b	-0.07463189
242	0x3dc8d8cf	0.09806978
243	0xc044725a	-3.0694795
244	0xbda3df12	-0.08001532
245	0x3dbe2599	0.09284515
246	0xc0442575	-3.0647862
247	0xbda03102	-0.078218475
248	0x3db816b4	0.08988705
249	0xc04446bc	-3.0668173
250	0xbd86a9f7	-0.06575387
251	0x3db18c9f	0.086693995
252	0xc0447b15	-3.0700123
253	0xbd4225ac	-0.047399208
254	0x3db98662	0.090588346
255	0xc044d371	-3.0754054

transl f4 [165, 3]
0	0x3ea4cf93	0.32189617
1	0x3ea558e3	0.32294378
2	0x41924794	18.28495
3	0x3ea52211	0.32252553
4	0x3ea6e7ad	0.3259863
5	0x41926075	18.297098
6	0x3ea61932	0.32441097
7	0x3ea86d12	0.32895714
8	0x41928deb	18.319296
9	0x3ea72666	0.32646483
10	0x3ea98821	0.3311167
11	0x4192ac47	18.33412
12	0x3ea8a1be	0.329359
13	0x3eaa9f28	0.33324552
14	0x4192f1df	18.368101
15	0x3ea8ae10	0.329453
16	0x3eaa3a5e	0.33247656
17	0x4192affc	18.33593
18	0x3ea8484f	0.32867667
19	0x3ea9e473	0.33182105
20	0x419283fe	18.31445
21	0x3ea8ec1f	0.32992646
22	0x3eaa7a69	0.33296517
23	0x41925e78	18.296127
24	0x3ea7dd0b	0.3278583
25	0x3eac2e38	0.33629012
26	0x4191f98f	18.246855
27	0x3ea9dc48	0.33175874
28	0x3ead2756	0.33819073
29	0x4191c019	18.218798
30	0x3ea9d6dc	0.33171737
31	0x3eaea452	0.3410974
32	0x419164b7	18.174177
33	0x3ea93195	0.3304564
34	0x3eafdc64	0.34347832
35	0x419133ee	18.150356
36	0x3ea802ff	0.32814786
37	0x3eb1328a	0.3460887
38	0x4191313e	18.149044
39	0x3ea70f9a	0.3262909
40	0x3eb31f6f	0.3498492
41	0x41917bda	18.185474
42	0x3ea7cd1e	0.3277368
43	0x3eb6b7e1	0.35687163
44	0x4191ebe0	18.240173
45	0x3ea7f75d	0.3280591
46	0x3ebb21a8	0.36549115
47	0x4192af17	18.335493
48	0x3ea7f286	0.32802218
49	0x3ebe8db9	0.372175
50	0x419364a4	18.42414
51	0x3ea8ccd1	0.32968763
52	0x3ec0fe8b	0.376942
53	0x41947e81	18.56177
54	0x3ea8ac56	0.32943982
55	0x3ec35a51	0.38154843
56	0x41957046	18.679821
57	0x3ea6f6e1	0.3261023
58	0x3ec6e960	0.38849926
59	0x4195dfd4	18.734291
60	0x3ea5de2b	0.32396063
61	0x3ecadfc8	0.39623857
62	0x419615d9	18.760668
63	0x3ea36d0c	0.31919134
64	0x3ed0b2a7	0.407613
65	0x41960cab	18.756186
66	0x3ea0f62f	0.31437823
67	0x3ed8a752	0.42315155
68	0x4195843c	18.689568
69	0x3e9dbcad	0.3080801
70	0x3ee0bb07	0.4389269
71	0x41946769	18.550493
72	0x3e9bbc76	0.30417222
73	0x3ee670a6	0.4500782
74	0x4193f5a5	18.494944
75	0x3e9ac807	0.30230734
76	0x3ee9ea80	0.45686722
77	0x41935d3f	18.42053
78	0x3e99d29b	0.30043492
79	0x3ee9addc	0.45640457
80	0x4192bda4	18.342598
81	0x3e987c30	0.29782248
82	0x3ee611b0	0.4493537
83	0x4192afe9	18.335894
84	0x3e97c567	0.29642794
85	0x3ee19478	0.44058585
86	0x4192a622	18.33112
87	0x3e966e21	0.29380897
88	0x3ede711e	0.43445677
89	0x41926096	18.297161
90	0x3e963c34	0.29342806
91	0x3edb70a6	0.4285938
92	0x419275b0	18.307465
93	0x3e94ae9c	0.29039466
94	0x3eddf904	0.43354046
95	0x4191355d	18.151056
96	0x3e942266	0.28932494
97	0x3ee162ae	0.440206
98	0x41906e69	18.053911
99	0x3e933b43	0.2875615
100	0x3ee7b324	0.4525386
101	0x418f2526	17.893139
102	0x3e910198	0.28321528
103	0x3eeeab80	0.4661522
104	0x418dc1ae	17.71957
105	0x3e8ee126	0.2790615
106	0x3ef4a5e0	0.47782803
107	0x418c469f	17.534483
108	0x3e8b50de	0.27210134
109	0x3ef6b082	0.4818154
110	0x418b82a3	17.438787
111	0x3e8a14ed	0.2696909
112	0x3ef46ede	0.47740835
113	0x418b8ddb	17.444265
114	0x3e87089d	0.2637376
115	0x3eef097c	0.46686924
116	0x418bc1fc	17.469719
117	0x3e840438	0.2578447
118	0x3ee850b8	0.45374084
119	0x418b8af6	17.442852
120	0x3e8172fd	0.25283042
121	0x3ee25078	0.44202018
122	0x418b7998	17.434372
123	0x3e7f4a5a	0.24930707
124	0x3ee0fb0f	0.43941543
125	0x418b0d50	17.3815
126	0x3e7dfb5b	0.24802916
127	0x3ee404f6	0.44535035
128	0x418a68c0	17.301147
129	0x3e79ebad	0.2440631
130	0x3eeb809c	0.4599656
131	0x4188b1c9	17.08681
132	0x3e757770	0.23971343
133	0x3ef6dc3c	0.482149
134	0x4186271a	16.769093
135	0x3e711eb8	0.23546875
136	0x3eff890a	0.4990924
137	0x418401ad	16.500818
138	0x3e6fc338	0.23414314
139	0x3f025026	0.50903547
140	0x41827f97	16.3123
141	0x3e6c53ef	0.23078893
142	0x3f029df6	0.5102228
143	0x418195d3	16.198156
144	0x3e6be10a	0.23035064
145	0x3f003d56	0.5009359
146	0x4181c449	16.220842
147	0x3e6a8e97	0.22905956
148	0x3efb63a8	0.4909947
149	0x41819765	16.198923
150	0x3e69899f	0.22806405
151	0x3ef5a8aa	0.47980243
152	0x4180eaca	16.114643
153	0x3e6bfd7c	0.23045915
154	0x3ef3e116	0.47632664
155	0x41800259	16.001146
156	0x3e6d40b9	0.23169221
157	0x3ef5e08f	0.48022887
158	0x417e46d6	15.892294
159	0x3e6b0eda	0.22954884
160	0x3efd84fd	0.49515525
161	0x417b11c4	15.691837
162	0x3e690ed2	0.2275956
163	0x3f03823b	0.5137059
164	0x4177979d	15.474515
165	0x3e66f199	0.225531
166	0x3f096915	0.5367597
167	0x417318a3	15.193515
168	0x3e6415dc	0.22273964
169	0x3f0e0899	0.5548187
170	0x416ff23b	14.996638
171	0x3e63c6c1	0.22243787
172	0x3f0f68b5	0.56019145
173	0x416e6b4a	14.901194
174	0x3e618fd2	0.2202752
175	0x3f0e5b73	0.5560829
176	0x416e6824	14.900425
177	0x3e5d25fa	0.21596518
178	0x3f0b219c	0.5434816
179	0x416e99e1	14.912568
180	0x3e57e60e	0.21083853
181	0x3f07abd2	0.5299655
182	0x416e09b4	14.877369
183	0x3e4e29a8	0.20133078
184	0x3f05dd34	0.52290654
185	0x416c4612	14.767107
186	0x3e4a145d	0.1973433
187	0x3f06115a	0.52370226
188	0x416a8d40	14.659485
189	0x3e4744f1	0.19459893
190	0x3f08ea72	0.53482735
191	0x41687746	14.5291195
192	0x3e438de0	0.1909709
193	0x3f0dc6c2	0.55381405
194	0x4165bab3	14.358081
195	0x3e3d3f93	0.18481283
196	0x3f137488	0.5759969
197	0x41622ca0	14.135895
198	0x3e37fbcd	0.17967148
199	0x3f18d076	0.59693086
200	0x415e8154	13.906574
201	0x3e32b6a8	0.1745249
202	0x3f1ba36c	0.60796237
203	0x415c0adf	13.752654
204	0x3e305147	0.17218505
205	0x3f1bfab8	0.6092944
206	0x415ac6cd	13.673535
207	0x3e309c60	0.17247152
208	0x3f1a271b	0.6021592
209	0x415a5bf4	13.6474495
210	0x3e2f0b1f	0.17094086
211	0x3f171eb1	0.59031206
212	0x4159fdf8	13.624504
213	0x3e2ef938	0.17087257
214	0x3f143005	0.5788577
215	0x415843bb	13.516536
216	0x3e2d560d	0.16927357
217	0x3f1291ea	0.572539
218	0x41563b43	13.389468
219	0x3e2b8b82	0.16752437
220	0x3f12b0f4	0.5730126
221	0x4153ea18	13.244652
222	0x3e28740d	0.1645052
223	0x3f162a41	0.58658224
224	0x4150c933	13.049121
225	0x3e2373d0	0.15962148
226	0x3f1ad402	0.6047975
227	0x414d283d	12.822324
228	0x3e1fa53e	0.15590379
229	0x3f20bc06	0.627869
230	0x4148b5a2	12.544344
231	0x3e1cfe17	0.15331303
232	0x3f2593dd	0.64678746
233	0x4144ec49	12.307687
234	0x3e1982f1	0.14991356
235	0x3f28504a	0.6574751
236	0x41420a05	12.127446
237	0x3e197610	0.14986444
238	0x3f2794da	0.65461504
239	0x41410f6f	12.066268
240	0x3e144f00	0.14483261
241	0x3f24c1ab	0.64358014
242	0x41401bdc	12.006802
243	0x3e108956	0.1411489
244	0x3f213984	0.62978387
245	0x413f965e	11.974211
246	0x3e0b2060	0.13586569
247	0x3f1e9d4a	0.61958754
248	0x413e4f89	11.894418
249	0x3e05675a	0.13027707
250	0x3f1dffbd	0.6171835
251	0x413cbd59	11.796227
252	0x3e022961	0.12711097
253	0x3f203268	0.62576914
254	0x413aedd9	11.683068
255	0x3dfd4182	0.1236601
